policy_weights.pth (torch_old, 7519 bytes, 4 tensors)

layers.0.weight f4 [128, 8]
000000 cd 84 38 be ca 62 c4 3d aa 4e 8e bf db 89 4c be
       -0.1801941 0.09589155 -1.1117756 -0.19974463
000010 1f fd 14 3f 63 75 5d 3e d2 3b 79 3d b7 e2 32 3d
       0.5819873 0.2162681 0.060848065 0.043673243
000020 6d b2 f0 3a 50 b8 91 bd 68 c5 5f 3f 46 3f 3c 3e
       0.0018363722 -0.07115233 0.87410593 0.18383512
000030 2e 2c 09 bf a1 f2 9e be f6 6a 19 be 31 1a 56 bc
       -0.5358304 -0.31044486 -0.14982209 -0.013067768
000040 4b b4 27 bd 1a a8 c9 3d 6e 2d e5 be 17 b1 9f 3f
       -0.040943425 0.09846516 -0.44761223 1.2475919
000050 94 64 95 3e a4 a0 a9 3d 75 1f 7c 3e 2a 16 2c 3e
       0.29178298 0.08282593 0.24621375 0.1680533
000060 ba cd d9 3c 4e 73 aa 3d b2 48 7e 3f 6a 81 dd be
       0.026587356 0.08322774 0.99329674 -0.43262798
000070 d0 25 2c bf 66 a3 b7 bd c2 16 f7 3c 21 68 39 bd
       -0.672452 -0.08966713 0.030162219 -0.04526532
000080 ba 9c dd bd a4 bf c6 bc 43 bf 7c 3f a0 30 df bc
       -0.10820909 -0.024261303 0.9872934 -0.027244866
000090 b5 49 50 bf 58 59 94 be 84 ba 4e 3c bb 2a 7b 3e
       -0.8136247 -0.28974414 0.012617711 0.24528019
0000a0 71 be 0c bd dd 51 f3 bd 3e 4d 3f bf 15 51 43 3e
       -0.034361307 -0.118808486 -0.7472724 0.19073899
0000b0 d9 5c 14 3f 0b 47 a0 3e b3 17 d9 3d 6b 79 48 3d
       0.57954174 0.313042 0.106002234 0.04894392
0000c0 02 0c 9b b9 5b 84 37 3d 12 26 03 bf 8d 9a 99 3f
       -0.0002957285 0.04480396 -0.51229966 1.200029
0000d0 6b 43 df 3e 8e 18 bc 3d f8 ea 6f 3d 14 0e 7f bd
       0.43606123 0.09184371 0.058573693 -0.062269285
0000e0 69 f7 9f 3d 4d df 69 3d d5 f1 5d 3e 8f ff cc 3f
       0.078108616 0.05709772 0.21674283 1.601549
0000f0 2e f8 4a bd 7a 72 e0 bd 02 d6 03 3e 00 56 45 3e
       -0.04955309 -0.10959335 0.12874606 0.19271088
000100 cf 55 51 3e bd 51 ec bd 79 f9 2f bf 1d 90 9c be
       0.2044289 -0.11539028 -0.6874004 -0.305787
000110 c8 47 d0 3e 80 ae 98 3e 77 eb 27 be 6b b3 93 be
       0.40679765 0.29820633 -0.16398416 -0.28847823
000120 6b 77 10 3e 1c bb c5 bd 8e a6 8e 3f d3 54 55 3e
       0.14108054 -0.09654829 1.1144578 0.20833139
000130 90 8d 0d bf 59 d5 29 be e0 e1 76 bd a7 bb 97 bd
       -0.5529413 -0.16585292 -0.060274005 -0.07408839
000140 0a 97 fc 3d 7a 22 48 bd 29 0c 3e 3f 2b d2 e7 3e
       0.12333496 -0.048861004 0.74237305 0.45277533
000150 1d b8 12 bf 85 4a ec bd 44 09 10 be c4 8c af bd
       -0.57312185 -0.11537651 -0.14066035 -0.08571771
000160 18 53 10 3e d8 38 91 bd 39 2e 32 3e fb 1e 2b 3e
       0.14094198 -0.0709092 0.17400445 0.16711037
000170 3b 0a 71 3d c2 44 f0 3d 00 a6 8d 3b de 2d ee ba
       0.058847647 0.117318645 0.0043227673 -0.0018171628
000180 16 c5 a8 bd 58 a8 20 3c 59 7f 47 3f f3 d8 56 3d
       -0.08240716 0.009805761 0.7792869 0.052452993
000190 6d 2a e7 be 82 39 aa be 6a 6b c6 3e 7e 36 a2 3e
       -0.45149556 -0.33247 0.38753825 0.316822
0001a0 f4 59 64 3e 9b be fc 3d 33 08 2f bf 79 42 f6 3e
       0.2229994 0.123410426 -0.68371886 0.4809759
0001b0 a7 26 08 3f f8 6e 2b 3e 37 5b d6 3c 9d b5 04 be
       0.5318398 0.1674155 0.026166542 -0.12959905
0001c0 29 0d 20 be 06 7d 3e 3b c6 eb 93 3e 9c 34 da 3f
       -0.1563002 0.002906622 0.28890818 1.7047305
0001d0 b6 46 88 be cd 37 8e 3d ff 3a 8f 3e 48 35 7b 3e
       -0.26616448 0.06944237 0.27974698 0.24532044
0001e0 6e b9 24 3d db 2e 20 bd 3b 63 37 3f be 4b 2e 3e
       0.040215902 -0.039107185 0.7163579 0.17021081
0001f0 a3 90 12 bf bd 50 c9 be 3a 01 b6 bd e1 b1 ad 3d
       -0.5725195 -0.3931941 -0.08886953 0.08481193
000200 78 3f ec 3c a3 33 18 3e 08 c6 79 3f aa 20 8e 3d
       0.028838858 0.14863448 0.97567797 0.06939824
000210 3e 36 40 bf 88 49 b3 be 11 d9 10 be 5b ac 02 3e
       -0.75082767 -0.35017037 -0.14145304 0.12761061
000220 06 c9 af 3d cb ef b2 3b e5 d7 78 bf e3 19 ba 3d
       0.08583264 0.0054607145 -0.9720443 0.09086969
000230 97 b7 42 3f c1 13 dd 3e 3b ec c2 3c 70 96 26 ba
       0.76061386 0.43179134 0.023794284 -0.00063548144
000240 c9 6b 07 be b4 c6 c7 3a 07 8f 04 bf 22 3d 9a 3f
       -0.1322471 0.0015241713 -0.5178074 1.2049906
000250 a5 a2 c3 3e 96 81 ee 3d d3 38 06 3d cb ed bc 3d
       0.38210025 0.1164581 0.032769036 0.09225043
000260 99 e8 1a 3d 70 c0 e8 3b 65 0d 71 bf 99 70 47 3e
       0.03781948 0.0071030185 -0.94161063 0.19476546
000270 50 50 41 3f f0 ea 81 3e aa 1f c6 bb fe 27 08 3d
       0.7551317 0.25374556 -0.006046255 0.033241265
000280 da 4b 7e be 4b 44 91 3e db 54 09 3e 81 73 28 3f
       -0.24833623 0.28372416 0.13411276 0.65801245
000290 16 3d a5 bb 9d 5f 34 bd ef 2f a5 3e 68 a9 ea 3e
       -0.0050426824 -0.044036496 0.32263133 0.45832372
0002a0 58 91 40 bd ef a0 5e 39 0d 71 5c 3f 71 a4 d9 3b
       -0.04701361 0.00021231522 0.8611 0.0066419174
0002b0 25 9a 79 bf 89 59 c4 be ca cc ad 3d 4b 68 94 be
       -0.9750083 -0.3834956 0.08486326 -0.2898582
0002c0 03 6d 45 be fd 4f 4a 3c 89 05 7b 3f 9d 93 d1 be
       -0.19279866 0.012348172 0.9805532 -0.40932932
0002d0 23 9b 48 bf b4 54 8b be 30 11 1b be 3f cf ab 3c
       -0.7836172 -0.2721306 -0.15143275 0.020972846
0002e0 67 62 4e 3d 25 2a 1c be 20 29 98 3f 8c c0 42 3c
       0.050386813 -0.15250452 1.188755 0.011886727
0002f0 ab 7f 05 bf b3 bc 53 be 59 23 06 be 5e 8f 83 3d
       -0.5214793 -0.20677452 -0.13099422 0.064238295
000300 1e 93 ef bd 89 72 8f 3c 27 24 9c be 4d 5a cc 3f
       -0.11697982 0.01751067 -0.30496332 1.5965058
000310 4f e5 36 3e 0f 0e ed 3d 81 f9 30 3e 77 a7 32 3d
       0.17860912 0.11574947 0.17282678 0.04361674
000320 58 1a 0d 3e bd 19 11 bd 3e 26 c8 3e 02 bb a4 bf
       0.1377958 -0.035424937 0.39091676 -1.286957
000330 9d 97 69 be 68 55 0a be 3b bf d0 bd 35 da ac be
       -0.22811742 -0.13509142 -0.10192724 -0.3376023
000340 43 de 2b be 79 42 bb bc fc 37 dd 3d 52 03 c4 3f
       -0.16784005 -0.022858845 0.10801694 1.5313513
000350 c6 11 53 bd 01 72 de bc b3 6a 24 3e c4 60 00 3e
       -0.051530622 -0.02715397 0.16056328 0.12536913
000360 88 f6 63 3e f4 34 81 bd b5 01 24 bf 10 13 fe 3e
       0.22262013 -0.06308928 -0.64065105 0.4962392
000370 31 35 1b 3f 05 b4 0c 3e b1 55 14 be a6 5b a5 be
       0.6062804 0.13740547 -0.14485814 -0.32296485
000380 c2 50 af 3a 49 70 60 3d 42 c6 3a bf f4 3c f9 3e
       0.0013375508 0.054794583 -0.7295877 0.48679316
000390 84 37 b5 3e 11 34 9f 3e e0 a6 c4 3d dc 74 a4 bd
       0.35393918 0.3109441 0.096021414 -0.08030102
0003a0 86 f9 7c 3d 03 1d 5e bd 88 5e 7e 3f ef a7 a7 3e
       0.0617614 -0.054226886 0.99362993 0.3274531
0003b0 a2 ac 22 bf a8 0c 85 be 85 96 33 3d 45 10 fc bd
       -0.63544667 -0.25986218 0.04384472 -0.12307791
0003c0 79 dd 8b bc eb 5b 65 bd 57 0f 5d 3f a8 9f 86 3e
       -0.01707338 -0.055995863 0.8635153 0.26293683
0003d0 0f 16 1a bf 3c 3b b4 be 81 60 3a bd a2 52 60 3e
       -0.6018991 -0.35201442 -0.04550219 0.21906522
0003e0 ae eb 1f 3d b8 2a a0 bd fb 7c cd 3d 97 ef b9 3f
       0.03904312 -0.07820648 0.10033604 1.4526242
0003f0 42 eb 39 be 9c a2 10 bb e7 67 ea bc 01 ce 74 bc
       -0.1815615 -0.002206958 -0.028613998 -0.014941693

layers.0.bias f4 [128]
000000 09 92 19 bd 38 bf ec 3d 3d 05 a4 bd ee 1d 4b bc
       -0.037492786 0.115599096 -0.080088116 -0.0123972725
000010 84 32 da bc 73 df 0c bc 86 7a aa bd 6b 31 4c bd
       -0.026635416 -0.008598196 -0.08324151 -0.049851816
000020 fb 9c 44 bd da 02 a3 3d a0 52 53 3d b2 8d a4 3d
       -0.04800127 0.07959528 0.05159247 0.08034839
000030 6f 51 97 bd 34 02 25 bd ff 74 93 bd 60 9e 5c 3d
       -0.07388579 -0.040285304 -0.072000496 0.053861976
000040 f1 0c 38 bc 0a 61 e8 bc d0 35 22 bd 00 e2 45 bc
       -0.011233554 -0.028366584 -0.0396021 -0.012077808
000050 df 60 36 3e c2 9d bf 3c 8a 5a a9 3c 26 8a 25 3c
       0.17810391 0.023390654 0.020673055 0.010103738
000060 95 c3 6b bd 60 08 ea 3c 05 1f e5 bb 2a 3d f3 3c
       -0.05755957 0.028568447 -0.006992223 0.029692251
000070 84 1c 89 bc 2a 37 92 3c 61 bb d9 3c ac c2 0c 3c
       -0.01673723 0.01784857 0.026578607 0.008591335
000080 80 90 c5 bc 93 4a 1d 3d 7d 49 88 bd 40 2f 62 bd
       -0.024116755 0.038401198 -0.06654642 -0.055220842
000090 5b 76 a8 bc f3 28 5d 3c 62 69 a6 3d d9 e3 be bd
       -0.020564249 0.013498533 0.08125569 -0.09320802
0000a0 f9 b2 65 bc 0b 1a aa bd f3 ce 5d bc dc 83 e4 3c
       -0.014019721 -0.083057486 -0.01353811 0.027894907
0000b0 8f c0 3c 3d b9 09 86 bc 23 54 05 3e 2d 9a 8d 3c
       0.046082076 -0.016362058 0.13020377 0.01728543
0000c0 2c 5c 0e bd f7 57 3f 3d 80 4c 12 bd 9d 46 d0 3d
       -0.03475587 0.04671475 -0.035717487 0.101697184
0000d0 89 5d e5 bc 06 28 f0 bc c4 d5 83 3c 44 ac be 3c
       -0.027998703 -0.02931596 0.016093142 0.023275502
0000e0 35 f3 9b 3b 3a d1 85 bc d3 f5 44 3d 71 3d 08 3d
       0.004759217 -0.016335119 0.048086 0.03326172
0000f0 76 91 59 bd 34 bf aa 3c f4 5d 66 3d 05 9e 06 3e
       -0.053117238 0.020843126 0.056241944 0.13146217
000100 85 98 24 3d 93 a0 53 3b 74 c0 27 3d 5a d6 8a 3c
       0.040184516 0.0032291755 0.040955022 0.016947914
000110 aa 04 d0 bd 53 fe b6 3c d9 a9 7d bc 74 07 83 bd
       -0.101571396 0.022338068 -0.015482389 -0.06397906
000120 12 1b f1 bc b4 fc 0a 3c 5a 0b 33 bd ba 41 bb 3c
       -0.029431853 0.008483101 -0.043711998 0.02285849
000130 5e 77 71 bd cb 1b 1e bc 27 05 09 be 34 de 96 bd
       -0.058951728 -0.009650181 -0.13380872 -0.07366601
000140 4f 39 6e bb 04 e6 e9 3d 36 3e 42 bd 24 76 a9 3c
       -0.0036350077 0.11420825 -0.04742261 0.020686217
000150 56 c2 14 bd 15 2b 98 bb f2 6c ee bc 2f 97 52 3d
       -0.036318146 -0.0046438077 -0.029104684 0.05141371
000160 5b db db bc c9 a3 a1 3c b9 d9 26 bb 15 81 9f bd
       -0.026837995 0.01973142 -0.0025459363 -0.07788292
000170 8c 78 83 3d ca 5f 89 bd b2 6f 81 3c 40 a2 86 bb
       0.06419477 -0.067077234 0.01580033 -0.004108697
000180 20 d5 3c bd 9b 8b cb bc 78 9a 37 bb 3f ab c2 bd
       -0.04610169 -0.024846843 -0.0028015655 -0.09505319
000190 8c 3d 8b bd d0 96 91 bd 78 c5 7d 3d d3 5d 20 bd
       -0.067988485 -0.07108843 0.0619559 -0.039151978
0001a0 a3 f1 87 3c 61 43 66 3d 43 b7 fe 3b 2f 45 9e bd
       0.016594714 0.0562166 0.0077733113 -0.077280395
0001b0 1f 9a 35 3c 23 c3 0b 3d 7b 6d 87 3d 44 1b 3d 3d
       0.011084109 0.034121644 0.066126786 0.04616858
0001c0 30 6d b6 bd 20 19 20 3d f2 5e 8f bc 3e c2 dc 3c
       -0.089075446 0.03908646 -0.017501328 0.02694809
0001d0 a8 fb 61 bd 71 df b1 bc 45 db 1e 3c ae b1 49 bd
       -0.05517164 -0.02171299 0.009695833 -0.049241714
0001e0 8b 12 ee bb 6c 03 9a bd 94 e6 93 3c da 0e a1 bd
       -0.007265394 -0.07520184 0.018054284 -0.07864161
0001f0 7b 98 ab bb 16 96 5e 3d 55 62 63 3b 2d 1c 1a be
       -0.005236683 0.05434235 0.0034696062 -0.1504981

layers.1.weight f4 [4, 128]
000000 a6 41 6a be 41 14 5c 3e 91 d0 53 3f 25 1f ce be
       -0.22876605 0.21492101 0.8274012 -0.40258136
000010 e4 96 9c 3e 2f 9d a2 3e b2 63 5e 3f 2c f0 85 3f
       0.3058387 0.31760547 0.8687087 1.046392
000020 78 af c4 be 0a 1b 4f 3e 31 f1 ec 3e 11 af 40 3d
       -0.38415122 0.20225158 0.46277764 0.047041956
000030 8a 76 de 3e 54 00 94 3e dd 47 89 3f 4f 72 7e 3e
       0.43449813 0.289065 1.0725056 0.24848293
000040 c6 19 fc 3d 03 e2 9b 3d 50 c9 6f 3f 99 51 8b 3e
       0.123096034 0.07611468 0.93666553 0.27210692
000050 2c 71 06 3f 81 27 44 be ea 69 23 bf c4 91 19 bd
       0.52516437 -0.19155695 -0.6383349 -0.03749253
000060 f2 c0 8b 3f 97 6b 4a bf 9a 19 87 3f 69 bc 8c 3d
       1.0918257 -0.7907042 1.0554688 0.06871874
000070 c6 4d e4 3e 7a 37 ba 3e 21 2d f0 3e fe 30 73 3f
       0.44590586 0.3637045 0.4690943 0.9499663
000080 bd ae 12 be 5c 46 d4 3e 25 3e 6b be fc 0f fc be
       -0.1432447 0.4145993 -0.22972925 -0.49230945
000090 df d9 2e 3f 14 60 88 3e ca 19 27 bd ee 17 d5 be
       0.68301195 0.26635802 -0.04079608 -0.4161982
0000a0 91 bb 23 3f 78 6f 4a bf d3 f4 f9 be ca aa 15 3f
       0.6395808 -0.7907634 -0.488196 0.5846373
0000b0 92 f3 cc 3e 92 a8 11 3f 43 29 5c 3e 2b be 95 bd
       0.4002958 0.5689784 0.21500115 -0.07311662
0000c0 5c ff 2e bf 0b f5 db 3e e5 ee a4 be 0b 3f 02 3f
       -0.683584 0.4296039 -0.32213512 0.50877446
0000d0 f2 86 3a 3a e2 a7 5d be 10 70 36 3e ad 9a 71 bd
       0.00071154453 -0.21646073 0.17816186 -0.0589854
0000e0 35 60 a7 3c d9 a2 de 3c c4 35 ac 3e 6c af 58 bf
       0.020431617 0.027177261 0.3363477 -0.8464267
0000f0 0e ee 8e bc 3b 2b 06 bd 2f 28 9b bf 42 7f f9 3e
       -0.017447498 -0.03275607 -1.2121638 0.48729903
000100 3f ca 31 bf 54 4c 0c 3e 06 fa 88 3e 43 47 96 3d
       -0.6944923 0.13700992 0.26753253 0.07337811
000110 d3 ac 98 3e 75 78 85 bd c0 92 33 3f 45 9a dd be
       0.29819354 -0.06517116 0.701458 -0.4328176
000120 35 62 e8 be cd 4a 1b 3f 2a e8 55 be 22 f3 12 be
       -0.45387426 0.6066101 -0.20889345 -0.1435056
000130 e0 02 5d be 16 f8 46 bf a5 ef 04 bf ae b4 c4 be
       -0.21583128 -0.777223 -0.5192817 -0.38419098
000140 98 f7 60 be 13 36 f7 3e 87 8b 23 3e 62 2a 08 3f
       -0.2196945 0.48283443 0.15971194 0.5318967
000150 c8 f0 58 bf ca f3 fc 3d a3 1d 3c bf fd 79 3c bd
       -0.84742403 0.123511866 -0.7348272 -0.046014775
000160 ac bd 0e bd e7 9a a3 3e 65 41 0f 3e 76 1c b3 be
       -0.034848854 0.3195412 0.1398979 -0.3498265
000170 fd 00 f0 3e 82 4e 63 3f 1a 04 47 be ce a9 75 be
       0.46875754 0.8879167 -0.19435158 -0.23990557
000180 8f 51 14 3b ac 9d a5 3d e7 32 8d be 65 35 2d bf
       0.002263162 0.08086714 -0.27577898 -0.676596
000190 83 44 60 3f b0 25 18 bf ff bb bf 3e ab 86 37 bf
       0.8760454 -0.59432507 0.37448117 -0.7168986
0001a0 0c de 41 bf 1f 8a b1 bf bc ac 33 3f 99 5f 2f be
       -0.7572944 -1.3870276 0.70185447 -0.17126311
0001b0 5e 54 37 bf b1 79 13 bf e3 f3 d8 3c 68 34 ee 3e
       -0.7161311 -0.5760756 0.026483482 0.46524358
0001c0 31 74 02 bf 72 a9 ae 3e 4e 6d bf be 38 b0 c3 3e
       -0.50958544 0.34113652 -0.3738808 0.38220382
0001d0 68 28 ca be 47 40 5e bf d0 ce 31 3f bf d4 cd 3b
       -0.39483953 -0.8681683 0.69456196 0.006281465
0001e0 36 0e 1c be 3e 67 34 bf 6f b4 22 3f 51 b0 85 be
       -0.15239796 -0.70470035 0.6355657 -0.2611108
0001f0 4a f2 29 be 63 90 a2 bf 28 5e 59 bf cc 90 1d bf
       -0.16596332 -1.2700313 -0.84909296 -0.6154907
000200 9b 55 90 bf 4c d6 37 3f 12 37 35 be c6 8b bc 3e
       -1.1276125 0.71811366 -0.17696789 0.3682539
000210 d2 f1 1a 3f 33 51 9d be 57 ba cb 3c 03 1b 37 3e
       0.6052524 -0.30726013 0.024869127 0.17881398
000220 99 a2 3a be 2e aa 59 3f a7 4c 8e 3f b0 af 38 3b
       -0.18226089 0.850253 1.1117142 0.002818089
000230 78 d9 99 3e da f4 96 be 1b 8a 9f 3d 62 95 07 3f
       0.30048728 -0.29483682 0.077900134 0.52962315
000240 21 f4 49 3f c9 a3 1a bf 77 91 32 be 0d 4c 09 bf
       0.78888136 -0.60406166 -0.17438303 -0.5363167
000250 3a 5a 29 be 0b f0 13 3f bd c9 e7 3e 44 bb 32 3f
       -0.16538325 0.5778815 0.45271102 0.69816995
000260 df 5f 7f bd a5 0b 34 3e c1 29 99 3d d9 be 0a be
       -0.06234729 0.17582567 0.07478667 -0.13549365
000270 f0 72 88 be e3 06 8c 3f 18 59 40 3f ec 61 2c 3e
       -0.2665019 1.0939602 0.75135946 0.16834229
000280 ac 53 56 3f cc e2 04 3f 2f 05 0f bf 21 1b 17 be
       0.83721423 0.51908565 -0.55867285 -0.14756443
000290 4c f0 a6 be 8e c0 1e bf 69 54 65 3f e7 60 ef be
       -0.32605207 -0.62012565 0.89581925 -0.46753618
0002a0 17 87 a3 be 11 97 0f bf 75 c3 3a 3e 91 62 5a be
       -0.31939003 -0.56089884 0.18238623 -0.21326663
0002b0 db 2e 69 3f 35 fa 21 bf 28 74 19 3d df 28 3b 3f
       0.9108712 -0.6327241 0.03746429 0.7310924
0002c0 f8 83 1c bf cb 53 7e 3f ad 56 f3 3d 2e d0 14 3f
       -0.6113887 0.9934661 0.118817665 0.58130157
0002d0 df be 84 3e bd 4d 1c bf a7 51 01 bf 21 9a da be
       0.25926873 -0.6105612 -0.50515217 -0.42695716
0002e0 c2 bf d5 be 3f b1 be be 33 28 bb 3f 13 6d 07 3e
       -0.41747862 -0.37244603 1.4621643 0.13225202
0002f0 40 29 87 bf 12 55 4c be ca 9a 60 be 68 41 21 be
       -1.0559464 -0.19954327 -0.21934047 -0.15747607
000300 21 04 48 3e 66 8a ad 3f f9 1f 45 3f 55 c5 94 3f
       0.19532825 1.3557861 0.7700191 1.1622721
000310 7c a8 56 3e 6f 9a 53 3f a1 82 db be 80 4c 20 bf
       0.20962709 0.8265752 -0.428731 -0.6261673
000320 62 09 c5 3d 89 7d e1 3e 04 08 45 bf 7b b4 2e 3f
       0.0962093 0.44041088 -0.76965356 0.6824414
000330 ac a4 b4 bf 1e ef 26 3d 45 cb a8 bc 24 05 1f 3e
       -1.4112754 0.040755384 -0.020604739 0.15529305
000340 50 88 36 3f 05 5e 9f bd 88 f3 29 bf 49 a9 6a 3e
       0.71301746 -0.07781605 -0.66387224 0.2291614
000350 da 44 52 3e af 68 f7 be ce 46 d4 ba a4 4b 34 3f
       0.20534077 -0.48322055 -0.0016195418 0.7042792
000360 bd 3e 5c bf 87 e7 ef bd 41 a0 2a 3f 0c 9c 80 3e
       -0.8603323 -0.11714082 0.6665078 0.25119054
000370 10 29 c4 be 69 7c ab 3d 6a f0 2c 3f 31 81 1c 3f
       -0.38312578 0.08373339 0.6755434 0.6113463
000380 68 70 1e bf 3f 34 27 bf e4 98 0c bf a8 42 32 bf
       -0.6189027 -0.65314096 -0.5492079 -0.6963296
000390 96 80 98 bd ca 1d 97 3e 29 83 a7 3f 59 29 35 bf
       -0.07446401 0.29514915 1.3086902 -0.70766217
0003a0 1d 2b 4c 3e 21 0e 29 be 5f 96 e1 3e e7 94 23 bf
       0.19938321 -0.16509296 0.44060037 -0.6389908
0003b0 2f 6e eb 3d ed 18 09 3e 55 44 45 3f 02 b2 e9 bb
       0.11495625 0.13388415 0.7705739 -0.007131816
0003c0 40 70 e0 3d 00 46 a4 3f 02 9d 3b bf c1 60 ad 3e
       0.1095891 1.2833862 -0.7328645 0.3386288
0003d0 e8 2c 44 bf cb 04 f9 bc 65 19 6f 3e 3f 08 81 bf
       -0.7663102 -0.030397793 0.23349531 -1.0080642
0003e0 91 5f 37 3f 0f 98 54 be 41 3f 71 3f 10 b2 b4 bf
       0.716302 -0.20761131 0.9423714 -1.411684
0003f0 6b 08 22 3f 57 eb 07 3d 21 6d e7 be a7 99 20 bd
       0.63294095 0.033183422 -0.45200446 -0.039209034

layers.1.bias f4 [4]
000000 c8 6a 4f 3d 40 8e 39 bc 60 90 91 3d 1d 6b 40 bd
       0.050638944 -0.011325419 0.071076155 -0.04697715
