policy_weights.pth (torch_old, 22381 bytes, 6 tensors)

layers.0.weight f4 [64, 10]
0.016993446 -0.012025332 0.5012029 -0.05267438 0.28457153 -0.007753883 -0.2218168 -0.110357665
0.015576073 0.27866462 -0.022231426 0.022649286 -0.615667 -0.4084682 -0.07260781 -0.022329865
0.17328423 0.1221562 0.08510282 -0.33956233 -0.0019798847 -0.043621905 0.45303434 0.08756128
0.04952637 -0.05254129 -0.039046038 -0.16779359 0.15202235 0.4317843 0.034077477 0.0073361387
0.5454971 0.06969879 0.25194094 0.12239855 -0.15225786 -0.1077288 -0.098397695 0.3286445
-0.034950837 0.00570362 -0.48175988 -0.21100423 -0.018445177 0.035645336 0.10784941 0.06542753
-0.12682459 -0.31827256 0.074866615 -0.04390976 0.8496382 0.1880465 -0.15470207 0.07704501
-0.064957686 -0.025495144 0.2744929 0.4185418 0.0113970395 -0.001447371 0.4293856 0.06843221
0.16648479 0.07510285 -0.1369423 -0.12839946 -0.029531946 0.31274393 0.012992866 -0.03516804
0.47639254 0.24812439 0.40682745 -0.088827886 -0.027205357 -0.029574778 0.2641538 0.2608716
-0.024238598 0.012066911 -0.6211106 -0.23346819 -0.29549378 0.002494081 0.027079837 0.084517606
-0.0559694 -0.46884248 0.04616263 -0.006868081 -0.12777798 0.28455162 0.070377745 -0.09178008
0.16088192 0.045071833 0.012318446 -0.0060189553 -0.026357755 0.004213021 0.10506846 -0.11400127
0.15934758 -0.082357615 -0.11175277 -0.05063553 0.07461493 0.023808815 -0.00831997 -0.008883934
-0.311699 -0.06847844 0.071630314 -0.05958761 0.036408067 0.038498204 -0.1263814 -0.17629871
0.019431427 -0.012112286 0.09017286 -0.19861181 -0.10105343 -0.04701671 -0.01633899 0.031031832
0.09047558 0.045050964 0.02030353 -0.015234061 0.3787628 -0.21054016 0.21312858 0.039545342
-0.023070036 -0.0698486 0.060203023 0.2716653 -0.021998812 0.0032365914 -0.6247214 -0.11708914
-0.30244738 -0.09723569 0.1976873 0.15954539 0.17629518 -0.38575178 -0.024578111 -0.02917312
0.038102034 0.07571582 -0.038808763 -0.09620432 -0.120937735 -0.16066623 0.02735029 0.10996692
0.017915517 -0.002642326 -0.10899766 0.08119524 -0.20175341 0.14972968 0.12063726 0.029849473
-0.039046004 -0.028550046 0.021389283 -0.017413648 -0.13434747 -0.035673067 -0.008913884 -0.103235856
0.1854089 0.014406745 0.061485182 0.017983753 -0.01920975 -0.01829571 0.089196324 0.05434143
0.08448525 -0.008935493 -0.052399024 -0.021020148 -0.020254783 0.05802429 0.021022454 0.03845067
0.0044681844 -0.16929676 -0.023113925 0.11819804 -0.23930348 -0.10325467 -0.08389243 0.67967594
0.0020447422 -0.015015233 0.6064247 0.18214789 0.073628776 0.12637211 -0.076042116 -0.14114255
0.004308247 0.41597804 -0.010187906 0.01767961 -0.21470818 -0.078625 -0.15000288 -0.043852143
0.041236494 0.12722331 0.0058202 -0.24479368 0.008434382 -0.0008872649 0.094564766 0.07892088
-0.019375028 0.12128256 0.012392684 -0.04960296 -0.02785359 0.08738091 -0.00060163834 0.01342484
-0.22174668 -0.026905773 0.057526566 -0.14037378 0.07073211 0.06685255 0.055028457 -0.118750244
-0.044514015 -0.004826529 0.19134931 0.02950457 -0.0046791234 0.000115439296 -0.08968933 0.05448183
-0.013551942 -0.113236204 -0.016671536 0.002477612 -0.46988896 -0.14216478 -0.21689966 -0.05527618
00000000: d735 8b3c e605 45bc d54e 003f 17c1 57bd
00000010: 5cb3 913e 4914 febb f123 63be 3303 e2bd
00000020: c932 7f3c 21ad 8e3e ae1e b6bc ff8a b93c
00000030: 5a9c 1dbf be22 d1be 67b3 94bd 1fed b6bc
00000040: 6c71 313e 082d fa3d 634a ae3d 1ddb adbe
00000050: f4c0 01bb e2ac 32bd 1ef4 e73e 5453 b33d
00000060: 2adc 4a3d 8935 57bd bdee 1fbd 15d2 2bbe
00000070: bfab 1b3e d512 dd3e d394 0b3d fe63 f03b
00000080: b3a5 0b3f 3dbe 8e3d 67fe 803e 17ac fa3d
00000090: 7ce9 1bbe eba0 dcbd bb84 c9bd 1844 a83e
000000a0: 9c28 0fbd 6fe5 ba3b 3ba9 f6be 7e11 58be
000000b0: 571a 97bc d800 123d 27e0 dc3d defe 853d
000000c0: 4ede 01be 9ff4 a2be ab53 993d b8da 33bd
000000d0: e481 593f 438f 403e 386a 1ebe c6c9 9d3d
000000e0: 8908 85bd 31db d0bc 558a 8c3e 1c4b d63e
000000f0: a6ba 3a3c b6b5 bdba 6ed8 db3e 3026 8c3d
00000100: fd7a 2a3e 86cf 993d 9a3a 0cbe 267b 03be
00000110: fbec f1bc f91f a03e 08e0 543c 5d0c 10bd
00000120: b9e9 f33e 5214 7e3e b04b d03e 65eb b5bd
00000130: c5dd debc ce46 f2bc 2b3f 873e f690 853e
00000140: 0690 c6bc 4bb4 453c 1b01 1fbf 4912 6fbe
00000150: f64a 97be bc73 233b 89d6 dd3c 9117 ad3d
00000160: 2b40 65bd 1f0c f0be 0715 3d3d a40d e1bb
00000170: 3bd8 02be c0b0 913e 3522 903d 32f7 bbbd
00000180: 3bbe 243e 3e9d 383d 4fd3 493c a83a c5bb
00000190: 38ec d7bc 620d 8a3b 222e d73d 7f79 e9bd
000001a0: 032c 233e 1cab a8bd a3de e4bd 3467 4fbd
000001b0: b6cf 983d b40a c33c 7c50 08bc eb8d 11bc
000001c0: 0397 9fbe 6d3e 8cbd eab2 923d 2312 74bd
000001d0: a020 153d 4bb0 1d3d 206a 01be a687 34be
000001e0: a82e 9f3c 9c72 46bc 8cac b83d e560 4bbe
000001f0: 1af5 cebd 9894 40bd 58d9 85bc 7836 fe3c
00000200: 434b b93d 5c87 383d 9753 a63c 4898 79bc
00000210: 33ed c13e d797 57be 613e 5a3e 4cfa 213d
00000220: 5ffd bcbc c80c 8fbd 7297 763d b717 8b3e
00000230: da36 b4bc fe1c 543b beed 1fbf 6ecc efbd
00000240: 62da 9abe 8123 c7bd 8a6e 4a3e de5f 233e
00000250: b986 343e 4281 c5be 0958 c9bc 78fc eebc
00000260: e110 1c3d e510 9b3d f0f5 1ebd c506 c5bd
00000270: 34ae f7bd b085 24be b70d e03c 5636 e13d
00000280: 90c3 923c e02a 2dbb 2a3a dfbd b149 a63d
00000290: 7298 4ebe bd52 193e ab10 f73d e286 f43c
000002a0: b4ee 1fbd c9e1 e9bc 9438 af3c 11a7 8ebc
000002b0: 6292 09be ec1d 12bd 8a0b 12bc 526d d3bd
000002c0: d5db 3d3e 450a 6c3c e3d7 7b3d aa52 933c
000002d0: c45d 9dbc e3e0 95bc 90ac b63d 1f95 5e3d
000002e0: 9a06 ad3d 2d66 12bc 5ca0 56bd 7232 acbc
000002f0: 5ced a5bc e1aa 6d3d 4837 ac3c 737e 1d3d
00000300: d969 923b 215c 2dbe 6a59 bdbc d011 f23d
00000310: f90b 75be 2f77 d3bd cbcf abbd 3eff 2d3f
00000320: 1501 063b 7402 76bc a63e 1b3f fa84 3a3e
00000330: afca 963d b167 013e f8bb 9bbd ac87 10be
00000340: 322c 8d3b 13fb d43e 2deb 26bc d4d4 903c
00000350: 76dc 5bbe 2506 a1bd 5b9a 19be 4e9e 33bd
00000360: 99e7 283d d446 023e 60b7 be3b 32ab 7abe
00000370: 5d30 0a3c 5797 68ba 2cab c13d 45a1 a13d
00000380: 61b8 9ebc fe62 f83d af0a 4b3c 792c 4bbd
00000390: 362d e4bc c3f4 b23d 44b7 1dba dcf3 5b3c
000003a0: 9011 63be 7f69 dcbc faa0 6b3d 25be 0fbe
000003b0: ffdb 903d fde9 883d 8565 613d 5433 f3bd
000003c0: 5454 36bd dc27 9ebb 13f1 433e 91b3 f13c
000003d0: 5553 99bb 0018 f238 0aaf b7bd 5728 5f3d
000003e0: f708 5ebc 62e8 e7bd bf92 88bc 6f5f 223b
000003f0: 4995 f0be a593 11be f21a 5ebe 4769 62bd

layers.0.bias f4 [64]
-0.11109016 0.17868638 -0.0536539 -0.05842555 0.120987654 -0.00485148 -0.040485736 -0.1159646
0.16864915 -0.06765404 -0.020996511 -0.025385678 -0.02934216 -0.011289426 0.13093825 -0.0436435
0.09087856 -0.09252228 0.0076905633 -0.04470592 -0.050327577 -0.0071490332 0.12544197 -0.07072833
0.0010590809 0.07186242 0.10315943 -0.097355455 -0.043900754 -0.009638261 0.047723632 -0.07317197
-0.10338309 0.07501404 -0.021303264 0.11283284 -0.09934121 -0.07648373 0.13054731 -0.049579665
0.0018183739 0.10788706 0.05712725 -0.026383974 0.0025695194 0.024754476 -0.021454912 -0.047004778
-0.10495526 -0.036540024 0.034515955 0.15078425 -0.025870813 0.021171685 -0.11401707 0.030613802
-0.07298944 0.06542185 0.006671269 -0.0897491 0.054651447 0.015393158 -0.08673844 0.040102076
00000000: 3d83 e3bd 90f9 363e 31c4 5bbd a14f 6fbd
00000010: 60c8 f73d 2af9 9ebb 5fd4 25bd d97e edbd
00000020: 5db2 2c3e 348e 8abd e000 acbc a0f5 cfbc
00000030: f85e f0bc 49f7 38bc ad14 063e 87c3 32bd
00000040: 8a1e ba3d 527c bdbd 1f01 fc3b 8e1d 37bd
00000050: 4a24 4ebd 7042 eabb dc73 003e 04da 90bd
00000060: dcd0 8a3a 9b2c 933d 4045 d33d 4c62 c7bd
00000070: 47d1 33bd cce9 1dbc db79 433d 30db 95bd
00000080: 83ba d3bd f6a0 993d 2f84 aebc e714 e73d
00000090: 6873 cbbd 80a3 9cbd 32ae 053e 0c14 4bbd
000000a0: 8156 ee3a e4f3 dc3d 43fe 693d 3423 d8bc
000000b0: 6265 283b e6c9 ca3c 36c2 afbc 1588 40bd
000000c0: c9f2 d6bd feaa 15bd 9a60 0d3d 3067 1a3e
000000d0: 07ef d3bc 3e70 ad3c c881 e9bd ccc9 fa3c
000000e0: 7d7b 95bd e4fb 853d a99a da3b 60ce b7bd
000000f0: 32da 5f3d 9633 7c3c eca3 b1bd 1342 243d

layers.1.weight f4 [64, 64]
0.37655076 -0.5972165 0.37564898 0.469339 -0.3905586 0.26916605 0.34495032 0.15180577
-0.18548277 0.09492784 0.11237281 -0.08694784 -0.08215397 0.4256337 -0.34181795 -0.05235557
-0.034379274 -0.1574556 0.07737723 0.3738522 0.42395315 -0.18630701 0.100226305 -0.34097522
-0.11533533 -0.3249401 -0.492543 0.38227883 -0.007177994 0.17240235 -0.06983383 0.22360179
0.12477826 0.018996947 -0.6418935 -0.6816132 0.43856063 -0.09493496 -0.10407081 0.10810446
-0.2682875 -0.17084613 0.04617148 0.6370663 -0.119004145 0.034275237 0.14312766 0.4116313
0.5888282 0.15809666 -0.45899245 -0.38139033 -0.12958425 0.29953086 0.4127012 -0.36072826
0.45290515 -0.05912959 -0.12163888 0.076863565 0.12361296 -0.14087133 0.4248576 -0.72314864
0.020680893 -0.04986945 -0.04022956 -0.24208449 0.010662916 -0.010871689 0.060236514 0.011675585
0.15090157 -0.19078797 0.1839603 0.06326239 0.17132516 0.040196322 0.1459992 0.0491269
0.023493284 0.019948224 -0.07914556 0.09921105 0.10381169 -0.06777696 0.020663023 -0.048521634
0.031122737 0.13245101 0.072113805 0.036175523 0.18115231 -0.04327724 -0.08439625 -0.06678838
0.1356136 -0.09629521 -0.041596014 -0.25788605 0.18855254 0.10049151 0.0030908762 -0.09410811
0.073822975 0.049733344 0.09376429 -0.15915088 0.09646622 -0.08171929 0.067613006 0.020149047
-0.22313368 0.09358681 -0.0066637825 -0.13570395 0.04702979 -0.024527794 0.06223275 -0.1555915
-0.024588898 0.20919521 0.054479226 -0.14656444 0.09547823 -0.14094007 -0.1221132 -0.09768034
0.2169227 0.075151324 0.1361884 0.13944224 -0.022707108 0.16771594 -0.071987525 -0.028939037
0.021053959 -0.11255696 -0.090777576 -0.14538124 -0.122386396 -0.07917054 -0.13387278 -0.11435177
-0.04797509 -0.092294715 -0.048353124 0.0031935282 0.114257194 -0.07474002 -0.053517807 -0.14939138
0.0032620537 -0.06320971 -0.110771716 0.07316054 -0.12510917 0.08316525 0.027280798 0.0757325
0.03354445 0.1916578 -0.11694492 -0.03514188 0.18369313 0.16320165 0.14037932 0.20650868
-0.0751966 0.116499625 0.108298816 -0.07554648 -0.013483931 0.10221706 -0.16524461 0.14844236
0.09040559 0.18812828 0.04097222 -0.10384014 -0.18327393 -0.15753487 0.042840943 -0.17657036
0.24855225 0.08879841 -0.16453615 0.044610728 0.069542125 -0.18320896 0.30237433 -0.2356346
-0.0645914 -0.0045407885 -0.019569563 -0.16934204 0.110423826 -0.15676436 0.043606665 0.051014032
-0.08402009 0.15436925 -0.29919034 6.795111e-05 -0.17209178 -0.17566569 0.15170406 -0.105500154
-0.17006828 -0.05066734 -0.02959555 0.002019184 -0.16224866 -0.10599198 -0.3009059 -0.020753989
-0.027408142 0.1747918 -0.014746161 0.10522796 0.15508513 -0.16772234 0.0094357 0.05059513
0.050604798 0.15338267 0.023002451 0.08229052 -0.063321866 0.1027052 -0.14663872 -0.07073855
0.11328647 -0.019862683 -0.22501151 -0.07213444 -0.06831731 0.020627882 -0.19375457 -0.036493864
0.029126221 0.08350801 0.06184591 0.019895257 0.065473534 -0.0012618083 0.13048312 -0.0033969455
-0.028046522 0.0074136253 0.08285828 -0.036464166 0.019842533 0.13185987 -0.06347648 0.10993246
00000000: 43cb c03e 2ee3 18bf 1055 c03e 344d f03e
00000010: 4cf7 c7be 22d0 893e 549d b03e f972 1b3e
00000020: 32ef 3dbe 8769 c23d b723 e63d b611 b2bd
00000030: 5740 a8bd a9ec d93e c302 afbe cb72 56bd
00000040: 48d1 0cbd 0a3c 21be f477 9e3d 8e69 bf3e
00000050: 6310 d93e 44c7 3ebe 7343 cd3d 4e94 aebe
00000060: ee34 ecbd 8c5e a6be 992e fcbe 0dba c33e
00000070: 6135 ebbb 3e8a 303e 0a05 8fbd def7 643e
00000080: bf8b ff3d 7c9f 9b3c 2253 24bf 347e 2ebf
00000090: 058b e03e 436d c2bd 1423 d5bd df65 dd3d
000000a0: fb5c 89be 4af2 2ebe 4e1e 3d3d c716 233f
000000b0: 72b8 f3bd 3164 0c3d 0f90 123e 56c1 d23e
000000c0: 72bd 163f 17e4 213e 0f01 ebbe 9845 c3be
000000d0: bcb1 04be 1c5c 993e 924d d33e 60b1 b8be
000000e0: 2fe3 e73e de31 72bd ce1d f9bd a56a 9d3d
000000f0: cb28 fd3d 9340 10be ef86 d93e 4520 39bf
00000100: fa6a a93c e943 4cbd c0c7 24bd ffe4 77be
00000110: 83b3 2e3c 2b1f 32bc 90ba 763d f44a 3f3c
00000120: f185 1a3e ec5d 43be 1760 3c3e b68f 813d
00000130: dd6f 2f3e e6a4 243d d080 153e 4a39 493d
00000140: fd74 c03c 756a a33c 1117 a2bd 2a2f cb3d
00000150: 399b d43d a6ce 8abd 8045 a93c 9fbe 46bd
00000160: 1cf5 fe3c 3da1 073e 67b0 933d c92c 143d
00000170: fe7f 393e 7a43 31bd f1d7 acbd 59c8 88bd
00000180: 4bde 0a3e 6c36 c5bd 9560 2abd a409 84be
00000190: eb13 413e 7ece cd3d 4c90 4a3b c1bb c0bd
000001a0: 8030 973d 31b5 4b3d 7e07 c03d 73f8 22be
000001b0: 1590 c53d 715c a7bd b078 8a3d 9d0f a53c
000001c0: 287d 64be 71aa bf3d dc5b dabb faf5 0abe
000001d0: 4fa2 403d 83ee c8bc c5e7 7e3d 6153 1fbe
000001e0: a86e c9bc 4537 563e 9c25 5f3d fd14 16be
000001f0: 178a c33d 9852 10be 7c16 fabd a10c c8bd
00000200: fc20 5e3e f0e8 993d f974 0b3e f2c9 0e3e
00000210: 4204 babc babd 2b3e 326e 93bd 8f11 edbc
00000220: 5a79 ac3c 4384 e6bd 98e9 b9bd d2de 14be
00000230: b8a5 fabd 2a24 a2bd f215 09be 4331 eabd
00000240: 8781 44bd 0305 bdbd ed0d 46bd 834a 513b
00000250: adff e93d 4c11 99bd 7d35 5bbd 0efa 18be
00000260: 2ec8 553b 1874 81bd 48dc e2bd 31d5 953d
00000270: 9e1c 00be 8b52 aa3d fb7b df3c a419 9b3d
00000280: e865 093d f141 443e d180 efbd eff0 0fbd
00000290: 0d1a 3c3e 551e 273e 99bf 0f3e 0377 533e
000002a0: ad00 9abd 5b97 ee3d c5cb dd3d 1db8 9abd
000002b0: b5eb 5cbc 2e57 d13d e235 29be 4601 183e
000002c0: 9126 b93d b3a4 403e 7dd2 273d 24aa d4bd
000002d0: 29ac 3bbe d250 21be fc79 2f3d dcce 34be
000002e0: 7b84 7e3e f1db b53d 2a7c 28be bdb9 363d
000002f0: 1a6c 8e3d 219b 3bbe cfd0 9a3e 324a 71be
00000300: 7f48 84bd e5ca 94bb 5950 a0bc 0068 2dbe
00000310: e325 e23d d686 20be e79c 323d 17f4 503d
00000320: ba12 acbd f912 1e3e 7a2f 99be f980 8e38
00000330: d438 30be b5e1 33be 4f58 1b3e 7710 d8bd
00000340: 6126 2ebe 8f88 4fbd 5e72 f2bc 4954 043b
00000350: 8324 26be 5312 d9bd 5710 9abe 4504 aabc
00000360: 0a87 e0bc 9ffc 323e e299 71bc c281 d73d
00000370: a3ce 1e3e 68bf 2bbe 3298 1a3c d73c 4f3d
00000380: fa46 4f3d 5910 1d3e a36f bc3c ef87 a83d
00000390: e5ae 81bd 1b57 d23d 7628 16be 5fdf 90bd
000003a0: bd02 e83d 11b7 a2bc 6b69 66be 39bb 93bd
000003b0: f2e9 8bbd cefb a83c 9967 46be 977a 15bd
000003c0: 1d9a ee3c 3f06 ab3d 2352 7d3d 61fb a23c
000003d0: fd16 863d 4363 a5ba 5e9d 053e 4a9f 5ebb
000003e0: d2c1 e5bc ffed f23b 9ab1 a93d 735b 15bd
000003f0: cf8c a23c 4606 073e f5ff 81bd 4524 e13d

layers.1.bias f4 [64]
0.11468755 0.0038089345 0.009830194 -0.06318455 -0.22130139 0.056634787 -0.043977227 -0.017610788
-0.003540002 0.033394627 0.0012843704 -0.05502424 -0.021261653 0.007441829 0.045803778 0.07252037
0.010922262 0.008974239 0.023122087 -0.006271609 -0.0026231287 0.10240339 -0.05088154 -0.048503153
0.028223468 -0.013220123 -0.0037069942 -0.0005473223 -0.11811897 -0.0155918505 -0.06414127 0.0763615
0.016267715 0.03518656 0.005506725 0.026684836 0.17396277 0.13568962 -0.029271394 -0.022484401
-0.09235542 -0.016401812 0.016638283 -0.00041197124 0.013820117 -0.023056205 -0.017750254 0.07649302
0.034387566 -0.027820328 -0.10965501 -0.113164976 0.011165764 0.0019616864 0.03821014 0.041573282
-0.14439034 0.021979358 -0.036438778 -0.026513249 -0.01434099 0.010683652 0.09737339 0.0353917
00000000: 4ee1 ea3d 519f 793b d20e 213c e766 81bd
00000010: d59c 62be e1f9 673d 7721 34bd 8044 90bc
00000020: 61ff 67bb cec8 083d 5258 a83a 1961 61bd
00000030: eb2c aebc 96da f33b be9c 3b3d 8f85 943d
00000040: 4af3 323c b008 133c 886a bd3c 1282 cdbb
00000050: cce8 2bbb deb8 d13d 2969 50bd 3eab 46bd
00000060: e734 e73c 3799 58bc 0bf1 72bb 2e7a 0fba
00000070: 5ce8 f1bd f674 7fbc 805c 83bd 6b63 9c3d
00000080: df43 853c c81f 103d c271 b43b 289a da3c
00000090: 4c23 323e 38f2 0a3e 90ca efbc 3531 b8bc
000000a0: d724 bdbd 185d 86bc 024d 883c d8fd d7b9
000000b0: c66d 623c 5ee0 bcbc fb68 91bc 5fa8 9c3d
000000c0: fad9 0c3d 75e7 e3bc ce92 e0bd 0ac3 e7bd
000000d0: 9cf0 363c a38f 003b 3c82 1c3d bf48 2a3d
000000e0: 10db 13be 0e0e b43c d440 15bd 5032 d9bc
000000f0: 79f6 6abc 7c0a 2f3c b36b c73d e3f6 103d

layers.2.weight f4 [7, 64]
0.13575383 -0.009243511 0.078706376 -0.16747978 -0.12745586 0.11985259 0.05528187 -0.13653523
-0.016168976 -0.016985403 0.032363772 -0.11275683 -0.03000729 -0.023321256 0.044890612 0.10935331
0.017928744 -0.08034931 0.011087191 -0.038260046 0.183546 0.104658455 0.055182043 0.09649874
0.05216322 -0.018861942 0.17122917 0.014088686 -0.089306645 0.121907935 0.09309322 -0.122454196
0.062107004 -0.01901135 0.11468338 0.16394947 -0.14798436 -0.10538287 0.012120812 0.17254488
-0.0738863 -0.070529036 -0.007162637 -0.06967418 -0.054982934 -0.1663483 -0.1037024 -0.10470587
-0.079713225 -0.039270487 -0.11614653 0.11804955 -0.037846018 0.02924413 -0.024947103 0.07685818
0.13986474 -0.056643188 -0.01705903 0.13825169 -0.035718735 0.15415831 -0.15848367 -0.021511132
0.24529348 -0.008959058 -0.027713135 0.09068925 -0.17437388 0.18630174 0.0515005 -0.21566077
-0.07204487 -0.012476197 0.015946914 -0.033047542 0.0044401633 -0.008560592 -0.042590152 -0.0053570163
-0.15912133 -0.116277255 -0.0043282337 -0.014140126 0.065592825 0.09245341 0.0045554563 0.10536688
0.006878855 -0.008848639 0.19261742 0.002882133 0.06510393 0.038276047 0.011346057 -0.15912199
0.02838512 -0.017238166 0.0734352 0.0866188 -0.25093496 -0.10143079 -0.005946197 0.23006335
-0.086768486 -0.059887286 -0.14715384 0.18644063 -0.018676458 -0.056618586 -0.0041228747 0.08160569
0.087768316 -0.014768201 -0.06030282 0.22867306 -0.015168355 0.012686389 -0.013548152 -0.025361666
0.1492812 -0.017617557 -0.00845263 0.025135953 -0.0054300847 -0.064188525 -0.049520813 0.025362436
0.07012505 -0.011144926 0.009762771 0.038731698 -0.040302057 0.09054179 0.046170846 -0.19984907
-0.12482104 -0.008701336 0.015394586 -0.037565526 -0.026605576 -0.0388926 -0.028200425 0.0084178625
-0.1564913 -0.101374544 0.032072533 -0.010606665 0.09967225 0.07186493 0.035497405 0.10531925
0.09732049 -0.0030203373 0.23294607 0.009011136 0.049185228 0.07885761 0.0864642 -0.19050829
0.09091739 0.004549112 0.024041213 0.1452432 -0.28337163 -0.14793861 -0.013852962 0.24310477
-0.06979118 -0.06980035 -0.1267831 0.07923381 -0.03993566 -0.0058270767 -0.04640095 -0.017885795
0.059696462 -0.007663071 -0.053288497 0.18830366 -0.018186217 0.0046436233 0.0016254385 0.051370576
0.20684004 -0.01083433 -0.015219899 0.0016489918 -0.008495604 -0.002130495 -0.091887064 0.086219706
0.17531678 0.008268024 0.041391328 0.05246722 -0.19432612 0.16248785 0.041164212 -0.2503919
-0.055977527 0.0014423894 0.016607108 -0.039018057 -0.026941082 -0.059356727 -0.08492393 0.035164986
-0.10542971 -0.056827165 0.03725999 -0.01843763 0.04220869 0.11839754 0.026171654 0.116189815
0.04914078 -0.010683954 0.17186405 -0.0015449978 0.01889293 0.12699634 0.08298925 -0.1549156
0.07728003 0.011641621 0.026310377 0.17688544 -0.15415788 -0.11419987 -0.017060632 0.19792865
-0.09899787 -0.07657464 -0.06621705 0.085431315 -0.029905248 -0.028865837 0.014438522 0.017430827
0.09488717 -0.0058250274 -0.10094804 0.13770054 0.0036015124 -0.021017442 -0.007245633 0.040114
0.17086004 0.0021505407 -0.022810554 0.017125769 -0.022995794 -0.002468281 -0.02993344 0.029876245
00000000: 0d03 0b3e 1872 17bc cf30 a13d d27f 2bbe
00000010: ca83 02be 4675 f53d 3e6f 623d e4cf 0bbe
00000020: cd74 84bc f924 8bbc e08f 043d 0eed e6bd
00000030: d9d1 f5bc 380c bfbc 38df 373d a1f4 df3d
00000040: 4ddf 923c 2e8e a4bd 0da7 353c 91b6 1cbd
00000050: 7cf3 3b3e 2c57 d63d 9106 623d 22a1 c53d
00000060: 1aa9 553d 5c84 9abc b356 2f3e 3bd4 663c
00000070: 67e6 b6bd deaa f93d a8a7 be3d 44c9 fabd
00000080: ea63 7e3d b1bd 9bbc 1fdf ea3d 5fe2 273e
00000090: 3689 17be f9d2 d7bd 5f96 463c 9baf 303e
000000a0: b351 97bd 8771 90bd 8eb4 eabb 56b1 8ebd
000000b0: c935 61bd 3557 2abe ed61 d4bd 0870 d6bd
000000c0: b040 a3bd 17da 20bd 3bde edbd f6c3 f13d
000000d0: 6d04 1bbd 6391 ef3c de5d ccbc d267 9d3d
000000e0: b438 0f3e b002 68bd 61bf 8bbc da91 0d3e
000000f0: cf4d 12bd addb 1d3e 8b49 22be 1d38 b0bc
00000100: 372e 7b3e 03c9 12bc a806 e3bc 49bb b93d
00000110: 118f 32be e2c5 3e3e 30f2 523d 2dd6 5cbe
00000120: 438c 93bd f768 4cbc 1aa3 823c dc5c 07bd
00000130: ca7e 913b ba41 0cbc 0373 2ebd e989 afbb
00000140: b4f0 22be c522 eebd dbd3 8dbb fdab 67bc
00000150: 8855 863d 3758 bd3d f045 953b 97ca d73d
00000160: 0568 e13b e2f9 10bc 803d 453e 2be2 3c3b
00000170: 3655 853d 58c7 1c3d d0e4 393c e0f0 22be
00000180: e987 e83c 0e37 8dbc 3265 963d 3365 b13d
00000190: 8c7a 80be f2ba cfbd 51d8 c2bb ba95 6b3e
000001a0: adb3 b1bd 5f4c 75bd 7faf 16be 4bea 3e3e
000001b0: 5fff 98bc e4e8 67bd 2e19 87bb e220 a73d
000001c0: e0bf b33d 53f6 71bc 1700 77bd 4529 6a3e
000001d0: b184 78bc 92da 4f3c 11f9 5dbc 45c3 cfbc
000001e0: 2cdd 183e b252 90bc e67c 0abc eae9 cd3c
000001f0: daee b1bb 4675 83bd 56d6 4abd e2c4 cf3c
00000200: b99d 8f3d 3599 36bc 08f4 1f3c 21a5 1e3d
00000210: c513 25bd f96d b93d a41d 3d3d 3ca5 4cbe
00000220: 2ca2 ffbd 0c90 0ebc 9339 7c3c 4fde 19bd
00000230: f0f3 d9bc d94d 1fbd 9404 e7bc 13eb 093c
00000240: 413f 20be 759d cfbd 7d5e 033d 94c7 2dbc
00000250: f720 cc3d ec2d 933d ba65 113d 9eb1 d73d
00000260: f74f c73d daf0 45bb 6a89 6e3e 72a3 133c
00000270: 7376 493d 1980 a13d 2414 b13d 9b14 43be
00000280: e632 ba3d b810 953b 14f2 c43c a2ba 143e
00000290: 1616 91be 387d 17be 89f7 62bc 75f0 783e
000002a0: aeee 8ebd 7cf3 8ebd 6ed3 01be 5645 a23d
000002b0: 9393 23bd 10f1 bebb ec0e 3ebd 3b85 92bc
000002c0: 4784 743d 801a fbbb 0a45 5abd add2 403e
000002d0: 43fb 94bc 8929 983b aa0c d53a f469 523d
000002e0: e0cd 533e 7982 31bc e25c 79bc fc22 d83a
000002f0: 2531 0bbc c69f 0bbb 492f bcbd f593 b03d
00000300: 3e86 333e 9b76 073c f489 293d dee7 563d
00000310: 6dfd 46be 3763 263e ce9b 283d 5e33 80be
00000320: b148 65bd 8f0e bd3a a10b 883c 66d1 1fbd
00000330: 8bb3 dcbc 0a20 73bd 99ec adbd 2909 103d
00000340: 88eb d7bd 9ac3 68bd ee9d 183d 830a 97bc
00000350: 05e3 2c3d 697a f23d f065 d63c edf4 ed3d
00000360: d847 493d c00b 2fbc 21fd 2f3e 8681 caba
00000370: 59c5 9a3c 540b 023e 45f6 a93d 32a2 1ebe
00000380: fe44 9e3d 7fbc 3e3c dc88 d73c 7521 353e
00000390: 90db 1dbe 9fe1 e9bd bdc2 8bbc cfad 4a3e
000003a0: 65bf cabd 2ad3 9cbd ce9c 87bd 9df6 ae3d
000003b0: dafb f4bc 0c78 ecbc 8d8f 6c3c 18cb 8e3c
000003c0: 3454 c23d dfdf bebb d9bd cebd 5f01 0d3e
000003d0: 5a07 6c3b c52c acbc c66c edbb 944e 243d
000003e0: eff5 2e3e 16f0 0c3b 33dd babc 574b 8c3c
000003f0: ad61 bcbc e2c2 21bb f936 f5bc 07bf f43c

layers.2.bias f4 [7]
0.021756573 0.020187387 0.14697812 -0.004714651 -0.024740754 -0.109320536 0.019413402
00000000: d73a b23c 0560 a53c 6f81 163e 5c7d 9abb
00000010: 1fad cabc 72e3 dfbd db08 9f3c
