policy_weights.pth (torch_old, 541518 bytes, 11 tensors)

critic.0.weight f4 [256, 4]
000000 98 6f 02 bf f8 90 df be f5 36 98 be aa 0e e7 be
       -0.5095153 -0.4366529 -0.2972943 -0.45128375
000010 f0 a3 b9 be 13 69 94 be 6b fd 9b be 92 f0 4c be
       -0.36257887 -0.28986415 -0.3046678 -0.20013645
000020 34 0c 8d bd 02 07 ed be f0 35 dd 3e 6a 91 24 3e
       -0.06887093 -0.4629441 0.43205214 0.16071096
000030 92 bc b3 3e 10 ed 89 be dc 1c 4a be 7b a5 3e bc
       0.35104805 -0.26938677 -0.19737571 -0.011636133
000040 b3 9d dd be cc e8 3f be c3 e3 70 be f9 b7 bb 3e
       -0.43284377 -0.18741149 -0.23524384 0.36663797
000050 c4 24 bf be 5d d1 cd be ef e9 95 bd b4 03 b7 3e
       -0.37332737 -0.40198794 -0.0732001 0.35745013
000060 26 59 b6 be 95 b4 51 be 1f 12 b2 bd b4 00 54 3b
       -0.3561489 -0.20479043 -0.086948626 0.0032349052
000070 ed 5e 03 bf c5 09 b8 3e ca 0f e0 3e 6c 6f 01 bf
       -0.5131672 0.35944954 0.43762046 -0.5056064
000080 ba b6 a5 3e 4f 77 e7 3e 95 46 3a 3d 09 be ae be
       0.32365972 0.45208213 0.04547747 -0.3412936
000090 fa 90 a2 3e 06 63 66 3e 2a 9c e7 3e b9 bf fa bd
       0.31751233 0.22498712 0.4523633 -0.122435994
0000a0 3c e4 cc bd 55 6a da bd 7b 1a 73 3e e8 17 07 bf
       -0.1000447 -0.106648125 0.2374057 -0.52770853
0000b0 6d 2d 93 3d bd f3 c4 be 7b 81 e9 be b7 80 e8 3e
       0.07186399 -0.38467208 -0.45606598 0.45410702
0000c0 a4 15 df 3e 2c c0 c2 be 35 03 f6 3d ba f7 b2 3e
       0.43571198 -0.3803724 0.120123304 0.34954625
0000d0 f2 f1 e0 3e 65 26 96 3e 45 4f 16 be 04 dc d2 be
       0.4393459 0.29326168 -0.14678676 -0.41183484
0000e0 c3 08 d7 3e 35 64 e8 3e ea 6c d9 bd ff 86 b9 be
       0.41998872 0.45388952 -0.10616477 -0.36235806
0000f0 8b 00 00 bf ae 74 96 3e 4e ee c3 3e d0 3c c1 be
       -0.5000083 0.29385895 0.3826775 -0.3774171
000100 33 d0 d1 be 7d b6 9b 3e 17 d4 8b bc ea 58 ad bc
       -0.40979156 0.30412665 -0.017068906 -0.021160562
000110 09 c2 a2 be 87 a7 9f bd ec ea e6 3e 51 e4 95 3e
       -0.31788662 -0.07795625 0.45101106 0.29275754
000120 e6 dc af 3d 17 58 00 3f ea 7d ee 3d 9c dc 48 3e
       0.08587055 0.50134414 0.1164511 0.19615406
000130 43 61 76 3e 88 78 9e be c0 b8 78 bd 00 94 84 be
       0.2406054 -0.30951333 -0.060723066 -0.25894165
000140 54 e7 f5 3e 92 de ec bd 93 7a 8c be 70 ca 1d 3e
       0.48028052 -0.115658894 -0.27437267 0.15409255
000150 f9 22 88 bd 1c fd 19 3e 6f 8a 01 3d 6b dd 4a 3c
       -0.066472955 0.1503796 0.03162616 0.012381892
000160 af dd c8 3e 79 fc 17 be 5b df 71 3d 56 57 76 3e
       0.3923163 -0.14842404 0.0590509 0.24056754
000170 25 82 a9 3e a8 6f ed 3d 5d 48 d0 bd 36 9e 6a 3e
       0.33107105 0.11593562 -0.10170052 0.22911915
000180 10 59 38 be f2 aa 91 3e 74 e8 e5 bd cd e6 9d 3e
       -0.18002725 0.28450733 -0.112259775 0.3084015
000190 51 c5 d5 3e 09 e5 ec 3e 67 82 8e 3e 0b a6 e8 3e
       0.41752103 0.4626849 0.27833864 0.4543918
0001a0 8d 96 91 bd 71 eb bf 3d be cd f3 3e f3 a8 12 3c
       -0.071087934 0.09371079 0.47617906 0.008951413
0001b0 f8 ba 37 be fa 28 0b 3f 09 f6 9b 3e f5 4f 7f 3e
       -0.17942417 0.543594 0.30461147 0.24932845
0001c0 23 a9 ac 3e 44 c4 47 3e 7f fe de bd a9 2c 78 3e
       0.3372279 0.19508463 -0.10888385 0.24235786
0001d0 90 8d a4 3e d6 c9 b3 be d8 7d b0 bc 4c 23 ca be
       0.32139254 -0.35114926 -0.021544382 -0.39480054
0001e0 fa 9d 1e 3e 42 1a 10 3e de fa 3d be 25 8d 77 3e
       0.15489951 0.14072517 -0.1855273 0.24174936
0001f0 e0 e8 0d bc 7b c8 e2 be a0 8f 25 3e a7 53 81 be
       -0.008661479 -0.4429358 0.1616807 -0.25259134
000200 78 f8 8e bd 0c 5e 8c be 44 36 89 3d 58 46 72 3e
       -0.069809854 -0.27415502 0.066998035 0.23659647
000210 d2 60 6e 3e d8 e3 b0 3e 7b 78 62 3e 3b 5a e2 be
       0.23279122 0.3454883 0.22116272 -0.44209465
000220 00 b1 88 3e c2 ac cf be e5 f6 1c 3e 58 41 89 3e
       0.2669754 -0.4056149 0.15328558 0.26807666
000230 21 8e 37 3e 46 52 b1 be e8 92 8e bc c1 1a f2 3e
       0.17925312 -0.34633082 -0.017404035 0.47286037
000240 d7 8d 43 be b3 31 0c be 75 27 5e 3e 47 33 be be
       -0.19097076 -0.13690834 0.21694739 -0.37148497
000250 37 64 e7 3e 2a c9 3c 3e bf c3 d6 bd 08 b2 92 be
       0.45193645 0.18436113 -0.10486554 -0.28651452
000260 2e 8a d6 3c 16 00 8a 3e c6 8d 95 be 7e 18 a4 be
       0.026188936 0.2695319 -0.29209727 -0.32049936
000270 c3 14 94 be 22 be f7 3c de 56 aa 3e 30 42 b3 3e
       -0.2892209 0.03024203 0.332694 0.35011435
000280 87 ba 74 bd 31 cc 31 3e 82 30 ae 3e 27 c5 c8 be
       -0.0597482 0.17363049 0.34021384 -0.39212915
000290 54 76 38 3e 36 2c 5d 3d 87 84 87 3e 9c 1c 17 3d
       0.18013889 0.05399724 0.26468298 0.03689252
0002a0 77 d3 a6 3e 0a 6f df be 6c 74 89 3e 6d ed 40 3e
       0.3258321 -0.43639404 0.26846635 0.18840571
0002b0 f1 4c 58 be e3 68 42 be 64 7f d0 be f3 62 bb be
       -0.21123101 -0.18985324 -0.4072219 -0.3659893
0002c0 fa 93 00 3e 0f d3 4d be 1c 67 e7 be e4 d3 16 be
       0.12556449 -0.20100044 -0.45195854 -0.14729267
0002d0 9f 3e ce 3e 2e 6d 15 3e 0a ce 08 3e 3c af bd be
       0.4028215 0.1459243 0.13359848 -0.37047756
0002e0 0b 88 0a 3d 48 aa bf 3e 36 36 ce 3e 85 df 45 3d
       0.033821147 0.37434602 0.40275735 0.048308868
0002f0 56 9e d0 be a5 2b ab be 07 71 d4 bd b0 14 93 3e
       -0.407458 -0.33431736 -0.10373121 0.2872672
000300 ef 50 f6 3e c3 4e 8b bd d0 4a c4 be d7 f2 b4 be
       0.48108622 -0.06802132 -0.38338327 -0.35341522
000310 cb 65 cf 3d 70 51 1e be f5 55 04 3e f9 6f c8 3c
       0.10126837 -0.15460753 0.12923415 0.024467455
000320 a6 46 9d 3e af 0e 04 3e 65 00 f6 be 5d 56 71 3d
       0.30717963 0.12896226 -0.48047176 0.058920253
000330 4a 22 e5 3d fd 6f 8c 3e c6 a5 cb be 2b bb ac 3e
       0.11188181 0.2742919 -0.39774913 0.33736548
000340 96 56 ba be 38 68 58 bd 79 0b 00 be c9 10 da be
       -0.36394185 -0.052833766 -0.12504376 -0.4259093
000350 58 b4 39 3e 07 fd c0 3e 6b 03 54 3e 4e 6d 73 3d
       0.18135202 0.37693045 0.20704429 0.059430413
000360 51 74 fe 3e db 77 f1 bd 6b a5 58 be 86 94 fa be
       0.49698117 -0.11790439 -0.21156852 -0.4894144
000370 0b 36 e2 3c 7f 93 8c be 13 97 34 3e 62 8e 86 3e
       0.02761366 -0.2745628 0.17635755 0.26280504
000380 e0 4e b3 3e 7c aa 87 3e 59 c9 7e 3d b7 a5 8f be
       0.35021114 0.26497257 0.06220374 -0.28056118
000390 61 9e f2 3e d7 53 0b 3e f2 b2 92 3e 27 95 c5 be
       0.4738646 0.13606201 0.2865215 -0.38590357
0003a0 33 59 98 be ff e6 20 be 7e 6f d7 3e e2 74 eb be
       -0.29755554 -0.15713118 0.4207725 -0.45987612
0003b0 c0 62 4f bd ea d9 ed 3e fa 08 32 be df 31 d7 3e
       -0.050631285 0.46455318 -0.17386237 0.42030236
0003c0 46 3b ef be 21 04 f2 be 48 09 08 bf 22 13 b7 3e
       -0.4672491 -0.47268775 -0.5313916 0.35756785
0003d0 fb b2 cc 3e ce c5 af 3e 00 1d 57 be 4e 06 d2 bd
       0.399803 0.343306 -0.21007156 -0.10255109
0003e0 f0 0a d4 3b 72 8f f1 3e 3d 08 9c be 08 6c 07 be
       0.0064710304 0.47179753 -0.30475035 -0.13224804
0003f0 74 22 74 3e 27 f0 df 3e 7b db cb 3e 28 9e c9 3e
       0.23841268 0.4373791 0.39815888 0.39378476

critic.0.bias f4 [256]
000000 0f c7 fd 3d cf 51 7a 3e c2 4d be be 60 1f fd be
       0.12391483 0.2444527 -0.371687 -0.49438
000010 d6 fc 42 be 08 15 f6 3e bd b9 0a 3f c7 46 c7 3e
       -0.19041762 0.4806292 0.54189664 0.38921186
000020 65 f0 79 3e 3f db 43 3d b1 7b ae be 82 a3 a9 be
       0.2440811 0.04781651 -0.34078744 -0.3313256
000030 6c 34 27 be bd 4d a2 3e 84 39 96 be 59 53 2a bd
       -0.16328591 0.31699935 -0.29340756 -0.041583393
000040 63 72 75 3e 30 6b a4 be f0 e0 d0 be 85 da d1 3d
       0.23969416 -0.32113028 -0.40796614 0.102467574
000050 ff 15 b3 3d d8 5b a5 3e a0 de 54 3e 8f 07 84 be
       0.0874443 0.32296634 0.2078805 -0.25787017
000060 24 db 0a 3e f8 8e 0f 3f c6 92 6a be 89 e9 fd bd
       0.13560158 0.5607753 -0.22907552 -0.12398059
000070 25 12 d2 be ce 07 12 3e 58 75 8f 3e 31 bc 0a 3f
       -0.41029468 0.1426079 0.28019214 0.5419341
000080 79 64 ad be 5c e4 0e be 56 ef 53 be 79 bd 6d be
       -0.33865717 -0.139543 -0.20696768 -0.2321681
000090 7f 5f 6d 3e 0e 7e 0a 3f 82 a4 de be c3 c6 24 3f
       0.2318096 0.54098594 -0.43484885 0.64365786
0000a0 7f 64 47 be aa cc 16 3e 42 ee 74 be ac 30 8c be
       -0.1947193 0.1472651 -0.23919013 -0.27380884
0000b0 b5 e9 9a be 77 c3 45 be 6b e9 1a be f3 27 c3 be
       -0.3025643 -0.19312845 -0.15128104 -0.38116416
0000c0 d3 0a 0b be 8a 8d 9f 3e 56 9c c1 3e 92 f0 77 be
       -0.13578348 0.31162673 0.37814587 -0.24212864
0000d0 05 ba 42 be eb 61 68 be 54 18 60 be b6 c2 16 3f
       -0.19016273 -0.22693603 -0.2188428 0.58890855
0000e0 c2 50 ae be bf 12 a7 be 38 d9 9c 3d 52 30 e2 3e
       -0.34045988 -0.3263149 0.07658619 0.4417749
0000f0 c5 11 5a be 41 02 f7 bc 74 3d 0f 3f 5a a6 42 be
       -0.21295841 -0.030152442 0.55953145 -0.1900877
000100 52 1b b4 be 6b 82 19 3f f5 94 0d 3f a8 05 82 be
       -0.35177094 0.5996463 0.55305415 -0.2539494
000110 45 34 e6 3d 72 ec 93 be fc f2 ec bd 28 e4 18 3f
       0.11240438 -0.2889133 -0.11569783 0.5972314
000120 1e 57 ca 3b 94 97 53 be 80 ae 01 3f 6b ea a6 be
       0.006174936 -0.20663291 0.5065689 -0.32600722
000130 3f 23 fe be dd 0b 0f 3e 60 cd 80 be 90 cf 87 3e
       -0.49636266 0.13969369 -0.2515669 0.26525545
000140 22 63 d9 3e fa 29 3b 3e ef 27 ac 3e c2 88 c6 be
       0.42458445 0.18277732 0.33624217 -0.38776213
000150 9b bc 24 3f 0a db 14 3f 95 23 6f be 24 69 e8 bd
       0.6435029 0.5814673 -0.23353417 -0.11348179
000160 58 d9 8e 3d 6d 9c fc 3e be 72 da be 03 61 1a 3f
       0.06975049 0.49338093 -0.42665666 0.6030428
000170 6d c2 c8 3e 48 ed e3 3e 43 e8 f9 3e 8a 23 a4 be
       0.39210835 0.4451697 0.48810014 -0.32058364
000180 de cf bc 3e 79 0f 04 bf 7c 09 b4 3e fe 42 02 be
       0.3687734 -0.5158611 0.35163486 -0.12720868
000190 6f 22 b9 be 98 63 33 be 80 89 02 3f d3 69 8b 3e
       -0.36159083 -0.17518461 0.5099106 0.27229175
0001a0 e2 65 a4 3e b5 83 7c 3e 51 80 ec be c2 51 de 3e
       0.3210898 0.24659617 -0.46191648 0.4342175
0001b0 ba fb d5 be 90 3c 1f be 16 57 f5 3d 53 ba 16 3f
       -0.41793615 -0.15550447 0.11979501 0.5887806
0001c0 22 ed 83 3e 85 c4 a1 be 52 2b 3d 3e f7 0d 18 3f
       0.25766855 -0.31595245 0.18473557 0.5939631
0001d0 66 67 e2 3e 3d 59 6b be 97 13 aa be 83 51 ad 3e
       0.44219512 -0.2298326 -0.3321807 0.3385125
0001e0 2a 05 66 be ff 92 7b bd 44 af 0c 3c e7 22 e5 3e
       -0.22462907 -0.061419483 0.008586708 0.4475319
0001f0 c1 8e 0e be 20 a2 a1 be 9c fb c2 3e 87 4d eb 3e
       -0.13921644 -0.31569004 0.38082588 0.45957586
000200 0c 9f a9 be 8f 8d 1e 3f 3b 15 4a be 74 f8 49 be
       -0.33129156 0.6193475 -0.19734661 -0.19723684
000210 ae 84 0a 3f ee 67 37 be 8e fa df be ed 4f 26 be
       0.54108703 -0.1791074 -0.43745846 -0.16241427
000220 66 84 cf be 59 85 d3 3e 64 aa 58 be 7b 35 d4 3c
       -0.405307 0.41312674 -0.21158749 0.025904408
000230 f6 a9 de 3e c1 ce 74 be 14 39 dd bd 60 1f b5 3e
       0.43489045 -0.23906995 -0.108019024 0.353755
000240 54 f1 de 3e b5 82 45 be 21 43 61 3e 6e 48 bd 3d
       0.43543494 -0.19288142 0.21998264 0.092423305
000250 8c 62 05 3f 38 d7 74 be e5 dc d2 3e ca 74 2e bd
       0.52103496 -0.23910224 0.41184154 -0.042591847
000260 4c 5c 80 be b3 56 26 3f 76 90 89 3e 87 2c 94 3e
       -0.25070417 0.6497604 0.26868027 0.28940222
000270 d3 10 0a 3e 9d 47 45 3e de 88 50 3e 61 19 81 3e
       0.1348298 0.192656 0.2036471 0.25214675
000280 63 95 01 3d 0a dc 40 be ae 29 7c be 62 1a b7 be
       0.031636607 -0.18833938 -0.24625275 -0.35762316
000290 6c 71 46 be e9 b9 f7 3e ab 53 07 3e c1 6b b6 be
       -0.19379205 0.48384026 0.1321551 -0.35629085
0002a0 60 14 f9 3d 78 98 b6 be de 19 c0 be 3a 13 b0 be
       0.12162089 -0.356632 -0.37519735 -0.3438967
0002b0 bb 90 ba be fa 08 3d be f2 9e 84 be af 4f a5 bd
       -0.36438546 -0.18460456 -0.25902516 -0.08071839
0002c0 2c 49 15 3f a0 d4 13 39 3d 9e 05 3f 98 01 0a 3f
       0.58314776 0.00014098221 0.5219458 0.5390868
0002d0 ca 18 26 3e a5 9a 20 3f 94 93 c9 be 78 e0 82 3e
       0.16220394 0.6273597 -0.39370406 0.2556188
0002e0 b0 95 9d be 3d e1 10 3e ae 25 19 3e 40 ab 20 3f
       -0.30778265 0.14148422 0.1495578 0.62761307
0002f0 80 9d b9 be 3a 8f 63 3c fd bf bc be 0c bf 79 3d
       -0.36252975 0.013889128 -0.36865225 0.060973212
000300 cf 59 a4 be 29 66 07 bc 8f 1c a7 bb a3 d5 ed be
       -0.3209977 -0.008264103 -0.00509984 -0.46452054
000310 25 ba 19 3f 90 cb ed 3e e2 43 10 3f a8 e2 83 3e
       0.6004966 0.46444368 0.5635358 0.25758862
000320 5b 00 82 bd 06 63 c3 3e 9a 05 bf be 05 80 ad 3e
       -0.06347724 0.38161486 -0.3730896 0.33886734
000330 d7 ed eb 3e 91 1e ec be 3e ed 1b 3f 5d 16 fd 3d
       0.46079895 -0.4611707 0.6090888 0.12357781
000340 e8 83 a1 3e 90 d6 ea be 63 e4 15 3e 6b 03 2a 3e
       0.3154595 -0.45866823 0.14637904 0.16602866
000350 9f 60 c5 be 78 3e e2 3e f5 f8 82 3e 55 05 cd 3e
       -0.3855028 0.44188285 0.25580564 0.4004313
000360 13 c4 8b bd 84 ee 8b 3e 6a 17 0f 3f ac 50 fe 3e
       -0.068245076 0.2733041 0.558951 0.49670923
000370 9c fe 86 3e 54 e3 9b be 78 60 1e 3f 63 cb 12 3f
       0.26366127 -0.30446875 0.6186595 0.57341594
000380 11 a1 30 be 5a 7f 9d be 35 31 c3 3e cc 6d 8f 3e
       -0.17248942 -0.30761224 0.3812348 0.28013456
000390 b1 13 17 3e df 21 71 be 0d 58 c6 be 48 ec f1 be
       0.14753605 -0.23548077 -0.38739052 -0.4725058
0003a0 db 94 e3 3d 2c be 4a bc 30 ec 87 be 52 1f 34 be
       0.11112376 -0.012374442 -0.26547384 -0.17590073
0003b0 45 26 76 bd f6 42 3b be 0a 3c 7c be 72 0e 9f 3e
       -0.06009509 -0.18287262 -0.24632278 0.31065708
0003c0 e4 23 89 3e cc 38 6a 3e e0 87 47 be 4d cc ab be
       0.26785195 0.22873229 -0.19485426 -0.33554307
0003d0 fe ed e8 be 3e 49 1c 3f fa 0a 38 be 23 dd 87 be
       -0.45494074 0.6104926 -0.17972937 -0.265359
0003e0 ec 02 7c be 01 67 4b 3e 88 85 04 3f 9e ab 4c 3b
       -0.2461049 0.19863512 0.5176625 0.0031230222
0003f0 cb cb 45 3e 3f 7e e3 be 6b a9 09 3f bb b9 80 3e
       0.19316022 -0.44432256 0.53774136 0.251417

critic.2.weight f4 [256, 256]
000000 cd 21 fb 3d e6 4f bf 3d fd 2e 6c bd 2b 77 25 3b
       0.12262306 0.09341411 -0.057662 0.0025248032
000010 86 9e 06 3d 04 8e fb 3d 24 4b 3b 3e 81 e4 7b 3d
       0.032866023 0.12282947 0.18290383 0.061497215
000020 bf 7e c3 3d 7b af 23 3d 3f d7 84 bc 9d 2b 6c bd
       0.09545659 0.039962273 -0.016215919 -0.05765878
000030 20 ba 0b bd a9 54 74 bb ec 02 69 bd 31 f8 35 3c
       -0.03411305 -0.0037281907 -0.056887552 0.011106537
000040 71 95 f8 3d 95 e0 57 bc 7c bf cc 3a 15 ff ae 3c
       0.12137879 -0.013176103 0.0015621032 0.021361867
000050 87 f5 36 3d d0 35 52 3d 57 d6 a3 3d b4 15 2c bd
       0.044667747 0.05132085 0.079998665 -0.042012885
000060 ab 11 0b 3d fe fd e4 3d 0c e0 fa 3c 80 4b 0a bd
       0.033952396 0.11181258 0.030624412 -0.03376341
000070 70 5d 30 bb 02 d7 b9 3d a2 35 bb 3d a2 cd b0 3d
       -0.0026911162 0.090742126 0.09141089 0.08632971
000080 eb 93 88 bc b5 21 22 3c 3e 97 6b bd 47 8b 9a bc
       -0.016672095 0.009895732 -0.057517283 -0.01886524
000090 79 81 db 3d 69 cf b3 3d c3 05 94 bd ee 67 88 3d
       0.10718054 0.08779795 -0.072276615 0.06660448
0000a0 0d 9b 68 3d 32 7c 0c 3e 58 85 a1 3c 71 a3 c1 bc
       0.056788493 0.13719252 0.019716904 -0.023637505
0000b0 96 40 5e 3d ba d6 67 bd 74 67 e6 bc 7d 5d 33 bd
       0.054260813 -0.056601264 -0.028125502 -0.04379033
0000c0 f0 4a 74 bd d9 f2 9d 3d fb 41 14 3e d9 0b 40 3d
       -0.05964178 0.07712335 0.14478295 0.0468863
0000d0 62 d8 9f 3c e0 5c 3e bd a4 5f 1a bd 58 9e fa 3d
       0.019512359 -0.04647529 -0.037688866 0.12237233
0000e0 1c 76 67 bd 9f 02 e1 bd 0b 5d c8 3d 5f 65 4c 3d
       -0.056509122 -0.10986828 0.097833715 0.049901363
0000f0 d2 7d 57 3b 77 6a c9 3c e5 00 1b 3e ee 75 8f bd
       0.0032881391 0.0245869 0.1513706 -0.07004915
000100 ef c4 af bc e9 72 12 3e 07 7e 12 3e 48 56 8a bd
       -0.02145621 0.14301647 0.14305888 -0.06754738
000110 22 07 b8 3d 35 fa c6 bc c4 07 0b bd 65 02 1f 3e
       0.089857355 -0.02428923 -0.033942953 0.15528257
000120 6c 3a b8 bc d0 c5 1c bd 18 ba 08 3e 63 f9 96 bd
       -0.022488795 -0.038274586 0.13352239 -0.073717855
000130 a8 1b 4b bd d1 9b 66 3c aa 1e 93 bc f7 de e2 3d
       -0.049586922 0.014075235 -0.017958958 0.110776834
000140 0c 37 57 3d 45 29 6a 3d 63 36 17 3e 34 dc ba bc
       0.05254273 0.057168264 0.1476684 -0.02281008
000150 54 c4 12 3e 59 21 17 3e 44 8f 91 3d 55 29 02 bb
       0.14332706 0.14758815 0.07107404 -0.0019861062
000160 eb fd 9a 3d 84 38 9f 3d 6e 1f 6f bd 71 29 2b 3e
       0.07567962 0.077744514 -0.058379583 0.16715027
000170 89 f5 91 3d 9b 47 d2 3d e8 77 40 3d 67 f8 b3 3d
       0.0712691 0.10267564 0.04698935 0.08787613
000180 85 8b 53 3d 99 74 f5 bb 35 07 d1 3d 74 ce 5d bd
       0.051646728 -0.007490706 0.10206453 -0.054151967
000190 06 c3 0d 3b fe cb 0d 3b b5 fa 2f 3e 8f 56 db 3d
       0.0021631136 0.0021636481 0.17185481 0.10709869
0001a0 d0 1b 07 3e ce 9a da 3c a2 66 b9 bd 51 5a 05 3e
       0.13194203 0.026685145 -0.09052779 0.13022734
0001b0 fa a1 5c bd 8e 60 1a bd 17 72 b1 bc 5b 6a cd 3d
       -0.05386541 -0.037689738 -0.021660848 0.10030051
0001c0 f1 c2 1c 3e 14 04 8b bd 81 4c e6 3c 58 cc 15 3e
       0.15308739 -0.06787887 0.028112652 0.14628732
0001d0 d8 1f 11 3e 4e f5 8f bd 98 bd ec bc c0 54 0b 3e
       0.14172304 -0.0702921 -0.028899 0.13606548
0001e0 77 63 61 3d ba 95 29 3d 4b 5f b2 3d 5e f0 2b 3e
       0.055026498 0.041402556 0.08709582 0.16790912
0001f0 2a 30 06 bd 2c 9e b4 bd d5 c9 02 3e b5 b7 d6 3d
       -0.032760777 -0.088192314 0.12772305 0.10484258
000200 9b 04 be bc 03 ab e8 3d b6 dd 8f bc d0 3d 77 3d
       -0.023195555 0.11360743 -0.017561775 0.060361683
000210 f6 24 23 3e f4 bd d0 3b d8 f1 05 bd e2 55 55 bd
       0.15932068 0.0063703004 -0.032701343 -0.052083857
000220 c2 2e ca bd ba c3 0f 3e fb 74 ba bc 89 a3 3e 3d
       -0.098721996 0.14039508 -0.022760859 0.046542678
000230 92 db 5d 3d 07 eb 9f bc f1 71 37 bd a2 27 86 3d
       0.054164477 -0.01952125 -0.044786397 0.06550528
000240 8a 84 0f 3e 1e 3f ca bd a0 52 d9 3d 7f 38 ca 3d
       0.14015403 -0.0987532 0.106114626 0.09874057
000250 50 ff db 3d ce 7d d0 3c 5c 96 d0 3d 19 6d 34 bd
       0.10742056 0.025450613 0.10184929 -0.044049356
000260 b9 c1 96 bc e9 7c fd 3d e0 b9 9b 3d 2d 7c e5 3d
       -0.018402921 0.1237734 0.07603812 0.11205325
000270 07 59 d8 3c 09 e4 9f 3d d0 71 d2 3d 98 43 0f 3e
       0.026409639 0.07807166 0.10275614 0.13990629
000280 76 eb 2c 3d 3f ee 1e bc 6d e3 c5 3c b6 f0 ea bd
       0.04221674 -0.009700357 0.024156297 -0.11471693
000290 56 53 61 bd 3f 80 1b 3e f8 64 59 3d d3 cc 9e bc
       -0.055011116 0.15185641 0.053074807 -0.019384777
0002a0 39 61 55 bc 56 ed e0 3b 05 af 9b bd b8 0b df 3c
       -0.013023668 0.00686423 -0.07601742 0.027227268
0002b0 aa 4c eb 3c 53 6e 93 bd 52 f5 4e bc 4b d8 34 3d
       0.02872308 -0.07198777 -0.012631731 0.044151586
0002c0 1c 5c a3 3d 63 4f f0 3c 82 a5 fd 3d bc 03 65 3d
       0.07976553 0.02933473 0.12385084 0.055911765
0002d0 3b dd 9a 3d 24 08 fc 3d 4c 91 ee 3c 48 7e b2 3d
       0.075617276 0.1230624 0.029122017 0.087154925
0002e0 7c f1 91 bd 87 21 16 3d 4a 3e 18 bc 3f 0f be 3d
       -0.071261376 0.036653068 -0.009292195 0.09280252
0002f0 9d 54 0e 3d 2b 21 17 bd 6b 73 48 3d a2 e7 4a 3d
       0.034748662 -0.036896866 0.048938196 0.04953731
000300 74 0c 3f bd 84 53 00 3d 59 72 43 3d 8c 0c b6 bc
       -0.046642736 0.031329647 0.047716472 -0.02222278
000310 ca 1b 69 3d 60 14 19 3e 7d 78 13 3e df f7 8d 3d
       0.056911267 0.14949179 0.14401431 0.06932043
000320 12 43 fe bb 1d 0e 03 3e ff 6a f9 bc a5 48 d6 3d
       -0.0077594602 0.12798353 -0.030446528 0.104630746
000330 11 c1 02 3e 75 31 2e 3d 82 1d af 3d 31 a8 7d 3c
       0.12768961 0.042527635 0.0855055 0.0154819945
000340 76 56 df 3d 73 db 56 bd 32 06 02 3d 59 f5 af 3d
       0.10905163 -0.052455377 0.03174419 0.08591718
000350 49 cc 54 bd 66 22 73 3d 5f bd 2d 3e da e0 e8 3d
       -0.051952634 0.059358977 0.1696677 0.11371012
000360 79 9e 28 3c 94 51 93 3d 43 e6 d7 3d 6f b9 be 3d
       0.010291689 0.07193294 0.10541966 0.093127124
000370 01 19 22 3e 34 c0 85 bd 1e a0 6d 3d d2 a0 23 3e
       0.1582985 -0.065308005 0.058014028 0.15979317
000380 ad df e8 3c 33 04 02 bd d3 7e b8 3d d4 aa 1d 3e
       0.02842697 -0.031742286 0.09008565 0.15397197
000390 33 6c 39 3d 50 93 f6 3b b3 84 24 3d c6 12 3f 3c
       0.045269202 0.0075248852 0.040165614 0.011662191
0003a0 4a ea bb 3d b7 52 40 ba e2 28 83 3b 78 0b 2b 3d
       0.091755465 -0.0007336544 0.0040026763 0.041758984
0003b0 1c bf 9f bc 73 ca a3 bd 7f f9 a7 3d ec 06 b6 3d
       -0.019500308 -0.079975985 0.082018845 0.08888039
0003c0 18 8c d4 3d ec e3 08 3e 64 87 05 3c 7f b4 b5 3b
       0.10378283 0.13368195 0.008149955 0.0055451985
0003d0 6e 71 55 3d 30 f7 9c 3d 76 ef bf bb be 3f a7 bc
       0.052110128 0.07664335 -0.0058574034 -0.020416137
0003e0 55 49 b0 bd 50 01 40 3d 34 a6 35 3e 00 48 1d 3d
       -0.08607737 0.04687625 0.17739183 0.038398743
0003f0 3a b0 d2 3d 92 bc 96 bc cc c4 fa 3d b2 86 b0 3d
       0.10287519 -0.018400464 0.12244567 0.08619441

critic.2.bias f4 [256]
000000 80 7b 98 3d 0f a6 ed 3c b6 d5 50 3c b2 d1 4c 3d
       0.07445431 0.029009847 0.012746265 0.05000467
000010 e1 45 16 3e 58 6f 29 3e dc 11 30 3e b4 75 32 3e
       0.14675094 0.1654638 0.17194313 0.17427713
000020 fc ba c5 3c da b6 03 3e 57 39 89 3c e0 e1 5c 3d
       0.024137013 0.12862721 0.016750975 0.05392635
000030 3c 56 ea 3c 34 04 cf bc 6b ea 68 3c c3 fe 72 3d
       0.028605573 -0.025270559 0.014216046 0.05932499
000040 32 91 e6 3d b0 a1 4a 3d f6 c3 e6 bb 83 6f 7a 3c
       0.112581626 0.049470603 -0.0070424033 0.0152853755
000050 8a 9d 88 ba 28 aa 12 3e 2a 17 6d bd 5e 3b 18 3e
       -0.0010422927 0.14322722 -0.05788342 0.14866397
000060 a1 42 78 3d e9 f0 f8 3d 3a 4f a5 3c e9 26 d0 3a
       0.060610417 0.12155325 0.02017938 0.0015880737
000070 20 98 e3 3b 77 2d a3 3d a5 2c 54 bd 01 29 43 bd
       0.006945625 0.07967656 -0.05180039 -0.047646526
000080 16 1d 3a 3d 6e 11 57 bd d5 cf f8 3d 18 33 09 bd
       0.045437895 -0.052506857 0.12149016 -0.033495992
000090 69 7d 81 3c 51 94 55 bd fe fe 80 bd 95 c2 30 3d
       0.01580687 -0.0521434 -0.06298636 0.043154318
0000a0 a2 56 83 bd ba 95 57 3d 6c 2b e0 3d a3 80 82 3d
       -0.06413008 0.052633025 0.10945782 0.06372192
0000b0 bf 17 9e 3d 35 08 a9 3d ef 66 d5 3d 75 f7 8d bd
       0.07719373 0.082535185 0.10420024 -0.06931964
0000c0 b2 fb 3a 3d 2e f0 df 3d cf d8 18 3d d0 22 c5 3d
       0.04565019 0.109344825 0.03731614 0.096257806
0000d0 a0 fc 32 3e 70 7b 0d 3e 95 80 05 bc 74 b1 ed 3d
       0.17479181 0.13816619 -0.008148332 0.11606112
0000e0 52 fe 10 bd a7 33 95 3d b0 13 3e bd 09 33 e2 3d
       -0.03539879 0.072852425 -0.046405494 0.110448904
0000f0 8d a8 37 3e f0 1b 0c 3e 34 c2 94 3c 21 9e 85 bc
       0.17935391 0.13682532 0.01815901 -0.016310753
000100 e1 c2 c6 3d 8a 24 15 bd 43 dd 6e 3d fa b1 7a bd
       0.09705139 -0.0364118 0.05831648 -0.061204888
000110 11 d7 87 3d 03 d2 08 3e 31 32 6d bd 7e 82 1d 3e
       0.066328175 0.13361363 -0.057909194 0.1538181
000120 42 5e a2 3d 71 c7 22 3e 94 02 80 3d 0e e8 df 3d
       0.079281345 0.15896393 0.06250492 0.10932933
000130 48 f2 7f 3d 9c 19 4f 3d ae da 94 3c c4 28 25 3e
       0.062486917 0.050561532 0.01817068 0.16128832
000140 5b 33 8e 3d 77 c3 d7 3d 9b f0 7e 3d 8d 07 2a 3e
       0.06943389 0.10535329 0.062241178 0.16604443
000150 55 a4 42 3e ee 35 82 3d 00 ed f8 3d 9e 8a 26 3e
       0.19008 0.063579425 0.12154579 0.16263816
000160 12 d1 84 3d 95 2f 6c bd ee e8 7c bd 28 d9 37 3d
       0.064851895 -0.057662565 -0.061745577 0.04488483
000170 23 96 3a bc 61 88 39 3c ea 5c 69 bd 60 7d 91 3c
       -0.011388334 0.011324019 -0.056973375 0.017759979
000180 d0 33 2c 3e 3e c9 7a bc e7 5c 07 3e 2c 4f 3f bd
       0.1681664 -0.015306769 0.13219033 -0.046706364
000190 67 01 eb 3d 0f 94 71 bd dc 7b 92 bd 16 7e e1 bc
       0.11474877 -0.05897909 -0.071525306 -0.027525943
0001a0 88 78 53 3c 82 6d 17 3d ca e9 32 3e 5f ab 27 3e
       0.012907155 0.03696967 0.17471996 0.16373967
0001b0 8a 6b 0b bd 61 97 25 3e 89 09 67 bd 28 36 16 bc
       -0.034038104 0.16171028 -0.056405578 -0.009168185
0001c0 e0 33 b0 3d e9 7e 29 3e 2c 64 6c 3d c4 81 03 3d
       0.08603644 0.16552319 0.05771272 0.032106176
0001d0 5c 1f 09 3e 34 9e 95 3d 51 18 bd 3b 44 e5 73 3d
       0.13390869 0.073055655 0.005770721 0.059544817
0001e0 c6 82 1e 3e 39 58 f8 3d a2 4a e3 3c 01 c1 92 bc
       0.15479574 0.12126202 0.027745549 -0.017914297
0001f0 28 e2 db 3d b1 db 15 3e a8 97 1b 3e de ee 43 3d
       0.10736495 0.14634587 0.15194571 0.047835223
000200 20 af cc b9 3d fd 9c bb 47 12 04 bc 74 78 f8 3d
       -0.0003904039 -0.0047909305 -0.008060998 0.121323496
000210 7b 5a 8c bd 96 8b d9 3d 36 9b df bc 7d ee a2 3d
       -0.06853195 0.10622327 -0.02729569 0.07955644
000220 08 46 d8 bc 00 d3 cc bc d6 11 9b bd a6 9b 11 3e
       -0.026400581 -0.025002956 -0.07571761 0.14219531
000230 f8 44 39 3e c3 0d 98 3d 34 8d 40 3d 4b 50 7d 3d
       0.18092716 0.074245 0.04700966 0.06184415
000240 96 da 88 3d db 0a 89 3d 98 09 3b 3e 8f 3f b0 3c
       0.06682317 0.06691524 0.18265378 0.021514682
000250 ec c2 0a 3e 59 0d 02 3e af b6 e9 bc 6b 8b 4b 3d
       0.1355092 0.12700404 -0.028529493 0.049693506
000260 c9 1b 15 bd 79 ff 10 3e ed d4 29 3e 56 07 99 3d
       -0.03640345 0.14159955 0.16585131 0.07472102
000270 f1 dc 2c 3d 8b 02 47 bd 08 ad d9 3d 3e d4 dc 3d
       0.042202894 -0.04858641 0.10628706 0.107826695
000280 e3 6d 27 3d 1c 14 19 bd 94 65 10 3e b7 5f 22 3e
       0.04087628 -0.037372693 0.14101249 0.15856825
000290 b5 33 36 3d 30 b9 7e bd b6 0d 0e 3e d9 3a e3 bb
       0.044482905 -0.062188327 0.13872418 -0.0069345054
0002a0 15 f9 26 3d d2 b5 ad 3d ca bd 5d 3b 35 21 00 3e
       0.040764887 0.08481945 0.0033835047 0.12512667
0002b0 3b ed f4 3c 8e ef a3 3c cc 17 17 3e 0c a9 11 3b
       0.029898277 0.02001169 0.14755172 0.0022226004
0002c0 56 c2 30 3e 32 03 06 bd a2 89 10 3e 8c f8 91 3c
       0.17261633 -0.03271789 0.14115003 0.017818712
0002d0 f1 7e b3 3d a6 32 2d 3e d0 80 ab 3c 3e a4 37 3e
       0.087644465 0.16913852 0.020935446 0.17933747
0002e0 b0 fc c4 3c 81 d0 32 3e 28 38 90 3d 7c 21 48 3d
       0.024046272 0.1746235 0.07041961 0.04886006
0002f0 0b f5 f5 3d e6 e8 e0 bc 1d bf a5 3d b6 64 7b bd
       0.12009629 -0.027454805 0.080930926 -0.061375342
000300 bb b0 94 3d 3d 54 b0 3b a8 46 f7 bc df d1 91 3c
       0.07260271 0.0053811357 -0.030185059 0.01780027
000310 4a 0e 66 bd ee d6 12 3e 06 1f 3d bd f4 48 c8 3c
       -0.05616597 0.14339802 -0.046172164 0.02444885
000320 cd 86 bd 3d 69 01 36 3d 53 be a9 3d fd 45 65 bd
       0.09254227 0.04443494 0.082882546 -0.05597495
000330 13 04 4d 3d 42 2b 15 bc d8 77 1c 3e 4a 49 20 3e
       0.050052714 -0.009104552 0.15280092 0.15652958
000340 77 ff 2e 3c 5e 8e 00 3e c9 8b 02 3e d7 39 68 bc
       0.010681025 0.12554309 0.12748636 -0.014173946
000350 55 73 a2 3c 8a 05 b8 3d 28 38 3f 3e ba 6f 4f bc
       0.019830385 0.089854315 0.18673766 -0.012660915
000360 bc cb c9 3d 94 0f 1d 3e c0 6f 0b 3e d9 b3 30 bd
       0.098533124 0.15337974 0.13616848 -0.043140266
000370 69 a6 21 3e 52 92 b5 3d c2 86 c1 3d f9 ea 87 bc
       0.15786137 0.08865799 0.09449531 -0.016591536
000380 a8 4a e6 3d e0 f1 78 bc 42 7e d0 3d 23 01 55 bd
       0.11244708 -0.015194386 0.10180332 -0.052003037
000390 3e 73 32 3d 48 1c 68 bd 88 83 38 3d 75 08 6e bd
       0.043566935 -0.056667596 0.045047313 -0.058113534
0003a0 66 38 48 bd ca fc 71 3c ab 9c ac 3c 14 61 bd 3d
       -0.04888191 0.014769742 0.021070799 0.09247032
0003b0 6b 48 21 bd f1 a6 d8 3d aa c0 17 3e 04 4b 3f 3e
       -0.039375704 0.105787165 0.1481959 0.1868096
0003c0 30 db ff 3d 9e b8 5b 3c 9a 02 14 3e 4e 6e f1 3d
       0.124929786 0.013410715 0.14454117 0.11788617
0003d0 90 6e 9d 3d a0 04 cd 3d 12 e3 bf bc 95 b2 36 3d
       0.07687104 0.10010648 -0.023423705 0.044603903
0003e0 78 d0 8f 3b 67 25 c4 3d 34 56 1f 3e 5a 70 88 bb
       0.004388865 0.095774464 0.15560228 -0.004163784
0003f0 f1 91 d9 3d 07 40 24 3e 33 7c 20 3d 25 80 95 bd
       0.10623539 0.1604005 0.039180946 -0.07299832

critic.4.weight f4 [1, 256]
000000 fe 0b fa 3d c3 01 98 bc 1b 8b 26 bd 59 3b 9f 3a
       0.122093186 -0.018555528 -0.040660005 0.0012148424
000010 70 fb df 3d a5 3c 0a 3e ff 3e 05 3e c5 99 fa 3d
       0.1093663 0.13499697 0.13012312 0.122363605
000020 36 40 f9 bc 71 87 04 3e 27 32 e6 bb 3e 2c ff ba
       -0.030426126 0.12942292 -0.0070250216 -0.0019468141
000030 5f 03 4f bd 5e 2a 3e bc 55 39 b3 bc 18 1c 1b 3e
       -0.050540324 -0.011606781 -0.021877924 0.15147436
000040 3b fe 2c 3e b1 1f 9b 3d f9 8a ce 39 4c 4f 24 ba
       0.16893856 0.07574404 0.00039394925 -0.00062679197
000050 ba 11 8f bc 16 53 28 3e 53 b1 61 bd 82 20 e9 3d
       -0.017464507 0.16437945 -0.05510075 0.113831535
000060 ea c5 10 3e 12 cb 08 3e fe 6d 3e bd 0b b1 51 bd
       0.14137998 0.13358715 -0.046491615 -0.051194232
000070 9b 0b 87 bc fa 50 07 3e 90 86 43 bd 44 9b 4f bd
       -0.016485026 0.13214484 -0.04773575 -0.050685182
000080 89 74 cd bc 77 ee 8f bb 53 91 18 3e b6 1b 39 3d
       -0.025079982 -0.004392441 0.14899187 0.045192443
000090 9c 88 2e bd dd 5b 44 bd 82 71 2f bd f5 54 44 bd
       -0.04261075 -0.04793917 -0.04283286 -0.047932584
0000a0 1c 40 a6 bb ea 20 a3 3a fa b5 2d 3e f0 01 06 3e
       -0.0050735604 0.0012445722 0.1696395 0.13086677
0000b0 17 22 e1 3d 81 45 e0 3d 3b 7a fd 3d f1 8b 3f bd
       0.1099283 0.10950757 0.12376829 -0.046764318
0000c0 2f 20 28 bd 1f 29 17 3e 78 6c 79 bb 2e ea ef 3d
       -0.041046318 0.1476178 -0.0038059037 0.11714588
0000d0 d0 bf f7 3d 0a 80 25 3e c8 0b 37 bd f6 63 2a 3e
       0.12097132 0.16162124 -0.04468897 0.16639695
0000e0 79 51 d6 bc 6f e7 fc 3d b1 7b ad bc 82 51 15 3e
       -0.026161896 0.1234883 -0.021177145 0.14581874
0000f0 9a ff ff 3d 1b e4 1b 3e b3 27 85 bc 78 b2 35 bd
       0.12499924 0.15223734 -0.016254282 -0.044359654
000100 98 24 2c 3e a6 39 51 3d 02 f2 21 3e 00 70 cf 39
       0.16810834 0.05108037 0.15814975 0.00039565563
000110 54 ee 18 3e 67 f5 22 3e bc fd 68 bc 85 44 2b 3e
       0.14934665 0.15913926 -0.014220651 0.16725357
000120 73 9f 47 3d e8 b7 12 3e d3 68 2a 3e c0 0f 0b 3e
       0.048736047 0.14327967 0.1664155 0.13580227
000130 21 b6 14 3e 83 d8 14 3e 01 1a 97 3d 0a 7c 0d 3e
       0.14522602 0.14535718 0.07378007 0.13816848
000140 9b 0a dd 3d e1 b4 ef 3d 41 fa 0d 3e ce 1d 26 3e
       0.107930385 0.11704422 0.13864996 0.16222307
000150 a9 dd fc 3d 96 2a 3f 3e ef 4e 23 3e 73 4e e5 3d
       0.12346966 0.18668589 0.1594808 0.111966036
000160 38 71 2e 3e 47 60 1a bd d7 0c d4 bc a6 d4 ed 3b
       0.17035377 -0.037689473 -0.025885029 0.0072580157
000170 85 fc 4d bd 7a 22 ed bc 9d 44 6d ba e6 c9 11 bd
       -0.05028965 -0.028947104 -0.00090510567 -0.035592936
000180 8a 8a 31 3e 58 a8 04 3b 9f 1a 17 3e 7d d5 dc 3b
       0.17338005 0.0020241942 0.14756249 0.006739317
000190 7d ea 0a 3e 8f fd 82 bc 7e b4 53 bc 44 8a 37 bd
       0.13566013 -0.015990047 -0.012921451 -0.044809595
0001a0 6f cd 50 bb e0 18 bd bb 1c 57 f0 3d e4 85 f0 3d
       -0.003186073 -0.0057707876 0.11735365 0.117442876
0001b0 23 4b 90 bb f7 50 04 3e f4 b9 18 3b a0 19 cf 3b
       -0.0044034882 0.1292151 0.0023304196 0.0063201934
0001c0 b8 02 05 3e 5e a7 d8 3d 94 e1 2e 3e bf ac c2 bc
       0.12989318 0.10578798 0.17078239 -0.023764012
0001d0 a0 ac 39 3e 56 18 06 3e 3c 92 00 bd f7 8a 16 3e
       0.18132257 0.13095221 -0.03138946 0.14701448
0001e0 24 82 22 3e c4 f5 25 3e ac ce 31 3c 07 02 89 bc
       0.15869957 0.16207033 0.010852497 -0.0167246
0001f0 c7 4f 11 3e 7f f0 19 3e 9f af eb 3d bd 54 44 3d
       0.14190589 0.15033148 0.115081064 0.047932375
000200 d0 86 02 3d 55 c0 3a bc 8d db 35 bc af 74 25 3e
       0.03186685 -0.011398395 -0.011099708 0.16157793
000210 51 78 0d 3b 4f 27 19 3e 61 e4 38 bd 0d 8f 26 3e
       0.0021586607 0.14956401 -0.045139674 0.16265507
000220 0d ed 0a bc 8a f2 d1 3a 38 81 1c bd 85 f6 07 3e
       -0.008479369 0.0016017717 -0.03820917 0.13277633
000230 84 cf f7 3d 0b a1 fc 3d ba 9f d0 bb d0 ee f6 3d
       0.12100127 0.12335404 -0.006366697 0.120572686
000240 2c d3 f4 3d 90 ec 1b 3e 99 b4 f5 3d 48 9e 33 bd
       0.1195434 0.1522696 0.11997337 -0.04385212
000250 d2 aa f2 3d 76 a1 04 3e d8 6f 62 bd 12 b9 d6 bb
       0.11848988 0.12952217 -0.055282444 -0.006552824
000260 98 6a 2b bd 13 ec f1 3d e1 6c 0a 3e 4b c0 26 3e
       -0.041849703 0.11812606 0.13518097 0.16284291
000270 28 dd 81 bc 73 8a 1b bd 40 e0 0c 3e 70 88 00 3e
       -0.015852526 -0.037973832 0.1375742 0.12552047
000280 82 8a be bc a0 ec 4f 3c d3 30 1d 3e 07 e3 f9 3d
       -0.023259405 0.012690693 0.15350656 0.12201505
000290 25 23 69 bc 2d 2f 28 3b 5b 25 fb 3d 05 9f 19 bd
       -0.0142295705 0.0025662885 0.12262984 -0.03750517
0002a0 0d 8c 07 bc 5f a1 f0 3d 15 fa 4a bd 9d 10 1e 3e
       -0.008273137 0.11749529 -0.049554903 0.15436025
0002b0 ca 08 28 bd 3d 2c 1e bd 76 e9 02 3e aa e2 26 bb
       -0.041024007 -0.038616408 0.12784371 -0.0025464692
0002c0 5d ed 16 3e f1 32 1b bd 76 07 20 3e 35 2c 22 bd
       0.14738984 -0.03789038 0.15627846 -0.03959294
0002d0 2f 93 12 3e f4 52 0b 3e f5 51 65 3d ef cc f5 3d
       0.14313959 0.13605863 0.055986363 0.120019786
0002e0 1f f6 86 3b a6 77 09 3e 37 e2 14 3e b0 2d 1b bc
       0.0041186954 0.13424549 0.14539419 -0.009471342
0002f0 99 77 0c 3e b4 5b cb bc c8 36 2a 3e 00 b7 39 3d
       0.13717498 -0.024824 0.1662246 0.045340538
000300 8a cb 1c 3e fe ec 61 bd 8c 76 36 bd ea 9b 63 bd
       0.15312019 -0.055157654 -0.04454665 -0.055568613
000310 b8 05 e9 bc b3 d1 1b 3e e0 37 a5 bc 23 12 4f 3d
       -0.02844511 0.15216713 -0.020168245 0.050554406
000320 4d 6b 15 3e ab 00 a0 bb f1 37 f9 3d 00 37 15 3d
       0.14591713 -0.004882892 0.12168873 0.036429405
000330 e3 8b 66 bc 2f 7d 1f bc 1a e8 1c 3e 9f 4d 02 3e
       -0.0140714375 -0.009734436 0.15322915 0.12724923
000340 5f 21 49 bd 26 7e 32 3e df 53 02 3e 80 f9 a2 bc
       -0.04910409 0.17430934 0.12727307 -0.019894361
000350 06 f2 95 bc 19 3d 06 3e a3 e8 e7 3d 4c 2c 87 bb
       -0.018303882 0.13109244 0.11323669 -0.0041251536
000360 78 0b 0b 3e 0e 91 27 3e 3f 77 ed 3d ac 39 7a bc
       0.13578594 0.16363928 0.1159501 -0.015272539
000370 db 77 0c 3e 3d 5f 00 3e d6 7d e3 3d 84 ef 17 bd
       0.13717596 0.1253633 0.11107986 -0.037093654
000380 ab 8a 10 3e f2 3e 52 bd 39 7c 04 3e 8c 8a 20 bd
       0.14115398 -0.05132956 0.12938012 -0.03919463
000390 ec 48 23 bd dc ae 80 bc ed dd aa bb 7e 57 af bc
       -0.039864466 -0.01570838 -0.005214444 -0.021404024
0003a0 11 00 b5 bc cc 37 bd bc fe f1 53 3c e7 3b f3 3d
       -0.022094758 -0.023097895 0.012936113 0.1187666
0003b0 52 8b 21 bd 71 2d e1 3d 6a 1a 06 3e 59 13 ee 3d
       -0.039439507 0.109949954 0.13096014 0.11624784
0003c0 58 ee 1b 3e fc 05 aa bc e0 98 dc 3d f6 2d f7 3d
       0.1522764 -0.020754807 0.10771346 0.12069313
0003d0 29 12 05 3e ea 9b f3 3d 64 54 2a bc 84 5a 8e bc
       0.12995209 0.118949726 -0.010396097 -0.017377146
0003e0 c2 87 e1 bc a4 ab e1 3d a7 6c 09 3e 52 30 6a bc
       -0.027530555 0.11019066 0.13420354 -0.014293747
0003f0 ed 80 0f 3e 9a 03 07 3e 84 74 a8 bb 93 cb b8 bc
       0.14014025 0.13184968 -0.005140843 -0.02255801

actor.0.weight f4 [256, 4]
000000 65 81 a1 3e d7 fc 8e 3e 6e 47 f0 be 40 ac a5 3d
       0.31544033 0.27927276 -0.46929497 0.08089495
000010 10 e0 bb 3e 66 58 cc be 80 01 25 bd cd 49 08 bf
       0.36694384 -0.39911193 -0.040284634 -0.5323761
000020 9e d1 1f 3e fd fa d0 3c f5 96 78 be 1e 5e 70 be
       0.15607306 0.025510306 -0.24276336 -0.23473403
000030 3a fb 35 be 36 17 c9 be 1f 4c 2e be ff c2 4a be
       -0.17771617 -0.3927552 -0.17021225 -0.19800948
000040 69 23 16 bd 3d 6d a6 be c0 48 8d 3e 1a f2 e0 bd
       -0.036654864 -0.32505217 0.27594566 -0.10983677
000050 da 33 9b be a9 62 ec be a0 88 cf be ef 8d 01 be
       -0.30312997 -0.46169022 -0.40533924 -0.126518
000060 5e aa d9 ba 2c 41 07 3e 18 b1 19 bf 8c 17 07 bf
       -0.001660656 0.13208455 -0.6003585 -0.52770305
000070 dc 49 b1 3e b5 bf 65 3c d6 07 e5 bd 80 c8 02 3e
       0.34626663 0.014022757 -0.11183135 0.12771797
000080 ed af 5c bd ca ef 8b 3e f6 52 ae 3e c6 cc 62 be
       -0.053878713 0.27331382 0.3404767 -0.22148427
000090 0c 82 e5 3e f1 42 07 be 35 16 9a 3e 1d c5 19 3e
       0.4482578 -0.1320913 0.30095068 0.15016599
0000a0 ca b4 25 3e 45 bf 3a 3e d5 80 2c 3e 2f d9 d3 3e
       0.16182247 0.18237026 0.1684602 0.41376635
0000b0 ec 52 85 bd cd 73 9a be da 61 ad bd 81 cc 9e 3e
       -0.06509957 -0.30166474 -0.08465929 0.310154
0000c0 cd 59 57 be 79 83 22 3e 82 77 d2 3e 63 fa ae 3d
       -0.2103035 0.15870465 0.41106802 0.08543851
0000d0 9c 43 cb 3e c9 1e b4 be 12 b3 fe 3d 48 e7 c8 3e
       0.3970002 -0.35179737 0.12436499 0.39238954
0000e0 b3 ec b7 be 1c 91 25 be 32 62 3e be 4b db a2 3e
       -0.35922775 -0.16168636 -0.18592146 0.31807932
0000f0 85 d4 48 3e b3 13 89 3e 33 e4 10 bc 0a bc 8e be
       0.1961232 0.26772842 -0.008843469 -0.27877837
000100 a6 40 b3 3e 28 62 b3 be fd 74 ef be a7 c3 93 3d
       0.3501026 -0.35035825 -0.46768942 0.07215052
000110 54 07 7b 3e 4f 0a cb 3e 5e a5 42 be 5f eb 29 3e
       0.24514514 0.39656302 -0.19008395 0.16593693
000120 69 41 01 3f 97 b0 f9 be 60 42 91 3e 3e ed c7 be
       0.5049043 -0.4876754 0.28370953 -0.3904819
000130 0c 80 ea 3c 4e 6b 48 3e 61 c3 d0 3b a4 e8 81 3e
       0.02862551 0.19572183 0.006370947 0.25372803
000140 90 c6 67 bd 60 27 11 3d 04 b3 df be b0 4e 9f 3d
       -0.05658585 0.03543794 -0.43691266 0.0777868
000150 d5 5c 7e be c0 bf 3d be 93 ac 96 bc 14 db 05 be
       -0.248401 -0.18530178 -0.018392837 -0.13071853
000160 32 f2 d2 be fd e9 d8 3d 5c 82 b7 3d 29 52 e8 bd
       -0.41200405 0.10591505 0.08960411 -0.11343796
000170 46 30 80 be 8e 4f 58 3e bd 9a 28 be f8 41 15 be
       -0.2503683 0.21124098 -0.16465278 -0.14575946
000180 40 6b e8 be 04 26 07 bd 30 5c 7e 3d c2 e5 f3 3e
       -0.45394325 -0.03299524 0.062099636 0.4763623
000190 8d e8 82 be 93 62 b0 3e 84 8e a2 3d 79 77 c1 bd
       -0.25568047 0.34450206 0.07937339 -0.09446616
0001a0 df 18 2f 3e 9d 6c 1c 3b 43 bf 20 bf c8 54 bb 3d
       0.17099331 0.002386845 -0.6279184 0.0914703
0001b0 37 f7 7a 3c 81 e5 c5 bc e9 1b 07 3f 0a 06 99 3e
       0.01531773 -0.024157288 0.5277696 0.2988742
0001c0 64 86 cb 3e b8 18 ba be af e5 5d 3e 97 18 07 3f
       0.3975097 -0.36346984 0.21669649 0.52771896
0001d0 ad 37 b7 3e 31 63 b4 bc e6 c3 16 3f 06 63 06 3f
       0.35784665 -0.022019954 0.5889267 0.5249485
0001e0 13 42 cc 3e 37 f4 68 be a4 a1 ab be f2 ab 77 be
       0.3989416 -0.2274941 -0.3352176 -0.24186686
0001f0 45 c1 c2 3e a7 e8 c6 3e 5d f6 c9 3e 73 55 89 3e
       0.38038078 0.38849375 0.39445773 0.26823005
000200 54 fb 46 3e 10 70 8f 3c e2 60 fb 3e 4f dd 07 3d
       0.19431812 0.01750949 0.49097353 0.03317004
000210 1a 49 10 3e 0f 35 39 3e 2c 8a ae 3e 2b 98 db 3d
       0.14090386 0.18086646 0.34089792 0.10722383
000220 a2 9f 8f 3e 56 0e c0 be b8 c7 c3 3d b6 67 50 3d
       0.28051478 -0.37510937 0.09559578 0.050880156
000230 4c 85 ba 3a 1b bb 81 3d 80 94 26 3f 3b 80 08 3f
       0.0014230399 0.06334516 0.65070343 0.53320664
000240 2b c6 ae 3e 88 64 eb be bb 9d ce 3d 6a 18 55 3d
       0.34135565 -0.45975137 0.100886784 0.052025236
000250 8c c5 14 3d 2b 50 9a be ab 0d 8a be f0 11 70 3e
       0.036321208 -0.30139288 -0.26963553 0.23444343
000260 74 7c 22 be d1 57 c6 be a6 23 50 bd 55 49 ef 3e
       -0.15867788 -0.38738874 -0.050815247 0.46735635
000270 73 e9 ab bc cd 1e 82 3e 63 7e 9b bd fc b5 95 be
       -0.02098534 0.25414124 -0.07592466 -0.29240406
000280 84 25 9a 3e eb be b8 bd aa 75 2e 3e f9 af ba 3e
       0.30106747 -0.0902079 0.17037073 0.3646238
000290 d6 37 67 3e 00 58 a2 3e be ad 64 be 6c 00 a2 be
       0.22579893 0.31707764 -0.22331902 -0.31640947
0002a0 6f bc d0 be fc 27 9d 3e 08 5e 2e be 51 7b 8d be
       -0.40768763 0.30694568 -0.17028058 -0.27633145
0002b0 58 8a 89 be dd 79 05 3e a0 9c a4 3e 11 e0 d5 be
       -0.2686336 0.13034768 0.32150745 -0.41772512
0002c0 0f 6d 0c bf 20 8f 7b be e4 54 57 be 53 7b 8e be
       -0.5485391 -0.24566317 -0.21028477 -0.27828464
0002d0 9d 76 5f 3e c0 7d c9 3e c7 a0 3e be 5c 7c e2 bc
       0.21822591 0.39353752 -0.18616019 -0.02764719
0002e0 a4 b8 d7 be 7c d3 44 3e dc 60 d6 3e 4d 1b 6f 3d
       -0.42133057 0.192213 0.41870773 0.058375645
0002f0 8f 13 3d be 82 3c 84 be 48 4c 33 3e 71 70 98 be
       -0.18464492 -0.25827414 0.17509568 -0.29773286
000300 90 16 f6 3d 61 96 0a bd 6b 59 80 be 3b 64 ac be
       0.12016022 -0.03383482 -0.2506822 -0.3367022
000310 4f c5 54 3e b8 e5 99 be 03 e3 09 be d5 f4 f6 be
       0.20778392 -0.30058074 -0.13465504 -0.48233667
000320 51 bc 9b be c6 eb cb be 44 e6 d3 3e 3d 3a ae 3e
       -0.30417112 -0.39828318 0.41386616 0.34028807
000330 d7 9d c9 3e 8a 93 e1 3e e6 4b ec be 7d 0f 97 bc
       0.39378235 0.44057876 -0.46151656 -0.018440003
000340 f5 d0 c5 be a8 7d ed be f5 52 51 3e c5 0d 55 bc
       -0.38635984 -0.4638493 0.20441802 -0.013003771
000350 4f ae 2b 3c eb fc c3 be 43 fd 83 be cb 93 86 3e
       0.01047857 -0.382789 -0.2577916 0.26284632
000360 e2 51 ae 3d b2 83 2d bd 9f 73 7a 3e 14 41 05 3f
       0.08511712 -0.042361923 0.24458168 0.52052426
000370 be f6 b7 be f5 86 c8 be 09 40 9e bd 57 ec 1c 3e
       -0.35930437 -0.39165464 -0.077270575 0.15324531
000380 d2 f3 18 3e 2b 31 b6 be 19 84 29 3e 22 6a bd 3d
       0.1493676 -0.35584387 0.16554298 0.09248759
000390 fc 6f 80 3d 27 b1 b2 3e 25 92 84 3e bf bf bd 3e
       0.06271359 0.34900782 0.2589275 0.37060353
0003a0 6b 69 d1 3e 0d 44 a0 3d c2 81 6e bd 80 fc d2 3e
       0.4090074 0.0782548 -0.058229215 0.41208267
0003b0 31 10 b4 3e 98 8e ca 3d 2c 1f 58 be d9 65 2e be
       0.35168603 0.09890479 -0.21105641 -0.1703104
0003c0 7f ee 85 3e e4 b4 69 be 44 9b 59 be 88 25 a7 bd
       0.2615852 -0.2282291 -0.21250635 -0.081614554
0003d0 55 e3 24 3e 26 d1 2b be 44 47 95 3c 39 a2 e8 be
       0.16102345 -0.16779003 0.018222459 -0.45436266
0003e0 be a2 06 bf 76 67 c4 bb 3d fe db be 2b e1 b0 be
       -0.52592075 -0.005993779 -0.42967406 -0.3454679
0003f0 be b7 07 bf 5e 1c aa 3e 04 71 89 bd 69 34 e3 be
       -0.53014743 0.33224767 -0.06711009 -0.44375923

actor.0.bias f4 [256]
000000 ac e7 f9 3d e6 06 4c 3e 25 02 fc be d6 fe 5b 3e
       0.12202391 0.19924507 -0.49220386 0.21483931
000010 17 ae d7 3e 9e d7 84 3e 29 c9 82 3c db 8c d9 be
       0.42125008 0.25945753 0.015965061 -0.42490277
000020 54 ea f8 be 43 06 ae be 1f 68 a4 3d 9c 8c 46 bd
       -0.48616278 -0.33989152 0.08027672 -0.04847394
000030 ba d8 b8 be 32 01 16 3e 3b 4a 42 3e 5f 90 f2 3e
       -0.3610285 0.14648893 0.18973629 0.4737577
000040 f4 79 d8 3d 0e 60 92 3e 32 15 ad be 8d 3b e6 be
       0.10570136 0.2858891 -0.33805233 -0.4496731
000050 f2 e2 fa be 27 49 04 3e 69 3e 03 3d 8d eb 77 3e
       -0.4900127 0.1291853 0.03204194 0.24210949
000060 dd 3d 0a be c0 db b9 be c6 f2 eb 3e 3a f9 46 3e
       -0.13500161 -0.36300468 0.4608366 0.1943101
000070 d6 2e 84 3e 9e 05 34 3d ee d8 43 be 61 3e 0e 3d
       0.25816983 0.04395067 -0.19125721 0.034727458
000080 33 d1 b3 3e 20 f5 45 be 5b da 9e 3d 60 5b 3d 3e
       0.35120544 -0.19331789 0.07756492 0.18491888
000090 64 c4 c8 be 58 16 a4 bd 6c d0 d0 be b1 f7 72 be
       -0.39212334 -0.08012074 -0.40784013 -0.237273
0000a0 13 c0 ea 3e 04 f8 59 be cf 74 b7 3e f8 1e fa bd
       0.45849666 -0.21286017 0.35831305 -0.12212938
0000b0 75 1c bd 3c f0 83 1a 3d ce 8f a8 3e b1 47 1e 3d
       0.023084858 0.03772348 0.32922214 0.03864259
0000c0 a9 47 53 be bd a1 d7 3e 15 83 ef bd 1e 78 f5 bd
       -0.20632805 0.42115584 -0.11694924 -0.11985801
0000d0 80 be 40 be 65 2b cb 3e b6 f1 91 3e f5 57 cf be
       -0.1882267 0.39681545 0.28504723 -0.40496793
0000e0 d4 b6 a3 be 70 8a e0 3e 71 3d df be 4e 02 f4 be
       -0.31975424 0.4385562 -0.43601564 -0.47658008
0000f0 de 69 c5 be a9 12 fc 3e 23 24 e2 3d 58 72 3b be
       -0.38557333 0.49232987 0.11042049 -0.18305337
000100 41 9c a4 be 2d db cc 3e 27 b1 c7 be 43 a5 e0 bd
       -0.32150462 0.40010968 -0.39002344 -0.10969021
000110 30 9c 47 be c5 53 80 3d ea 1a 00 3e fb 0c 36 3e
       -0.19493175 0.06265978 0.12510267 0.17778389
000120 b1 b7 bf 3e a0 8d 8f 3d e8 24 ff 3d 09 c3 74 3e
       0.37444833 0.07009435 0.12458211 0.23902525
000130 d0 fc d5 bd 24 be bf 3e f8 a9 1e 3e 32 9a f4 be
       -0.10448611 0.37449753 0.15494525 -0.47773892
000140 9c 2e d0 be 22 25 e4 be 68 d6 d0 be 9e 74 31 bc
       -0.4066056 -0.4455958 -0.4078858 -0.010831026
000150 7f ae 9d be d0 f9 d4 3e 95 55 8e 3e 60 65 64 be
       -0.30797192 0.41596842 0.2779967 -0.22304296
000160 7d a2 05 be d8 c9 82 3e 3e f8 ed 3e c3 25 ac bd
       -0.13050266 0.2554462 0.46478456 -0.0840564
000170 bc d8 36 3e 43 d2 13 3e af a1 c0 be d1 62 2f be
       0.17856115 0.14435677 -0.37623355 -0.17127539
000180 ff 12 73 3d 40 42 c7 be e2 0f b5 bc 4d d3 f8 3c
       0.059344288 -0.38917732 -0.0221023 0.030374194
000190 8b 6b 5f be 0f 4e bc be f7 c9 d8 be eb e3 ca bd
       -0.21818368 -0.36778304 -0.42341587 -0.09906753
0001a0 f3 90 53 be 4c a0 3b 3d 47 42 cd be 8f 6e 89 3e
       -0.20660762 0.045807168 -0.40089628 0.26842162
0001b0 ef a2 71 3e d5 9b b6 bc 77 68 8c be 0e 93 d4 3e
       0.2359731 -0.022291103 -0.2742345 0.41518444
0001c0 1c 8e 0d 3e 93 3d b1 be 56 2f 63 be 07 72 14 3d
       0.13823742 -0.3461729 -0.22186026 0.036241557
0001d0 29 d2 66 3e 6d 75 b2 be 2f 01 dd 3e d6 54 77 be
       0.22541107 -0.34855214 0.43164966 -0.24153456
0001e0 7f 4c d0 be 19 3f 9a 3e 8d f3 0f 3d fc db c0 3e
       -0.40683362 0.30126265 0.035144377 0.37667835
0001f0 ba 89 ad 3d ed d3 04 be 07 28 d4 3e a3 35 ac 3e
       0.08473535 -0.12971468 0.41436788 0.33634672
000200 6b 11 f6 be fc 46 d7 be 60 12 13 bc 54 55 0c 3e
       -0.48060164 -0.42046344 -0.008976549 0.13704425
000210 ba f5 b6 3e a7 86 d5 3d 6e cf 9b be 5a 3c c1 be
       0.3573435 0.104260735 -0.30431694 -0.37741357
000220 f9 f7 ac be d2 3a c7 be 60 b5 98 3e cf 0b 8a 3d
       -0.33782938 -0.38912064 0.29825878 0.067405336
000230 cd 84 68 bd 02 72 0c be d0 67 82 be 6b c8 d3 3e
       -0.056767274 -0.13715366 -0.25469828 0.41363844
000240 72 f1 79 3e e4 07 da be c5 14 28 be 59 0a 2c 3d
       0.2440851 -0.42584145 -0.16414173 0.042002056
000250 8c f2 0c 3e 35 6d c4 be b0 f2 72 3e 25 37 fb bd
       0.137644 -0.38364568 0.2372539 -0.12266377
000260 6d 7e db 3e 34 c3 c4 3d db 12 84 3e cc a0 61 be
       0.42869893 0.096075445 0.25795636 -0.22033995
000270 0a 41 87 be 88 ab cb be de 9f 10 3e 45 d6 a1 3e
       -0.26416808 -0.39779305 0.14123484 0.31608787
000280 1a 17 7b be 65 1e 9b 3d ce f6 ff be 09 8b bd 3e
       -0.24520531 0.07574157 -0.49992985 0.37020138
000290 f7 90 82 3e 88 a8 27 bd 43 28 11 be 0b fe 4c bd
       0.25501224 -0.04093221 -0.14175515 -0.05004696
0002a0 99 d8 9b bd 3d 35 12 bc 36 18 bc 3b 59 74 d2 3d
       -0.07609672 -0.008923826 0.005740191 0.10276098
0002b0 2d 87 f1 be 9a d5 e2 3c 5b 8b b4 3e c4 ee 1a 3e
       -0.47173443 0.027689744 0.3526257 0.15130144
0002c0 d0 52 a2 3e 4b 4c 78 be b1 70 d2 3e da c7 8f 3e
       0.31703806 -0.24247853 0.41101602 0.28082162
0002d0 e1 da f7 3d be b4 e4 3e f4 3b d8 be c6 f1 9f 3e
       0.12102295 0.44669145 -0.4223324 0.31239146
0002e0 26 78 93 be 1d ea af be f2 a9 c8 3e 51 13 e9 3e
       -0.28802603 -0.34358302 0.39192158 0.4552255
0002f0 9c c4 1d be f0 6c 92 be f1 54 fc be b1 86 98 3d
       -0.15407032 -0.28598738 -0.49283555 0.07447565
000300 81 5d 9e be 7d 1b f1 3e a3 2a fb be 69 58 dc 3e
       -0.30930713 0.47091284 -0.49055967 0.43036202
000310 8b ef e1 be 70 67 c6 be bf 2a db 3e 25 cb de 3e
       -0.4412807 -0.38750792 0.4280605 0.43514362
000320 16 35 30 3e b6 bd db be ed 2c aa 3e 16 8e 2c 3e
       0.1720775 -0.42918175 0.332374 0.16851076
000330 8f e5 bf 3e b2 96 f4 3e 7a 17 25 3d 53 ed f1 bd
       0.37479827 0.4777122 0.040305592 -0.11812844
000340 54 00 b3 3e e9 5d 7a be d2 56 9c be 5a 1c 99 3e
       0.34961188 -0.24449886 -0.3053499 0.29904443
000350 ee ef ed 3d 3c 18 81 3e b9 f5 9f bd d7 8a 0b 3e
       0.116180286 0.25213802 -0.0781054 0.13627182
000360 fc ab f1 be e2 73 63 3e f6 d2 29 3e 2e 97 c2 be
       -0.47201526 0.22212175 0.16584381 -0.38005966
000370 5f 76 95 bd 35 c7 c6 be e9 1d 21 be 12 25 b1 be
       -0.07297968 -0.38823858 -0.15734066 -0.34598595
000380 9d ea 75 3e b6 51 ad 3e 7e 01 0a be 9f ca ed be
       0.24015279 0.33851403 -0.13477132 -0.4644365
000390 3b 53 d2 3e a8 79 1c 3d cf 75 5a bd e3 10 6e be
       0.41079125 0.038201958 -0.053335007 -0.2324863
0003a0 be 10 b1 3d c7 98 fc be 12 a9 f6 be 10 d4 e6 3e
       0.086457714 -0.4933531 -0.48175865 0.45083666
0003b0 9c f2 03 be c9 09 d7 3d 52 4a 85 3e eb 5a b1 3e
       -0.12885517 0.10499913 0.26033264 0.34639677
0003c0 d3 85 64 3e 40 16 54 be 01 5a 95 3e bf 6d d2 bd
       0.22316675 -0.20711613 0.2917023 -0.10274839
0003d0 d3 0e 2a 3e d5 a3 b3 be c0 a8 ee 3e 9f 7c 7b 3d
       0.16607217 -0.3508593 0.4661312 0.061398145
0003e0 3f 29 c2 3e 6d 4e b9 be 25 90 68 3e 7c fc c0 3e
       0.37922093 -0.36192647 0.22711237 0.3769263
0003f0 e7 fa 30 3d 59 2f e8 3e 32 bd bf 3e 29 73 dd be
       0.04320803 0.45348623 0.37449032 -0.43251923
