policy_weights.pth (torch_old, 32206 bytes, 7 tensors)

critic.0.weight f4 [256, 10]
-0.05287923 -0.09609802 -0.01410843 -0.09150186 -0.015651943 0.0040577 -0.028125383 -0.07921089
-0.13056292 -0.021400314 -0.039759066 0.028727932 0.014734835 0.01667476 -0.013569605 0.0016197473
0.065466486 -0.07740807 0.011988573 0.041652676 -0.026725125 -0.0066783633 0.077623665 0.04894928
0.05358642 -0.09258204 -0.033743367 -0.12133419 0.047171537 -0.07633168 -0.017122898 -0.028022928
-0.09829858 -0.038144987 0.04681975 0.04412014 -0.07539022 -0.079698086 -0.0315825 0.072598055
0.08415613 0.029746342 0.013104757 0.09939283 0.06434784 -0.04235979 -0.04854979 -0.0021019515
-0.0030817797 0.039573934 -0.023577722 0.011779344 0.0072396877 -0.0810938 0.1002714 -0.075150475
-0.06319563 0.105656475 0.051794257 -0.06906365 -0.016390445 0.054417368 -0.05611846 -0.024509652
0.016595274 -0.012746109 0.055960253 0.14375108 0.017973935 0.026793113 -0.110294595 -0.07049982
-0.06279554 0.1330773 0.039524507 0.07991313 0.042561844 0.08290797 -0.15973054 -0.07767679
-0.03336336 0.07064116 0.08497592 -0.071528606 -0.031142293 -0.06376263 -0.035167813 -0.03552262
0.07791648 -0.05878977 -0.051618345 -0.045911245 -0.08102715 0.074092574 0.034544725 0.001236982
-0.03546717 -0.045277122 0.08852741 -0.012365039 -0.048066642 -0.045032304 0.052211616 -0.0015969267
0.03674671 0.04182248 0.0059261364 0.041869473 -0.04151589 0.019236613 0.13588703 -0.05288638
-0.051166978 0.06290885 0.085293725 0.0069083953 -0.0094504 -0.014291778 0.052031633 -0.02277442
-0.20995542 0.0057212003 0.09017527 -0.030849867 -0.12224098 0.009870995 -0.036288556 -0.12838747
-0.08078972 0.0038426328 -0.015574777 0.07849103 0.025768654 0.027435748 -0.0012897348 -0.053678986
-0.04763006 0.017504027 -0.023151804 -0.07267232 0.0316082 0.10027765 -0.0765831 0.097019345
-0.06432073 0.055374566 0.09467809 0.05515236 -0.021045925 0.06297827 0.076034226 -0.038467187
0.012317808 -0.040750764 0.16803634 -0.08406905 -0.07499271 0.06759243 0.0034120611 -0.063749634
0.058503643 0.10440086 -0.08364481 0.01971302 0.08009524 0.0011685605 -0.023385303 0.050696936
-0.03289939 -0.022344174 0.035051033 -0.013202512 -0.038848072 0.19348113 -0.07792616 0.07102692
-0.14613195 -0.15635118 0.003734483 0.09998009 -0.041758224 0.04676647 -0.02288695 -0.002690704
-0.086634696 -0.03297609 -0.018478818 -0.042013068 -0.06353556 0.0035547295 -0.019845406 -0.09202758
-0.034939095 -0.0632818 0.04262249 -0.039505307 -0.01801011 0.07199827 0.2054643 0.030388318
0.05874568 -0.03681539 -0.06094872 -0.052660573 0.022111412 0.060752522 -0.010708736 0.05301638
-0.01435157 0.12193488 0.09498911 0.0848051 -0.11937655 -0.012007114 0.05812657 -0.08037117
-0.020506442 -0.04544214 0.033610888 -0.0036181537 -0.021221023 -0.07364519 -0.051113576 -0.04589954
-0.043998014 -0.048212085 -0.008273275 -0.004230188 -0.1013776 -0.040153787 -0.03471468 0.021475865
-0.03438732 0.0037076797 0.038474537 0.08352609 -0.05148434 -0.049895566 0.07333371 -0.035013832
0.14331257 0.098280765 0.04328323 -0.016137613 -0.053988636 0.06831316 -0.079038285 -0.018796429
-0.026233163 0.091704756 0.08806132 -0.05727097 -0.1601677 -0.10506885 -0.004077995 -0.05415819
00000000: e497 58bd 0acf c4bd 0b27 67bc 5465 bbbd
00000010: 8138 80bc 74f6 843b 3467 e6bc 5239 a2bd
00000020: 49b2 05be b64f afbc 67da 22bd d756 eb3c
00000030: 616a 713c 8299 883c 0c53 5ebc b34d d43a
00000040: 4b13 863d 1f88 9ebd b86b 443c ff9b 2a3d
00000050: a6ee dabc 2cd6 dabb 28f9 9e3d 0a7f 483d
00000060: 6f7d 5b3d a79b bdbd 7c36 0abd 0f7e f8bd
00000070: f136 413d c953 9cbd 5245 8cbc 5790 e5bc
00000080: c450 c9bd eb3d 1cbd 11c6 3f3d 52b7 343d
00000090: 3066 9abd c038 a3bd a75c 01bd 4aae 943d
000000a0: 0d5a ac3d 9aae f33c 56b5 563c 788e cb3d
000000b0: cdc8 833d 7681 2dbd 25dc 46bd e5c0 09bb
000000c0: aff7 49bb 4718 223d 1126 c1bc 26fe 403c
000000d0: e73a ed3b 8214 a6bd 175b cd3d 7ee8 99bd
000000e0: b66c 81bd 6c62 d83d 3726 543d 3e71 8dbd
000000f0: 4145 86bc bfe4 5e3d 78dc 65bd 77c8 c8bc
00000100: d0f2 873c 0ed5 50bc 9436 653d 7c33 133e
00000110: 133e 933c 3b7d db3c 22e2 e1bd 3662 90bd
00000120: f39a 80bd 6a45 083e 73e4 213d 7fa9 a33d
00000130: 5455 2e3d a7cb a93d 6790 23be 0215 9fbd
00000140: 05a8 08bd 50ac 903d db07 ae3d 977d 92bd
00000150: 1f1e ffbc fb95 82bd 200c 10bd 2b80 11bd
00000160: ad92 9f3d 8bcd 70bd c26d 53bd 6e0d 3cbd
00000170: 90f1 a5bd d9bd 973d c57e 0d3d 3a22 a23a
00000180: 0646 11bd 8174 39bd dc4d b53d bc96 4abc
00000190: 87e1 44bd cb73 38bd d9db 553d f84f d1ba
000001a0: b883 163d 0c4e 2b3d 0930 c23b 537f 2b3d
000001b0: 910c 2abd 1a96 9d3c f825 0b3e 649f 58bd
000001c0: 7794 51bd 5bd6 803d 7aae ae3d d25f e23b
000001d0: dad5 1abc 1028 6abc 1f1f 553d 6c91 babc
000001e0: 8efe 56be e878 bb3b d0ad b83d dcb8 fcbc
000001f0: 7b59 fabd f4b9 213c 4fa3 14bd 0178 03be
00000200: 1575 a5bd aed4 7b3b 592d 7fbc e8bf a03d
00000210: c918 d33c efc0 e03c 520c a9ba 7fde 5bbd
00000220: bd17 43bd 9b64 8f3c daa8 bdbc 3ad5 94bd
00000230: 9a77 013d 5e5e cd3d 9ad7 9cbd 14b2 c63d
00000240: 96ba 83bd 71d0 623d 96e6 c13d 71e7 613d
00000250: 8168 acbc c0fa 803d d5b7 9b3d c58f 1dbd
00000260: a2d0 493c 46ea 26bd b811 2c3e 652c acbd
00000270: c795 99bd e66d 8a3d e39c 5f3b 2b8f 82bd
00000280: 84a1 6f3d 1ed0 d53d f84d abbd 337d a13c
00000290: f908 a43d 622a 993a 8992 bfbc 97a7 4f3d
000002a0: 83c1 06bd 210b b7bc ac91 0f3d 594f 58bc
000002b0: 281f 1fbd eb1f 463e c097 9fbd 9076 913d
000002c0: 9da3 15be 861a 20be 3abe 743b 5dc2 cc3d
000002d0: ac0a 2bbd 338e 3f3d 6a7d bbbc 8656 30bb
000002e0: 886d b1bd f011 07bd e460 97bc e515 2cbd
000002f0: ef1e 82bd 77f6 683b d592 a2bc f578 bcbd
00000300: 4c1c 0fbd e399 81bd ec94 2e3d 51d0 21bd
00000310: f089 93bc d473 933d 3c65 523e ecf0 f83c
00000320: 4f9f 703d bccb 16bd 5da5 79bd 9db2 57bd
00000330: fe22 b53c a3d7 783d b273 2fbc b427 593d
00000340: d922 6bbc ffb8 f93d a789 c23d 4cae ad3d
00000350: b17b f4bd 7cb9 44bc 2016 6e3d a499 a4bd
00000360: 20fd a7bc 8a21 3abd 92ab 093d 8c1e 6dbb
00000370: b6d7 adbc 4ad3 96bd 785c 51bd 2801 3cbd
00000380: 4337 34bd 097a 45bd a18c 07bc 649d 8abb
00000390: 0f9f cfbd 4c78 24bd fb30 0ebd 27ee af3c
000003a0: b8d9 0cbd 8bfc 723b 7a97 1d3d ba0f ab3d
000003b0: 3ee1 52bd 4b5f 4cbd fc2f 963d aa6a 0fbd
000003c0: 88c0 123e 6d47 c93d c249 313d 0733 84bc
000003d0: 3023 5dbd c5e7 8b3d d3de a1bd f8fa 99bc
000003e0: eee6 d6bc b4cf bb3d 7e59 b43d f794 6abd
000003f0: 0003 24be 562e d7bd b4a0 85bb fad4 5dbd

critic.0.bias f4 [256]
0.019273547 0.017052224 -0.01635232 -0.018166669 0.024827268 0.015821487 -0.01545727 0.010967476
-0.017016005 0.013789794 0.017929086 -0.019014481 0.01950426 0.01841842 0.016599454 -0.016632488
-0.012181858 -0.014996747 0.019076258 0.017781047 -0.018406346 -0.016221846 0.016626975 -0.018128408
-0.012245229 0.013080284 -0.017096503 -0.018687697 0.020198897 0.017194578 -0.017734017 0.016836828
-0.012163509 -0.02004594 0.021370882 0.017367631 0.016756857 0.019700143 -0.017861394 0.014487935
0.008024643 -0.01761384 -0.011855954 -0.017858228 -0.009003858 0.012252315 0.01662468 0.017942837
0.018143775 -0.012514554 0.014725217 -0.0038268312 0.0034363104 -0.012600515 0.020243384 0.018379716
0.018422805 0.011378007 0.012199746 0.0017856846 0.017962921 0.012598887 0.013881918 -0.017495405
-0.022926116 0.015692282 0.017900653 -0.01723968 -0.01258326 -0.01796088 0.020136341 0.019484468
0.017373724 -0.014818444 -0.02063298 0.017634291 0.01085692 0.002703826 -0.018322593 -0.014370709
0.007923166 -0.016175352 -0.014563935 -0.016303007 -0.018848037 -0.015620577 -0.017180895 -0.015954385
0.017566789 -0.017894248 0.016251834 -0.011912019 0.02084676 -0.016736168 -0.017246522 0.013834831
0.016913863 -0.015863018 -0.022847509 -0.013838392 -0.018937152 -0.024064345 0.016592747 0.015981086
0.017723408 -0.017938048 0.015755357 0.017092844 -0.024292642 0.016311117 -0.01845773 0.020076869
0.014487899 -0.017877793 -0.01728942 -0.017695803 0.017713813 -0.014715489 -0.016117595 -0.021083292
-0.013473248 -0.015586162 0.018123524 0.01578765 -0.02600132 -0.01952739 0.01806333 -0.015976913
0.017591007 0.022256248 0.017893849 -0.018265473 -0.013678111 -0.01896915 -0.008366693 -0.015305148
0.014967929 0.014687803 0.016165439 -0.015549239 0.010222027 0.017536586 0.011554905 0.021122962
0.010484456 -0.015222734 0.0153436065 -0.01681244 0.01754833 -0.018608565 0.016455254 -0.018639503
-0.0059814258 0.017529778 -0.01363274 0.009620935 -0.017715426 -0.016068323 0.01659875 -0.017882818
0.018707039 -0.015928758 -0.01820498 -0.01822276 0.020632926 -0.014855296 0.016904546 0.020271568
-0.016065823 -0.016339988 0.01750438 -0.010893542 0.028940642 -0.0032918695 -0.007906988 0.016808005
-0.018306293 -0.015460261 -0.017130557 -0.017630637 -0.013493958 0.017419573 0.011666879 0.013227496
-0.019326055 -0.013316528 -0.019564569 0.0124792745 0.009842377 -0.017508185 -0.018263755 0.016655508
0.018568432 -0.018311517 0.017735666 0.018056592 -0.002095293 0.018338416 -0.016498953 -0.014853245
-0.0155546665 0.020914046 -0.013477793 0.018337147 0.015176083 0.012890476 0.019022599 -0.0120297605
0.01620887 -0.015424886 -0.018787455 -0.016764922 -0.019194819 -0.01794151 -0.016867217 -0.021473488
-0.011923128 0.016274083 -0.014575499 0.017592596 -0.016031576 -0.015334889 0.01863335 -0.015553383
-0.018293248 0.002205575 0.017004391 -0.01939367 -0.013076941 0.020005887 0.0149430875 0.017057523
-0.009139608 -0.012450827 -0.015529688 -0.015406936 0.014472549 -0.011758897 -0.015692184 -0.015769051
0.015333338 0.018189654 0.019534202 0.01844052 -0.016166084 -0.01861705 0.015197398 0.017801806
0.018472755 -0.018364515 0.018542498 -0.014477878 0.019344205 0.016130816 0.011534159 -0.019382477
00000000: 8fe3 9d3c 1bb1 8b3c 4df5 85bc 44d2 94bc
00000010: 8e62 cb3c 109c 813c 7d40 7dbc eeb0 333c
00000020: 2665 8bbc 97ee 613c 05e0 923c 42c4 9bbc
00000030: 66c7 9f3c 3ae2 963c 94fb 873c db40 88bc
00000040: 6a96 47bc eab4 75bc d045 9c3c 8fa9 913c
00000050: e8c8 96bc ade3 84bc 4b35 883c 0782 94bc
00000060: 37a0 48bc b04e 563c f70d 8cbc f116 99bc
00000070: 2878 a53c a5db 8c3c ee46 91bc 63ed 893c
00000080: 7449 47bc 6237 a4bc fd11 af3c 9046 8e3c
00000090: ad45 893c 3262 a13c 0f52 92bc ce5e 6d3c
000000a0: cb79 033c e64a 90bc 7a3f 42bc 6b4b 92bc
000000b0: eb84 13bc efbd 483c 7b30 883c dbfc 923c
000000c0: 41a2 943c d809 4dbc 0942 713c 93cb 7abb
000000d0: b933 613b 6472 4ebc 74d5 a53c 0f91 963c
000000e0: 6ceb 963c d26a 3a3c 72e1 473c a20d ea3a
000000f0: fa26 933c 906b 4e3c fc70 633c 8652 8fbc
00000100: 8dcf bbbc 1a8d 803c 64a4 923c 3b3a 8dbc
00000110: 052a 4ebc b222 93bc f8f4 a43c e49d 9f3c
00000120: 5753 8e3c 0fc9 72bc 7f06 a9bc ca75 903c
00000130: 39e1 313c ac32 313b 4319 96bc 1f73 6bbc
00000140: 2bd0 013c 2c82 84bc 929d 6ebc e28d 85bc
00000150: 3367 9abc 73ed 7fbc f3be 8cbc c5b2 82bc
00000160: 3ae8 8f3c f596 92bc 9122 853c a12a 43bc
00000170: d3c6 aa3c 4a1a 89bc 9448 8dbc 7dab 623c
00000180: f18e 8a3c 29f3 81bc b32a bbbc 6cba 62bc
00000190: 1622 9bbc 9722 c5bc 83ed 873c c4ea 823c
000001a0: ae30 913c d0f2 92bc 6111 813c 4b06 8c3c
000001b0: 5d01 c7bc e49e 853c aa34 97bc 3f78 a43c
000001c0: a75e 6d3c 7374 92bc 8ba2 8dbc caf6 90bc
000001d0: 8f1c 913c 3c19 71bc 0c09 84bc deb6 acbc
000001e0: e6be 5cbc 1a5d 7fbc c977 943c 1a55 813c
000001f0: b800 d5bc e8f7 9fbc 8cf9 933c 04e2 82bc
00000200: 041b 903c bc52 b63c 1f96 923c 79a1 95bc
00000210: 281a 60bc 3165 9bbc 7414 09bc 72c2 7abc
00000220: 0b3c 753c 1ca5 703c 626d 843c 3cc2 7ebc
00000230: 4a7a 273c e3a8 8f3c c950 3d3c 100a ad3c
00000240: ffc6 2b3c c668 79bc c063 7b3c 3eba 89bc
00000250: 84c1 8f3c fd70 98bc 2bcd 863c dfb1 98bc
00000260: d6ff c3bb 9c9a 8f3c db5b 5fbc 20a1 1d3c
00000270: f11f 91bc b7a1 83bc 1afa 873c fd7e 92bc
00000280: 813f 993c 077d 82bc 9c22 95bc e647 95bc
00000290: 6206 a93c a163 73bc 677b 8a3c 8f10 a63c
000002a0: 799c 83bc 70db 85bc 5865 8f3c d47a 32bc
000002b0: ed14 ed3c 68bc 57bb 508c 01bc f1b0 893c
000002c0: 14f7 95bc 094d 7dbc 6255 8cbc 206e 90bc
000002d0: c315 5dbc 7eb3 8e3c 7026 3f3c 24b8 583c
000002e0: ad51 9ebc 912d 5abc e045 a0bc df75 4c3c
000002f0: ec41 213c 536d 8fbc df9d 95bc 2271 883c
00000300: d31c 983c 0902 96bc 634a 913c 6beb 933c
00000310: 2f51 09bb 723a 963c d028 87bc 065b 73bc
00000320: 00d9 7ebc ef53 ab3c f6d1 5cbc c937 963c
00000330: 1ba5 783c 9332 533c 48d5 9b3c 7918 45bc
00000340: 77c8 843c a9b8 7cbc 26e8 99bc 9756 89bc
00000350: 743e 9dbc 13fa 92bc 1e2d 8abc 2be9 afbc
00000360: 3959 43bc 3a51 853c 13ce 6ebc 591e 903c
00000370: a754 83bc 303f 7bbc f8a4 983c 9ed3 7ebc
00000380: b9db 95bc 688b 103b cb4c 8b3c 79df 9ebc
00000390: aa40 56bc 63e3 a33c dad3 743c 38bc 8b3c
000003a0: 4bbe 15bc 8efe 4bbc 3c70 7ebc 606d 7cbc
000003b0: 451e 6d3c 64a8 40bc e58c 80bc 192e 81bc
000003c0: ae38 7b3c 7802 953c 3106 a03c 9310 973c
000003d0: bc6e 84bc c982 98bc 82fe 783c 18d5 913c
000003e0: 2d54 973c 2e71 96bc 70e6 973c 9f34 6dbc
000003f0: bd77 9e3c c624 843c c5f9 3c3c 00c8 9ebc

critic.2.weight f4 [1, 256]
-0.117569976 -0.1550943 0.046639986 0.09153809 -0.009820628 -0.024724904 0.060835425 -0.042910576
0.027668945 -0.011190246 -0.07766094 0.048396926 -0.007849008 -0.050517112 -0.039824914 0.06701196
0.0035330253 0.081061795 -0.049591076 -0.051700547 0.062657 0.030514363 -0.059562605 0.12086848
0.074728884 -0.069423154 0.07212346 0.034854848 -0.016126012 -0.011971595 0.053341433 -0.03345377
0.03124518 0.019907285 -0.0069118356 -0.094184965 -0.1533221 -0.020283556 0.08863701 -0.0036896595
-0.12069722 0.10550774 0.03275837 0.048583444 0.088425845 -0.005429139 -0.06147729 -0.021250857
-0.06349931 0.051249817 -0.047467943 -0.0019627973 -0.07359962 0.008814459 -0.037226513 -0.08559287
-0.028820341 -0.021204816 -0.039525982 -0.06682297 -0.04745703 -0.104116976 -0.033479948 0.17351317
0.010457348 -0.016923897 -0.060240358 0.026866877 0.049882337 0.080385774 -0.038969193 -0.011343981
-0.05560893 0.054436274 0.036286186 -0.08457293 -0.010421691 0.0009433531 0.12225292 0.10132769
-0.027743995 0.046752777 0.06881319 0.061676305 0.051858444 0.020992402 0.061959535 0.008171407
-0.101925045 0.1354733 -0.04863718 0.031744078 -0.025641682 0.06337995 0.056669388 -0.050521288
-0.045535967 0.060284305 0.0002855164 0.01983878 0.035252288 0.010482746 -0.019576432 -0.04478556
-0.07550646 0.06827797 -0.045947243 -0.0184623 0.007794854 -0.013992408 0.069990106 -0.021372566
-0.07131084 0.056634326 0.12608802 0.10136845 -0.023928035 0.03712753 0.011977301 0.014638518
0.044960182 0.08846523 -0.020825604 -0.022909252 0.015804652 0.005343427 -0.07591946 0.062137168
-0.055913154 -0.023001306 -0.07383493 0.114681944 0.05098927 0.030499205 0.012491674 0.13156651
-0.08726402 -0.1686251 -0.031894848 0.008983741 -0.07945126 -0.08974225 -0.077732846 -0.030264651
-0.02833481 0.0062394333 -0.1391055 0.15826374 -0.023467897 0.15204722 -0.05309293 0.03943493
0.0022021816 -0.054172475 0.0023954886 -0.005417961 0.071644455 0.026641998 -0.053238522 0.028381461
-0.037882067 0.026490156 0.07776177 0.10652307 -0.03523911 0.08671508 -0.05192978 -0.036642797
0.049810153 0.034790218 -0.02788779 0.04810252 -0.016037945 0.00066683313 0.00307356 -0.09033371
0.08372836 0.03800677 0.0648186 0.056986008 0.025773073 -0.0062599983 -0.07174886 -0.037874527
0.04499431 0.01910656 0.030549802 -0.062000655 -0.03177552 0.06347028 0.052384548 -0.0602056
-0.055378146 0.04819025 -0.096909605 -0.060276285 0.004779787 -0.049748022 0.053494066 0.002136268
0.01422299 -0.012947081 0.06372858 -0.05168477 -0.00895993 -0.072539784 -0.0984596 0.11785423
-0.010596955 0.050676726 0.051328726 0.010794123 0.10344312 0.11477005 0.02683292 0.022936458
0.018143112 -0.036863256 0.03631219 -0.06613186 0.040652413 0.08291577 -0.042936884 0.118369676
0.052325126 -0.0037183003 -0.09082262 0.021548728 0.042224046 -0.028684761 -0.021262111 -0.08427937
0.08218883 0.09457812 0.04740892 0.005977084 -0.13579477 0.034734633 0.06499133 0.121975824
-0.014999749 -0.052204862 -0.01790816 -0.038208153 0.015534174 0.04317021 -0.0518177 -0.056327377
-0.03023627 0.12681715 -0.07074265 0.006729833 -0.039136894 -0.1388085 -0.047770318 0.02934819
00000000: 87c8 f0bd 0ad1 1ebe 9209 3f3d 5278 bb3d
00000010: b3e6 20bc e28b cabc 912e 793d 00c3 2fbd
00000020: fca9 e23c 4b57 37bc b30c 9fbd db3b 463d
00000030: 2099 00bc 08eb 4ebd 731f 23bd 913d 893d
00000040: 548a 673b ba03 a63d 0320 4bbd f4c3 53bd
00000050: 5052 803d 42f9 f93c ebf7 73bd e589 f73d
00000060: 750b 993d ba2d 8ebd 77b5 933d f5c3 0e3d
00000070: b31a 84bc 8224 44bc 8c7c 5a3d d206 09bd
00000080: e4f5 ff3c 9a14 a33c ae7c e2bb 0ce4 c0bd
00000090: 7800 1dbe b329 a6bc 5287 b53d 37ce 71bb
000000a0: 1b30 f7bd 7114 d83d a42d 063d 6fff 463d
000000b0: 9c18 b53d ebe6 b1bb 9ccf 7bbd 4716 aebc
000000c0: ed0b 82bd 54eb 513d bf6d 42bd 46a2 00bb
000000d0: 66bb 96bd 856a 103c d47a 18bd 514b afbd
000000e0: a318 ecbc b9b5 adbc ffe5 21bd 7bda 88bd
000000f0: 4d62 42bd 483b d5bd 4522 09bd 70ad 313e
00000100: 4c55 2b3c fca3 8abc 98be 76bd ed17 dc3c
00000110: 6c51 4c3d 4ca1 a43d 299e 1fbd 1bdc 39bc
00000120: 30c6 63bd 92f8 5e3d d3a0 143d 9334 adbd
00000130: bebf 2abc 5b4b 773a bd5f fa3d e484 cf3d
00000140: 6047 e3bc d77f 3f3d eeed 8c3d 4ba0 7c3d
00000150: 8569 543d 42f8 ab3c 48c9 7d3d 5de1 053c
00000160: 14be d0bd 83b9 0a3e c837 47bd 1406 023d
00000170: 810e d2bc 59cd 813d 291e 683d 69ef 4ebd
00000180: ec83 3abd adec 763d 5db1 9539 f084 a23c
00000190: b464 103d d3bf 2b3c c15e a0bc 1071 37bd
000001a0: 22a3 9abd 52d5 8b3d 2d33 3cbd 403e 97bc
000001b0: fa6b ff3b 6a40 65bc f956 8f3d 8515 afbc
000001c0: 6b0b 92bd 65f9 673d 381d 013e 439a cf3d
000001d0: ba04 c4bc 0913 183d 713c 443c 65d6 6f3c
000001e0: 2b28 383d 422d b53d 759a aabc 2fac bbbc
000001f0: c278 813c ea17 af3b a97b 9bbd 8b83 7e3d
00000200: 3105 65bd 3c6d bcbc c536 97bd 5ede ea3d
00000210: 20da 503d 78d9 f93c e1a9 4c3c 5fb9 063e
00000220: 7bb7 b2bd 0fac 2cbe 2ca4 02bd 8a30 133c
00000230: 58b7 a2bd c9ca b7bd 6632 9fbd 93ed f7bc
00000240: 671e e8bc 2974 cc3b ac71 0ebe e40f 223e
00000250: bf3f c0bc 44b2 1b3e f977 59bd 8586 213d
00000260: 7a52 103b f5e3 5dbd a1fd 1c3b 2789 b1bb
00000270: 54ba 923d 5240 da3c a310 5abd 3d80 e83c
00000280: 3a2a 1bbd e201 d93c 9041 9f3d c428 da3d
00000290: e356 10bd ad97 b13d 52b4 54bd c216 16bd
000002a0: bb05 4c3d 3080 0e3d ef74 e4bc 2607 453d
000002b0: 0262 83bc 6ace 2e3a c86d 493b e100 b9bd
000002c0: c679 ab3d fdac 1b3d 9dbf 843d 296a 693d
000002d0: 0d22 d33c ac20 cdbb 11f1 92bd 5222 1bbd
000002e0: f44b 383d 5c85 9c3c 9443 fa3c 66f4 7dbd
000002f0: 0c27 02bd b5fc 813d 2e91 563d 269a 76bd
00000300: 32d4 62bd 2463 453d 8b78 c6bd 44e4 76bd
00000310: c29f 9c3b 95c4 4bbd 981c 5b3d a100 0c3b
00000320: 8b07 693c fe1f 54bc 2184 823d 69b3 53bd
00000330: accc 12bc bd8f 94bd 30a5 c9bd 8f5d f13d
00000340: da9e 2dbc 6692 4f3d 123e 523d d5d9 303c
00000350: fdd9 d33d 8f0c eb3d b6d0 db3c 3de5 bb3c
00000360: dda0 943c edfd 16bd 17bc 143d 2470 87bd
00000370: 2583 263d becf a93d 96de 2fbd cd6b f23d
00000380: df52 563d baae 73bb 3601 babd f586 b03c
00000390: 1ff3 2c3d 4efc eabc e12d aebc aa9a acbd
000003a0: 9e52 a83d 2cb2 c13d db2f 423d 6adb c33b
000003b0: c90d 0bbe e745 0e3d 2d1a 853d 76ce f93d
000003c0: 82c1 75bc c4d4 55bd 22b4 92bc 2780 1cbd
000003d0: 0c83 7e3c 3fd3 303d cc3e 54bd 89b7 66bd
000003e0: 0eb2 f7bc 5bdc 013e 86e1 90bd ee85 dc3b
000003f0: 024e 20bd d123 0ebe cfaa 43bd 9e6b f03c

actor.0.weight f4 [256, 10]
0.013859883 0.08885954 -0.056260906 -0.026470056 0.048589565 0.0085769985 0.059294216 0.017289573
0.06316715 -0.046993528 0.0014587118 0.1253835 -0.09609284 -0.054315273 0.089014284 -0.040253926
-0.08586336 0.017432002 -0.064396195 0.07329256 -0.132676 -0.044299148 -0.0058135935 -0.024084205
0.00637178 -0.10113771 -0.07843994 0.02908087 -0.096324064 0.030740254 0.031525675 -0.04367387
0.04107051 -0.029727291 -0.002770449 -0.019525748 -0.015746152 0.10758494 -0.0047025206 0.014909961
0.0025482285 0.031936526 0.020037664 -0.18681668 -0.04548305 0.028527277 0.04317486 0.035220783
-0.022816457 -0.08510231 -0.046620067 -0.0015541806 0.062917754 -0.025156025 0.017147472 -0.05466467
0.018674944 -0.085075915 -0.13946117 0.034933303 0.041057352 -0.041215632 -0.08194969 -0.035929423
-0.050649244 -0.0022303544 -0.069057286 -0.06744984 -0.07825181 0.0068600685 -0.07049368 -0.13174121
-0.024908166 -0.07036077 0.012388955 0.026768742 -0.016395036 -0.010663549 -0.027934903 -0.12206206
0.03680934 -0.05043257 0.051351078 -0.052614823 0.064794585 0.02919106 -0.011254511 0.035040382
0.108928 -0.086933315 -0.100376494 -0.06322197 0.05784389 -0.033968817 -0.18450741 0.10654032
-0.026889864 0.099919066 0.050888415 0.02275869 0.05442397 -0.04926648 -0.007227804 0.038334023
-0.024624897 0.012994583 -0.056920286 0.07331603 -0.06302078 0.06662211 0.052519396 0.034083247
-0.044000283 -0.0024034404 0.055426113 0.03518617 -0.024884526 -0.0044111223 -0.026788704 -0.04032846
0.05867634 0.027131882 -0.008604967 0.009977953 -0.026086 0.004253079 -0.025196644 0.011649789
0.054433282 -0.08519619 0.033742618 0.014817009 -0.004427352 0.022963922 -0.056493357 -0.016659364
0.07872733 -0.029119482 -0.02000077 -0.071889155 -0.032991737 -0.072395936 0.024695063 0.035858285
0.07788544 -0.034292378 -0.029427422 0.12566365 -0.024307953 0.049732115 0.057183903 0.05421323
0.08387126 0.06390355 0.015560214 -0.0036230008 -0.051972695 0.060281232 -0.08974575 0.04601382
0.04028842 0.012034376 -0.117910706 -0.008697401 0.00084579224 0.052524492 -0.050315153 -0.035663415
0.026392892 0.08224209 0.110651985 -0.025281815 -0.01735614 0.05933094 0.0589059 0.080505475
0.019391682 -0.008434298 -0.050651565 0.0306224 -0.02804706 0.018258525 -0.09622009 -0.03227659
0.06797905 -0.14587644 -0.032105424 -0.0015540353 0.1195463 0.036125857 -0.022263352 -0.11814754
-0.014735986 0.016455626 -0.00061635725 0.061494242 0.009000892 -0.016412389 0.04674228 0.08753031
-0.12978488 -0.026868034 0.024923498 -0.01746435 0.059437472 -0.13380642 -0.039592493 -0.032800913
0.046338752 -0.027263708 0.0054139416 -0.07615952 -0.008544566 -0.008588252 0.017850535 0.032943055
0.018421901 -0.0036743295 0.06090169 0.0033173368 0.07786267 -0.0020482363 -0.030974546 -0.019891595
-0.05545386 0.106510356 -0.032561637 0.11482005 -0.04380408 -0.07990489 0.0133278 -0.01607438
-0.041650802 -0.016035447 0.03172808 0.020857912 0.052001417 -0.09068007 -0.008680528 -0.043730512
-0.009135451 -0.037346996 0.007476599 -0.036660023 -0.04209327 0.023105625 0.013635584 0.05050412
0.014392197 0.052665908 0.072798 -0.15146908 -0.028890837 0.07104364 -0.0802475 0.030346049
00000000: 9014 633c fefb b53d d671 66bd bbd7 d8bc
00000010: da05 473d 8a86 0c3c 7ede 723d dda2 8d3c
00000020: c75d 813d 497c 40bd 3f32 bf3a 8864 003e
00000030: 53cc c4bd b179 5ebd 1f4d b63d 4de1 24bd
00000040: 21d9 afbd 8fcd 8e3c 27e2 83bd 691a 963d
00000050: 38dc 07be 0673 35bd f57f bebb 3d4c c5bc
00000060: 5dca d03b 4a21 cfbd 1fa5 a0bd 013b ee3c
00000070: 8d45 c5bd fcd2 fb3c 1121 013d 5fe3 32bd
00000080: 8d39 283d a686 f3bc 6c90 35bb 76f4 9fbc
00000090: 13fe 80bc 7e55 dc3d 9a17 9abb e948 743c
000000a0: 2e00 273b e0cf 023d 0726 a43c df4c 3fbe
000000b0: 6f4c 3abd 09b2 e93c 1fd8 303d ab43 103d
000000c0: 94e9 babc 1f4a aebd aff4 3ebd a6b5 cbba
000000d0: 06db 803d 0214 cebc db78 8c3c 10e8 5fbd
000000e0: 32fc 983c 483c aebd e9ce 0ebe 3916 0f3d
000000f0: c12b 283d b9d1 28bd 3dd5 a7bd bb2a 13bd
00000100: 9575 4fbd 232b 12bb e86d 8dbd 2423 8abd
00000110: 7c42 a0bd 6dca e03b fe5e 90bd 2be7 06be
00000120: 360c ccbc 4f19 90bd 0bfb 4a3c 1f4a db3c
00000130: e24e 86bc 2bb6 2ebc bdd7 e4bc acfb f9bd
00000140: 64c5 163d 6292 4ebd 8255 523d a482 57bd
00000150: 06b3 843d 1722 ef3c d764 38bc 8186 0f3d
00000160: a515 df3d 180a b2bd 3192 cdbd 857a 81bd
00000170: b7ed 6c3d e322 0bbd 83ef 3cbe d031 da3d
00000180: 2248 dcbc 5ea2 cc3d 5f70 503d 6f70 ba3c
00000190: abeb 5e3d a6cb 49bd 37d7 ecbb 2304 1d3d
000001a0: 27ba c9bc 3be7 543c 3f25 69bd b726 963d
000001b0: 0a11 81bd 2c71 883d 941e 573d e09a 0b3d
000001c0: a439 34bd 0a83 1dbb 7e06 633d 601f 103d
000001d0: a2da cbbc 2d8b 90bb fc73 dbbc 752f 25bd
000001e0: 9a56 703d ae43 de3c d9fb 0cbc 917a 233c
000001f0: 4fb2 d5bc 6a5d 8b3b 3169 cebc c2de 3e3c
00000200: 6ff5 5e3d 577b aebd b335 0a3d 0ac3 723c
00000210: 5213 91bb d61e bc3c 9465 67bd 3879 88bc
00000220: cb3b a13d fb8b eebc a8d8 a3bc 9f3a 93bd
00000230: 5822 07bd 5244 94bd 4d4d ca3c 23e0 123d
00000240: 6782 9f3d 2a76 0cbd c711 f1bc f9ad 003e
00000250: 7921 c7bc e7b3 4b3d ab39 6a3d b10e 5e3d
00000260: b2c4 ab3d dddf 823d 45f0 7e3c de6f 6dbb
00000270: 52e1 54bd 74e9 763d 9fcc b7bd fd78 3c3d
00000280: 7805 253d d52b 453c 2b7b f1bd 8b7f 0ebc
00000290: 28b8 5d3a ec23 573d 4317 4ebd cd13 12bd
000002a0: e835 d83c 8a6e a83d 829d e23d cf1b cfbc
000002b0: 772e 8ebc 0005 733d 5047 713d 0ee0 a43d
000002c0: 4edb 9e3c 0330 0abc 0478 4fbd d4db fa3c
000002d0: f3c2 e5bc e792 953c 0a0f c5bd 7534 04bd
000002e0: 9a38 8b3d a260 15be fa80 03bd c6b0 cbba
000002f0: b1d4 f43d b5f8 133d a261 b6bc 56f7 f1bd
00000300: 346f 71bc f3cd 863c 0993 21ba 63e1 7b3d
00000310: 7a78 133c 4673 86bc d574 3f3d 1743 b33d
00000320: 54e6 04be 5a1a dcbc 5d2c cc3c 6611 8fbc
00000330: b574 733d 8d04 09be bd2b 22bd 405a 06bd
00000340: b4cd 3d3d 2458 dfbc 6f67 b13b 86f9 9bbd
00000350: 82fe 0bbc bdb5 0cbc 493b 923c 4cef 063d
00000360: 87e9 963c 05cd 70bb 0d74 793d ad67 593b
00000370: 7776 9f3d b43b 06bb 55be fdbc b3f3 a2bc
00000380: 9623 63bd 1a22 da3d 5a5f 05bd c626 eb3d
00000390: e86b 33bd 2da5 a3bd d85c 5a3c 6bae 83bc
000003a0: 089a 2abd c55c 83bc 4ef5 013d 36de aa3c
000003b0: 70ff 543d 79b6 b9bd c638 0ebc c41e 33bd
000003c0: dcac 15bc 2af9 18bd 42fe f43b d228 16bd
000003d0: fe69 2cbd 0248 bd3c c967 5f3c 68dd 4e3d
000003e0: 40cd 6b3c 35b8 573d 1e17 953d b61a 1bbe
000003f0: 7aac ecbc 547f 913d cd58 a4bd 4798 f83c

actor.0.bias f4 [256]
-0.00035321814 -0.0003685243 0.0062457146 0.0011116657 0.003717672 0.00097492273 -0.0021736952 0.001063663
0.0034682022 0.0018627679 0.0014364361 0.003821148 -0.00036469378 -0.0023820284 -0.0055176914 -0.0062654437
-0.0006021853 0.0005174717 0.002084551 -0.0013747565 -0.00028106463 0.0034226228 0.002002069 -0.0017994535
0.00092028046 -0.0033464928 0.00048181537 0.00093973515 -0.0030169506 0.0002046484 -0.00043120224 -0.001977117
-0.0062591163 0.0027963724 0.0048420876 0.0006065885 -0.0025782112 -0.0028714614 0.00037906502 -0.0016912395
0.0015584171 -0.0048841685 -0.003325207 0.003574389 -0.0024603074 -0.00036004445 -0.0034608324 0.0030310233
0.0025880896 0.0011858485 0.0012142125 -0.004514826 -0.00090469595 -0.0028128494 0.0013134003 -0.00059504906
0.0025648803 0.003678728 0.005528799 -0.0035590793 -0.0016483903 -0.0012553218 -0.0021867007 -0.0011732714
-0.0024086863 -0.0046133464 0.0015480175 0.0025890481 0.003925174 -0.0033384056 0.0055458015 -0.0014002305
-0.0023751787 -0.00028582595 0.0040870626 -0.0021149463 -0.002775737 -0.0017861357 -0.00040442415 0.0049549043
0.0049682227 -0.0019529887 -0.002097544 0.0010118738 -0.004437259 -0.0054875123 0.0010139606 -0.0044903094
0.0028571042 0.002888893 0.0011252385 0.00016147953 -0.000253913 0.0022585257 -0.0020811297 0.0005434866
0.006593083 0.002325085 -0.0044732504 0.0048536463 -0.0031965538 0.0038793883 0.0042260643 0.0018720117
-0.0050141374 -0.0012611076 -0.00413948 0.0035172433 0.00040916458 0.0027884531 0.0017709326 -0.00060108164
-0.0020705198 0.0056120586 -0.0018358747 0.00081712974 0.0042426656 0.0012683555 -0.0036569932 0.0035849533
-0.002194324 0.0017055579 -0.0010479689 0.0036890584 0.00037156735 0.0016866955 -0.0015200119 -0.0012573164
-0.0045923213 0.00081457273 0.002559736 -0.0031553144 -0.003410522 0.003396756 0.0023893293 -0.003995536
0.0013591624 -0.0032991127 -0.0008900176 0.00027278313 -0.0016463691 -0.0025887657 -0.0014261921 -0.0048550004
0.00054915895 0.0020479944 -0.0028940614 0.00055607664 -0.0034192563 -0.001049796 0.00085255486 -0.0046653654
-0.004660945 0.0057472195 0.00034468155 -0.0013263411 0.0008185694 -0.0047483617 -0.002615153 -0.0051448867
-0.0016753087 0.0011512609 -0.005782477 -0.004168572 -0.0017707177 -0.0019758025 -0.005223756 0.0032362833
-0.0020563356 0.0011041065 0.00093010423 -0.00049533683 0.004733213 -0.0055825263 0.0020795977 0.0014772419
0.0025683325 0.0004370633 -0.0011179177 0.0029618489 -0.0035349356 -0.0047662747 0.002327253 -0.0017779905
0.001290377 0.0025200353 0.005168411 0.00057839137 -0.0025840835 -0.0005937861 0.00075374404 0.00052244804
0.0036380624 -0.0014568786 0.00083760364 0.005278803 -0.0008881 0.0004913722 0.00034528808 0.00014422764
-0.0018298501 -0.0013458306 0.005515939 0.0011432754 0.00026726138 -0.003349112 -0.00085921487 0.0027821742
0.00020654347 0.0056174374 -0.0018874096 -0.0011405094 0.001422925 0.00032645278 -0.00220724 -0.00081532006
0.0018664656 0.0014964745 -0.003263911 0.0040164287 0.003904813 0.005505509 0.00096794224 0.0012601003
0.00037497477 -0.004630891 0.005150802 -0.0023676888 0.0005984581 0.0061220955 -0.005469287 -0.0034559804
0.004991573 0.0005306935 0.0006563475 -0.0025571631 0.0017341838 -0.00047551226 0.0028674458 -0.0056504766
-0.0001618355 0.0041245227 -0.0041536614 -0.0022857727 -0.0065525575 0.00027729335 -0.0034433769 0.0024203944
-0.0011104224 0.0028713078 0.0043868385 0.00017638985 0.0015296717 -0.00032743294 0.002726733 -0.0012205406
00000000: 2330 b9b9 7f36 c1b9 daa8 cc3b 50b5 913a
00000010: 30a4 733b f591 7f3a 8e74 0ebb 9c6a 8b3a
00000020: c74a 633b 1e28 f43a cc46 bc3a 3a6c 7a3b
00000030: 5f34 bfb9 ce1b 1cbb c0cd b4bb 5a4e cdbb
00000040: f9db 1dba f0a6 073a f69c 083b 2c31 b4ba
00000050: db5b 93b9 154e 603b 2535 033b a4db ebba
00000060: fa3e 713a d550 5bbb 2a9c fc39 8f58 763a
00000070: 08b8 45bb e396 5639 fc12 e2b9 8592 01bb
00000080: 4619 cdbb 5843 373b 60aa 9e3b 7703 1f3a
00000090: 35f7 28bb 212f 3cbb 3fbd c639 95ac ddba
000000a0: cd43 cc3a 600b a0bb b7eb 59bb 4c40 6a3b
000000b0: 1c3d 21bb 59c4 bcb9 22cf 62bb 22a4 463b
000000c0: f09c 293b 796e 9b3a 3626 9f3a 1bf1 93bb
000000d0: 1e29 6dba c857 38bb 6726 ac3a 11fd 1bba
000000e0: 8d17 283b d016 713b ed2a b53b 713f 69bb
000000f0: cd0e d8ba 9c89 a4ba c04e 0fbb 75c8 99ba
00000100: 0ddb 1dbb 8e2b 97bb d9e6 ca3a 05ad 293b
00000110: bf9e 803b 27c9 5abb 8eb9 b53b f087 b7ba
00000120: e3a8 1bbb e9da 95b9 c4ec 853b e99a 0abb
00000130: 24e9 35bb c51c eaba e408 d4b9 c05c a23b
00000140: 79cc a23b 6dfb ffba f376 09bb daa0 843a
00000150: 6d66 91bb 97d0 b3bb dfe6 843a 7223 93bb
00000160: 413e 3b3b 9553 3d3b bd7c 933a d552 2939
00000170: a01f 85b9 c603 143b 9063 08bb c578 0e3a
00000180: ca0a d83b 7460 183b 5894 92bb 560b 9f3b
00000190: 467d 51bb 563d 7e3b cc7a 8a3b 4a5e f53a
000001a0: a24d a4bb c04b a5ba 7aa4 87bb 8d81 663b
000001b0: 2485 d639 7bbe 363b a31e e83a e891 1dba
000001c0: 8fb1 07bb 5ce5 b73b bca1 f0ba a634 563a
000001d0: 0f06 8b3b f33e a63a 2aaa 6fbb 89f1 6a3b
000001e0: a6ce 0fbb 078d df3a 005c 89ba 21c4 713b
000001f0: edce c239 1c14 dd3a 233b c7ba 8acc a4ba
00000200: 2f7b 96bb 0d89 553a 3ec1 273b 64c9 4ebb
00000210: 1083 5fbb 1c9c 5e3b 4b96 1c3b fcec 82bb
00000220: ec25 b23a ed35 58bb 1250 69ba 5504 8f39
00000230: fbca d7ba 48a8 29bb 11ef baba b216 9fbb
00000240: 6ff5 0f3a a537 063b 4baa 3dbb acc5 113a
00000250: 9a15 60bb 4f99 89ba fd7d 5f3a ecdf 98bb
00000260: d7ba 98bb 2c53 bc3b 60b6 b439 9fd8 adba
00000270: 4395 563a 2598 9bbb fd62 2bbb 7096 a8bb
00000280: 0896 dbba e8e5 963a ef7a bdbb 8498 88bb
00000290: 6d17 e8ba 777c 01bb 0b2c abbb d317 543b
000002a0: 96c3 06bb abb7 903a 3dd2 733a 7ed9 01ba
000002b0: 1219 9b3b a0ed b6bb dc49 083b 03a0 c13a
000002c0: 7851 283b a525 e539 1887 92ba 941b 423b
000002d0: 61aa 67bb 692e 9cbb d484 183b 760b e9ba
000002e0: de21 a93a 2d27 253b c65b a93b 309f 173a
000002f0: ba59 29bb 50a8 1bba e896 453a e5f4 083a
00000300: 8f6c 6e3b bcf4 beba a192 5b3a cff9 ac3b
00000310: 62cf 68ba 6ecf 003a c807 b539 d03b 1739
00000320: 95d7 efba 9566 b0ba 0dbf b43b f5d9 953a
00000330: 371f 8c39 c77c 5bbb ef3c 61ba 2355 363b
00000340: 9793 5839 7b12 b83b f562 f7ba 257d 95ba
00000350: 7181 ba3a c027 ab39 58a7 10bb 34bb 55ba
00000360: 31a4 f43a 5a25 c43a 57e7 55bb 3f9c 833b
00000370: e4e7 7f3b 8f67 b43b 81bd 7d3a f329 a53a
00000380: 4398 c439 bbbe 97bb 0fc8 a83b 3a2b 1bbb
00000390: d8e1 1c3a dc9b c83b b437 b3bb bb7d 62bb
000003a0: 5990 a33b 3d1e 0b3a bc0e 2c3a 1496 27bb
000003b0: 8d4d e33a 2d4e f9b9 c2eb 3b3b a227 b9bb
000003c0: 63b2 29b9 0127 873b 701b 88bb e7cc 15bb
000003d0: d6b6 d6bb af61 9139 47aa 61bb 7b9f 1e3b
000003e0: 988b 91ba 8d2c 3c3b 78bf 8f3b 4af5 3839
000003f0: 447f c83a 4eab abb9 fdb2 323b 8cfa 9fba

actor.2.weight f4 [7, 256]
0.10011527 -0.030843996 0.019882262 0.15936132 -0.083682664 0.0702872 -0.040286906 -0.024228998
-0.08641317 -0.006820651 -0.09006195 -0.022781681 0.04850462 0.06296642 -0.03703631 0.064530045
0.0023006806 0.07545404 -0.04616759 0.0829732 -0.007278187 0.003921669 -0.029543625 0.050161406
-0.041847274 0.11563552 0.09619804 0.121997 0.18649791 0.03739175 -0.04285914 -0.10362785
0.0056879413 -0.06335672 -0.054173615 0.113395125 0.060420148 0.031039208 0.008044295 0.007747154
0.057912577 0.02220416 0.061385285 -0.1145836 0.0424458 -0.07891881 0.00426869 -0.12173051
-0.03268572 0.023769267 -0.12138544 0.028394 -0.05907902 0.028271351 -0.04226927 0.10498182
-0.060286224 0.06574592 -0.029920848 -0.015430271 -0.011363062 0.027623475 -0.0024888706 -0.089956336
-0.06787926 0.1514179 -0.0056647197 0.019651603 -0.1489758 0.013722134 -0.022817185 -0.010949215
0.045802284 0.0043170606 -0.017800396 -0.0822923 0.07019349 -0.006314117 -0.04500073 0.04302759
-0.10630414 0.02683781 0.017680846 0.111128 -0.0046249735 0.043109678 0.014205352 0.14758681
-0.008111812 0.014828127 -0.035205185 -0.019180883 -0.016755594 0.0031578345 -0.12117064 0.0015938497
-0.022949388 0.05685286 0.060558576 -0.030534225 0.04385437 -0.08844799 -0.0017485465 0.0005079443
0.062290277 0.034704924 0.020939445 0.0097700395 0.0939407 -0.006140811 -0.03749755 0.0016172755
0.062850185 0.002240094 -0.079020664 -0.07068199 -0.0034590126 -0.10301365 -0.03048984 0.04437718
-0.01082693 -0.060185738 0.0983103 -0.018706232 -0.07653719 -0.034210216 0.017818872 0.058138564
0.07928288 0.07026786 -0.068636104 0.05279636 -0.046313316 -0.06296809 -0.040198985 0.023633393
-0.011344654 0.0036787144 -0.1024684 -0.04538405 0.033713818 0.0057040476 -0.04854032 -0.002002652
-0.018373994 0.024932789 -0.06462238 -0.09619525 -0.072121635 0.0016029682 -0.1351658 0.058060672
0.087189525 -0.056246944 -0.104759455 0.11347701 -6.8635905e-05 -0.010463905 -0.062937826 0.055179145
0.008470708 0.0924145 0.022376588 -0.001913934 -0.05073222 0.08447806 -0.0075546354 -0.03963805
-0.001047791 -0.006207249 0.038431738 -0.031008666 -0.008978947 -0.01731435 -0.08815821 -0.007454705
-0.05163849 -0.11846599 -0.05756088 -0.012850192 -0.02707074 0.010218879 -0.01097996 -0.02708098
0.11010581 -0.005666676 -0.052334223 -0.10322696 0.04337957 0.039586596 -0.05800309 -0.023267081
-0.014236741 -0.052167 0.048185073 0.046389252 -0.018219016 0.0074607893 -0.03751302 0.052411072
0.06335104 -0.067552716 -0.08262096 0.031169418 0.023476569 0.02205651 -0.05502438 0.057610374
0.096852496 0.0065266592 -0.0002204202 0.03539831 -0.12995519 0.091431595 -0.13183156 -0.09264204
-0.0173514 -0.011046432 -0.03346775 0.032827273 0.045092672 0.004116504 -0.006462773 0.078953505
0.073589794 0.06806377 -0.07205634 -0.010581966 -0.047137547 -0.09122387 0.071820475 0.09603169
-0.06863794 0.086238794 -0.0005717112 -0.021873053 0.117126994 0.017633535 -0.049000055 0.07983583
0.038129434 -0.0787056 0.08137607 -0.017323796 0.08726305 -0.035451464 -0.024119964 0.023563135
-0.07373367 -0.022951663 0.023564033 -0.010259509 0.02442729 0.012607734 0.020774873 0.17068416
00000000: 3c09 cd3d 8cac fcbc 20e0 a23c 9d2f 233e
00000010: d161 abbd bcf2 8f3d e203 25bd e47b c6bc
00000020: 63f9 b0bd c47f dfbb 6672 b8bd a6a0 babc
00000030: c8ac 463d 8af4 803d 63b3 17bd 5428 843d
00000040: 04c7 163b a687 9a3d 3a1a 3dbd daed a93d
00000050: dc7d eebb 5881 803b 7905 f2bc 0c76 4d3d
00000060: 0c68 2bbd 51d2 ec3d 7a03 c53d 90d9 f93d
00000070: 4ff9 3e3e 1728 193d 118d 2fbd d73a d4bd
00000080: e961 ba3b 2bc1 81bd 27e5 5dbd b43b e83d
00000090: 1e7b 773d f045 fe3c 38cc 033c d7db fd3b
000000a0: bd35 6d3d 80e5 b53c 236f 7b3d ceaa eabd
000000b0: a6db 2d3d 2fa0 a1bd 5ee0 8b3b d84d f9bd
000000c0: 76e1 05bd c4b7 c23c ee98 f8bd 899a e83c
000000d0: d8fc 71bd 5299 e73c 8b22 2dbd b500 d73d
000000e0: b0ee 76bd cca5 863d 911c f5bc 3fcf 7cbc
000000f0: 232c 3abc a04a e23c 521c 23bb 073b b8bd
00000100: 4804 8bbd 4b0d 1b3e 1d9f b9bb 66fc a03c
00000110: 1d8d 18be cdd2 603c 1beb babc 5664 33bc
00000120: 2d9b 3b3d 2176 8d3b 23d2 91bc de88 a8bd
00000130: 9bc1 8f3d a7e6 cebb af52 38bd b33d 303d
00000140: fcb5 d9bd f8da db3c 6cd7 903c 1497 e33d
00000150: 178d 97bb c693 303d 91bd 683c ff20 173e
00000160: 68e7 04bc acf1 723c 5033 10bd 3a21 9dbc
00000170: 0743 89bc acf3 4e3b 5028 f8bd b9e8 d03a
00000180: 5b00 bcbc 8bde 683d 450c 783d e922 fabc
00000190: a4a0 333d 3824 b5bd 7c2f e5ba 9127 053a
000001a0: 1724 7f3d c026 0e3d 3389 ab3c 8412 203c
000001b0: fb63 c03d db38 c9bb 0897 19bd c3fa d33a
000001c0: 99b7 803d 8ace 123b 96d5 a1bd b8c1 90bd
000001d0: 9ab0 62bb d2f8 d2bd d4c5 f9bc d9c4 353d
000001e0: 7063 31bc 5285 76bd e956 c93d d03d 99bc
000001f0: 88bf 9cbd 0320 0cbd e2f8 913c b422 6e3d
00000200: 105f a23d 99e8 8f3d 1691 8cbd ff40 583d
00000210: 08b3 3dbd 6af5 80bd b1a7 24bd d19a c13c
00000220: edde 39bc 9616 713b f4da d1bd a0e4 39bd
00000230: 8017 0a3d 05e9 ba3b 37d2 46bd ed3e 03bb
00000240: 0f85 96bc d93f cc3c bd58 84bd 0402 c5bd
00000250: 82b4 93bd b01a d23a e768 0abe 07d1 6d3d
00000260: 6c90 b23d 3263 66bd 208c d6bd a266 e83d
00000270: 9ff0 8fb8 cc70 2bbc 8ce5 80bd 8703 623d
00000280: b9c8 0a3c d043 bd3d 1b4f b73c f8dc faba
00000290: 97cc 4fbd d502 ad3d e08c f7bb 825b 22bd
000002a0: 0856 89ba 2e66 cbbb 996a 1d3d e305 febc
000002b0: 6f1c 13bc d3d6 8dbc 4b8c b4bd 9946 f4bb
000002c0: e282 53bd 4c9e f2bd f5c4 6bbd 9d89 52bc
000002d0: 75c3 ddbc 166d 273c 4ae5 33bc eed8 ddbc
000002e0: 287f e13d 86af b9bb 695c 56bd a868 d3bd
000002f0: c7ae 313d 8e25 223d a694 6dbd 9b9a bebc
00000300: 3841 69bc 10ad 55bd b65d 453d a802 3e3d
00000310: 0c40 95bc a379 f43b 41a7 19bd feac 563d
00000320: 31be 813d 1459 8abd 2e35 a9bd 0257 ff3c
00000330: ef51 c03c dbaf b43c 3f61 61bd dbf8 6b3d
00000340: 9a5a c63d 96dd d53b 9920 67b9 d1fd 103d
00000350: f912 05be 7d40 bb3d dafe 06be 1cbb bdbd
00000360: 8624 8ebc 18fc 34bc 7b15 09bd e475 063d
00000370: 18b3 383d bde3 863b abc5 d3bb 60b2 a13d
00000380: 3fb6 963d 0565 8b3d 4692 93bd fb5f 2dbc
00000390: 4d13 41bd 95d3 babd 9d16 933d 43ac c43d
000003a0: 0c92 8cbd f79d b03d e4de 15ba 1e2f b3bc
000003b0: 47e0 ef3d 3474 903c 48b4 48bd f880 a33d
000003c0: 9c2d 1c3d 6730 a1bd 7fa8 a63d a2ea 8dbc
000003d0: f8b6 b23d 8e35 11bd 3b97 c5bc 7a07 c13c
000003e0: ae01 97bd 2005 bcbc 5c09 c13c 8017 28bc
000003f0: bd1b c83c ab90 4e3c 1130 aa3c d4c7 2e3e

actor.2.bias f4 [7]
-0.0022699444 0.0034334806 0.004651127 0.0006091199 -0.003973302 -0.0005876399 -0.0014150477
00000000: 59c3 14bb 3f04 613b 7b68 983b 58ad 1f3a
00000010: 7932 82bb d90b 1aba 1f79 b9ba
