policy_weights.pth (torch_old, 20138 bytes, 7 tensors)

feature_layers.0.weight f4 [64, 4]
000000 11 06 9b 3e 4e 28 59 3e 5c c5 06 3f 61 bc ab bd
       0.30278066 0.21206781 0.52644897 -0.0838554
000010 be 0f e5 3e c5 63 24 3d 79 df 4c 3e 53 06 bd 3c
       0.44738573 0.04013421 0.20007123 0.023074305
000020 4c 82 f3 3e c9 0b 87 3d 73 ef 7a 3e d2 53 0c 3e
       0.47560346 0.06594045 0.24505405 0.1370385
000030 57 0c 78 be 63 6f 52 be 4b fb 5c bf f7 f4 25 be
       -0.24223457 -0.20550303 -0.8632094 -0.16206728
000040 73 89 ad 3e 55 d3 ee 3e 9a b6 82 3e a3 c6 fb bd
       0.33893928 0.4664561 0.2552994 -0.12293746
000050 15 16 ef 3e 0a 18 9e 3d 7c 61 e6 3e 14 8c 11 3e
       0.46696535 0.07719429 0.4499625 0.14213592
000060 f0 01 30 3e d7 26 29 3e 9c 65 b2 3c fa 6e 14 3e
       0.17188239 0.16518722 0.021776967 0.14495459
000070 cb 4c ae 3e d7 c8 32 3d 1c 73 ae 3e 85 a0 fa 3d
       0.34042963 0.043648567 0.34072196 0.12237648
000080 0d 1f a1 3e 07 c1 5b 3e 77 ae 51 3e 46 31 58 3e
       0.31469002 0.21460353 0.2047671 0.21112546
000090 f5 b6 dc 3e fb f3 8d 3e 1b d2 df 3d b1 b8 8b 3e
       0.43108335 0.27725205 0.10928746 0.27289346
0000a0 5a 80 9f 3e 2a d7 c7 3e 35 53 15 3e 87 9a bf 3d
       0.31152612 0.39031345 0.14582522 0.093556456
0000b0 66 5e 25 3f df 55 2e 3d 84 4e f7 3d fc b1 42 3e
       0.64597166 0.04256236 0.120755225 0.19013208
0000c0 6a 64 9f 3e 40 c6 94 be 51 7c 04 c0 65 89 29 be
       0.31131297 -0.29057503 -2.0700877 -0.16556318
0000d0 b8 a2 7c bf cb c9 ab 3e f2 67 b4 3f 77 87 e4 3e
       -0.9868579 0.33552393 1.4094222 0.446346
0000e0 f4 75 95 3e c5 4a 3c bb bc da 36 3e f3 2b ba bd
       0.29191554 -0.002873109 0.17856878 -0.09090414
0000f0 13 b1 dd 3e b9 07 c8 bc bb ed b5 3d e7 59 19 3e
       0.4329916 -0.024417745 0.08883234 0.14975701
000100 cd 99 d4 3e bd 6a 1c 3d df f9 ce 3e f2 9b b7 bc
       0.4152359 0.03818773 0.40425012 -0.022413228
000110 d8 94 bd 3e cb 28 49 be 8e cb c7 3e 34 ec 24 bd
       0.3702762 -0.19644468 0.39022487 -0.040264323
000120 12 6c bb 3e 30 f5 2f 3e 15 ad ca 3d 9c c5 4e bd
       0.3660589 0.17183375 0.09896294 -0.050481424
000130 7c 11 74 3e b6 5f 02 3e aa 40 9b 3e d8 27 92 3d
       0.23834795 0.12731823 0.30322772 0.07136506
000140 ba 2f 31 3e e6 cc 2c 3e 32 a2 8e 3e dc 8a 8f bd
       0.17303362 0.16875038 0.2785812 -0.07008907
000150 49 9b f1 3e be df 12 ba 43 dd c1 3e d8 c3 d2 bd
       0.47188786 -0.0005602798 0.37864122 -0.102912605
000160 d7 ff dd 3e 6b 82 e5 3d e0 e8 20 3e f9 e3 36 3e
       0.43359253 0.11206516 0.15713835 0.17860402
000170 cb f8 a4 3e ae f8 35 3e 1b 58 1c 3e 32 6b 93 ba
       0.32221064 0.17770645 0.15267985 -0.0011247157
000180 37 76 ef 3e 33 ec 97 bb b5 39 d9 3e 18 d1 9e 3d
       0.46769878 -0.0046363114 0.4242684 0.07754725
000190 22 ee c0 3e c6 d9 5a 3e d5 9d 95 bc e9 a6 62 3d
       0.3768168 0.21372136 -0.018263737 0.05533496
0001a0 28 ba f9 3e 05 34 0b 3e 7b 6d 98 bc 79 c3 49 be
       0.48774838 0.13594063 -0.018606892 -0.19703473
0001b0 13 c7 29 3f d4 c6 30 3e b2 39 e1 3d 7f 16 07 bd
       0.6631939 0.17263347 0.10997333 -0.03298044
0001c0 61 28 e1 3e b4 1f 63 39 72 a5 9a 3e 62 86 f5 3d
       0.4397612 0.00021660217 0.3020435 0.11988522
0001d0 db 95 36 3f 04 a1 a9 bc 62 c5 e1 3d a4 7d 01 be
       0.7132241 -0.020706661 0.11023976 -0.12645584
0001e0 d1 5f f8 3e 54 d9 ec bd fb 32 91 3e 0a 63 4b 3d
       0.48510602 -0.115648896 0.28359208 0.049654998
0001f0 1b 3b 62 3e 2e 50 43 3e 1b 7f dc 3e 50 9d d8 3d
       0.2209286 0.19073555 0.43065724 0.1057688
000200 15 e7 ca 3e 94 15 09 3e 47 04 7f 3e f5 38 50 3e
       0.39629427 0.13387138 0.24903975 0.20334227
000210 c2 4b 9a 3e 96 02 f2 3d c1 f3 be 3e da 44 42 bd
       0.30135924 0.118168995 0.37295344 -0.047428943
000220 6b 1e ca 3e cc 86 94 3e 70 77 9e 3e ca 94 be 3c
       0.39476332 0.29009092 0.309505 0.023264308
000230 d8 a3 96 be 72 6b 11 be 38 6d 25 bf a4 42 0f be
       -0.29421878 -0.14201143 -0.6461978 -0.13990265
000240 df e1 d3 3e 59 52 28 3e 5a 53 c3 3e e1 92 3c 3e
       0.41383263 0.16437663 0.3814953 0.18415405
000250 ad dd 26 3f d9 6a a0 3e 52 b7 c6 3e 94 3e ae bd
       0.65182 0.31331518 0.38811737 -0.085080296
000260 b1 3f 13 3f d9 e7 1c 3e 2e 25 88 3e cf 66 2b bd
       0.5751906 0.15322818 0.26590866 -0.041846093
000270 2b e1 ee 3e 8e d4 12 3e 2b d5 a0 3e 7b 10 34 3c
       0.46656165 0.14338896 0.31412634 0.010990257
000280 b2 f5 d2 3e a0 8f 06 3e 80 c7 7c 3e 9d ff 3f 3e
       0.41203076 0.13140726 0.24685478 0.18749852
000290 48 16 6e 3e 78 da a0 3c b9 75 1a be f4 7d 60 be
       0.23250687 0.019635424 -0.1508397 -0.21923047
0002a0 a3 b2 f0 3e a5 cb 9b 3d 03 d4 5e 3d 9f 50 2e be
       0.4701129 0.076072015 0.05440141 -0.17022942
0002b0 07 e4 a6 3e 0b 9b a8 3d 36 d4 ee 3e 2f c1 20 3e
       0.32595846 0.08232697 0.4664628 0.15698694
0002c0 df ed 28 3e e1 83 50 3c 7a d2 b0 3e 82 76 94 3d
       0.1649699 0.012726755 0.3453558 0.07249166
0002d0 60 80 ed 3e 58 0a 09 3d 5b 5d 86 3e f4 55 0e 3e
       0.46387005 0.03345713 0.262431 0.13899976
0002e0 c8 28 d7 3e 53 ec 93 bc a6 71 7d 3e ec b0 04 3e
       0.420233 -0.018057024 0.24750385 0.12958115
0002f0 be fd 33 3e f1 71 7c bc 9c f7 2c 3e f1 4d 17 3e
       0.17577264 -0.015408025 0.1689133 0.14775826
000300 f6 6c a9 3e 4b 5a 53 3e b2 85 92 3e 6a 6c df 3d
       0.33090943 0.20639913 0.28617626 0.1090935
000310 a8 71 38 bb 94 a4 5c bd 6e a7 f5 3d 8c 26 32 bd
       -0.0028143916 -0.05386789 0.11994825 -0.043493792
000320 82 0c bb 3e 9f b8 55 3e 50 57 c2 3e 0e a0 65 3e
       0.3653298 0.20871209 0.3795724 0.22424337
000330 95 a7 03 3f 6a 00 c1 bc d2 15 47 bd b9 6d 83 be
       0.51427585 -0.023559768 -0.048604794 -0.2566965
000340 54 4b b9 3e 3b af 6b 3e a9 57 88 3e 98 df 67 3d
       0.36190283 0.23016064 0.2662938 0.05660972
000350 7d 3f 1b 3e 81 33 fa bd 66 5a f0 3e 87 9b 86 bb
       0.15160938 -0.12216855 0.4694397 -0.004107896
000360 7e 91 95 3e f1 54 a5 bd 42 b8 da 3e 4b 83 53 3d
       0.29212564 -0.08072842 0.42718703 0.051638883
000370 5a 6b 0a 3e 1e 2f 8f 3c 2f 84 84 3e 98 0d b0 bb
       0.13517514 0.017478522 0.25882098 -0.0053727143
000380 5a 29 e3 3e 40 cd de 3d 0a 2c bd 3e 8e 23 14 3e
       0.44367486 0.10878992 0.36947662 0.14466688
000390 10 a5 98 3e 34 22 e8 3c 3f 31 72 3e 30 b9 39 be
       0.29813433 0.028336622 0.23651598 -0.1813705
0003a0 7e 65 a6 3e 18 ff d2 3d a6 03 54 bc 35 65 59 3e
       0.32499307 0.103025615 -0.012940323 0.21230014
0003b0 94 3f fc 3e a3 cf 1d 3e b1 c6 78 3e 0d dc 3b bd
       0.49267256 0.15411238 0.24294545 -0.045864154
0003c0 58 6c b1 3d 49 71 86 bd de 3a c4 3d 6b 24 26 3e
       0.08663243 -0.06564576 0.095815405 0.1622483
0003d0 b9 c8 92 3e 26 5b 25 bd 78 d2 c7 3e f9 9a 9b 3d
       0.28668764 -0.04037013 0.39027762 0.07597918
0003e0 c0 be 24 3f 0e 4a 78 3e b9 93 6c 3d 2e 9e d5 be
       0.6435356 0.24247 0.057758067 -0.41722244
0003f0 ff d8 c9 3e 0a f3 83 3e 03 33 5e 3e 2b f7 a2 bd
       0.39423367 0.25771362 0.21699147 -0.079573

feature_layers.0.bias f4 [64]
000000 07 0b d1 3e f3 77 be 3e ee 9f d4 3e 5d c4 72 3d
       0.40828726 0.3720089 0.41528267 0.059269298
000010 3a 90 e0 3e 41 52 e9 3e 99 bb ae 3e 25 81 d9 3e
       0.43860036 0.45570567 0.341275 0.42481342
000020 a9 d0 dc 3e 1e 36 e2 3e 8b 76 c9 3e 25 c1 dd 3e
       0.43127945 0.44181913 0.39348254 0.4331142
000030 5c f2 2f 3e 0c 54 66 be b8 2d bc 3e 0c fe db 3e
       0.17182297 -0.22492999 0.3675363 0.4296726
000040 f0 ad bd 3e 44 f5 c9 3e e4 72 c3 3e 7d c8 b2 3e
       0.37046766 0.39444935 0.38173592 0.34918585
000050 f2 0b bc 3e b4 dd b2 3e 74 fa d3 3e de 93 be 3e
       0.36727864 0.3493477 0.41402018 0.3722219
000060 d3 bb de 3e 12 9e ba 3e 6e a7 d0 3e c6 ae be 3e
       0.43502674 0.36448723 0.4075274 0.37242717
000070 04 da cf 3e 02 5c bb 3e 92 3c de 3e 61 15 c1 3e
       0.4059602 0.36593634 0.43405586 0.37711623
000080 10 e0 e7 3e 49 6e c6 3e 14 31 cf 3e 33 78 38 3d
       0.45288134 0.38756016 0.4046713 0.045036506
000090 83 18 e1 3e 59 6f e1 3e 45 e0 bf 3e f4 85 c1 3e
       0.43964013 0.44030264 0.37475792 0.3779751
0000a0 8b 23 d7 3e 1c 40 d0 3e a7 a1 cf 3e da da e3 3e
       0.42019305 0.40673912 0.40553018 0.44502908
0000b0 fc ee d8 3e 5c 0f e4 3e 54 57 e1 3e bb 74 de 3e
       0.4236983 0.44542968 0.4401194 0.43448433
0000c0 de b1 c4 3e 15 40 6c bd 3c b2 d7 3e a4 7a cc 3e
       0.38416952 -0.0576783 0.4212817 0.39937317
0000d0 70 8a c9 3e 67 ce c6 3e 16 fd d9 3e e0 41 c3 3e
       0.39363432 0.38829347 0.42575902 0.38136196
0000e0 19 4d df 3e dd ab c6 3e c0 33 d7 3e 37 1e cc 3e
       0.43613508 0.38802996 0.4203167 0.39866802
0000f0 03 50 d9 3e ba 31 d6 3e 62 72 c2 3e 35 1b ce 3e
       0.42443857 0.41834813 0.37977892 0.40255132

feature_layers.1.weight f4 [64, 64]
000000 fc e7 79 3e 59 ed f4 3e 21 43 c6 3e ef 03 9f be
       0.24404901 0.47837332 0.3872309 -0.3105769
000010 23 21 89 3e f5 c7 3f 3e f4 a7 ce 3e ed 28 b0 3e
       0.26783094 0.18728621 0.40362513 0.34406224
000020 25 ef 7d 3e 9d ea 20 3f 2b b3 88 3e 75 39 f1 3e
       0.24798258 0.6285799 0.26699194 0.4711415
000030 aa a5 5b bf 12 13 8b bf 8e 77 d1 3e e6 40 04 3f
       -0.8579966 -1.0865195 0.40911525 0.5166153
000040 5e d4 9b 3e be 93 07 3f f9 5d b1 3e e8 49 56 3e
       0.3043546 0.5295981 0.34642008 0.2092663
000050 5c de d4 3e 72 b3 e7 3e e3 fd 6a 3e ea 26 7e 3e
       0.41575897 0.45254093 0.22948413 0.24819532
000060 c5 77 d4 3e 6c 76 8c 3e 96 e6 b6 3e 48 88 a2 3e
       0.41497627 0.274341 0.35722798 0.317446
000070 00 6b 84 3e ba 3f 03 3e 38 c8 85 3e 7a 2f 71 3d
       0.25862885 0.12817279 0.26129317 0.058883168
000080 61 7a ba 3e 8e f7 9e 3e 8d 48 b2 3e e9 3d fa be
       0.36421493 0.31048244 0.34820977 -0.4887536
000090 dd bb 8d 3e 72 50 07 3e 62 97 0b 3e 24 04 5a 3e
       0.2768239 0.13214281 0.13631967 0.21290642
0000a0 7b 4f 26 3f 90 71 e4 3e a0 2e 01 3f 20 28 01 3f
       0.6496503 0.4461789 0.5046177 0.5045185
0000b0 9f 68 a1 3e 3f 75 91 3e b1 b2 e0 3e f1 51 c7 3e
       0.31525132 0.28409764 0.4388633 0.38929704
0000c0 f6 8d dd 3e 71 0b b7 3d eb 72 f2 3e a3 8b 3e 3e
       0.4327237 0.08937729 0.473533 0.18607955
0000d0 6b 9c 95 3e be 50 7e 3e 36 da 8a 3e 3e eb 06 3f
       0.292209 0.24835488 0.27119607 0.527027
0000e0 fa 15 e6 3e 50 3d b5 3e 3a cf 0c 3f a6 77 a0 3e
       0.44938642 0.3539834 0.550037 0.31341285
0000f0 f6 fe 13 3e 74 21 d0 3e c6 85 85 3e 47 b9 97 3e
       0.14452729 0.40650523 0.26078624 0.29633543
000100 79 a9 e1 3e fb 3b 71 3e cc 8b f5 3e 6d a8 cd be
       0.4407461 0.23558037 0.4795822 -0.4016756
000110 27 56 9a 3e 2c 7a c9 3e 08 82 7c 3e 2d 80 9a 3e
       0.30143854 0.39351022 0.24658978 0.30175915
000120 9a 94 01 3f 03 b6 c3 3e 84 66 a7 3e a7 f6 9e 3e
       0.50617373 0.382248 0.326954 0.31047556
000130 23 45 55 bf 17 2f 51 bf ae 45 b9 3e 8a 27 c9 3e
       -0.8330862 -0.8171248 0.36185974 0.39287978
000140 a0 a5 f8 3d fc 55 44 3e 1f e4 a2 3e c1 f8 1e 3e
       0.121409655 0.19173425 0.31814668 0.1552458
000150 d1 26 2d 3e 64 f0 a3 3e 54 72 fd 3e c1 f2 76 3e
       0.16909339 0.3201934 0.49501288 0.24116041
000160 11 88 05 3f 0c 8d f6 3e df 1e c0 3d 0c 21 f9 3e
       0.52160746 0.48154485 0.09380888 0.48658025
000170 5d 7c 8f 3e 25 b8 b4 3e 40 af 14 3f d5 57 80 3e
       0.2802457 0.3529674 0.5807991 0.2506701
000180 51 6e f9 3e 64 90 23 3e 85 95 a8 3e 96 a9 80 be
       0.48716977 0.1597305 0.32926574 -0.25129384
000190 19 e3 cc 3e 1b 3c 4e 3d 01 a7 5b 3e f9 e3 bb 3d
       0.40017012 0.05035029 0.21450426 0.09174342
0001a0 b4 cc a5 3e a0 4f 93 3e cd cc 21 3e 1d 8f ce 3e
       0.3238274 0.28771687 0.15800782 0.40343562
0001b0 5f d4 ac 3e 08 c3 a2 3e 8e cf a8 3e 07 a6 09 3f
       0.33755776 0.31789422 0.32970852 0.5376896
0001c0 24 79 89 3e 2c b8 7e be cf c8 63 3e b7 04 04 3e
       0.26850235 -0.24874943 0.22244571 0.12892424
0001d0 90 1f 07 3f 7c 06 b7 3e ef 4e e1 3e 72 78 7f 3e
       0.52782536 0.35747135 0.44005534 0.2494829
0001e0 84 33 e5 3e 23 85 16 3f ce 34 f3 3e 13 dd 7d 3e
       0.44765866 0.587969 0.47501224 0.24791364
0001f0 fe ce 6d 3c 7e fc c6 3e 8f 5e 91 3e 6d b7 9c 3d
       0.014514683 0.3886451 0.28392455 0.07652173
000200 80 b8 4b 3e be 02 21 3e 6b 26 9e 3e 4c 38 3a bf
       0.198946 0.15723702 0.30888686 -0.7274215
000210 10 fc 23 3e ff 9b bb 3e b4 dd 2f 3e 02 0b 13 3f
       0.16014123 0.36642453 0.17174417 0.5743867
000220 a6 0a 16 3f f6 ac a1 3e cc 0c 23 3e 0a 41 24 3f
       0.5861 0.3157727 0.1592285 0.6416174
000230 47 4f 9b bf af b0 fd be 3d 24 bf 3e 86 4e 0c 3f
       -1.2133569 -0.4954886 0.37332335 0.5480732
000240 84 2e 0f 3f 5c ae bc 3e 2c 00 2f 3e 2d aa ca 3d
       0.5593035 0.36851776 0.1708991 0.0989574
000250 92 81 3c 3e 28 ac d4 3e ec b1 bf 3e f7 39 d9 3e
       0.18408802 0.41537595 0.3744043 0.42427036
000260 29 c0 c0 3e d9 91 56 3e 54 56 e3 3d cd ec 29 3e
       0.37646607 0.20954074 0.1110045 0.16594239
000270 fd 09 09 3f a8 c2 57 3e 84 d1 f0 3e 4f c7 d1 3e
       0.53530866 0.21070349 0.47034848 0.40972373
000280 8b 9a ad 3e 41 3f 0e 3e a9 a8 90 3e ab ad c4 be
       0.3390697 0.13891317 0.28253677 -0.38413748
000290 bb 50 fc 3e 25 37 51 3e 1e 07 3d 3d 5b cc 8f 3e
       0.49280342 0.20431192 0.046149366 0.28085598
0002a0 e4 f9 04 3f 75 16 8f 3d cd 98 2f 3d 45 d4 38 3f
       0.519438 0.06986705 0.04287033 0.721989
0002b0 41 75 14 3f 46 bd 0f 3f ac 2e f7 3e aa 54 17 3f
       0.57991415 0.56148183 0.48277795 0.5911356
0002c0 93 6d 12 3e 27 2e 6c 3e 99 b3 be 3e 0d cc b8 3d
       0.14299612 0.2306448 0.37246397 0.090232946
0002d0 36 ec 00 3f a6 62 ac 3d 9b c1 e7 3e fc 25 c6 3e
       0.5036043 0.08417253 0.45264897 0.38700855
0002e0 53 1f 34 3f 99 c0 e5 3d bf 86 c8 3e 34 0c 4f 3e
       0.70360297 0.11218376 0.39165303 0.20219499
0002f0 be f9 97 3e 74 ea de 3e ad 1f ed bd 6e a7 07 3d
       0.29682726 0.4353825 -0.11578307 0.033118658
000300 48 1c c3 3c 20 01 c8 3d 42 8f 0f 3f 64 50 36 bf
       0.023817196 0.097658396 0.5607797 -0.71216416
000310 e1 89 1c bd 35 d4 25 3f 61 c5 8d 3e 25 4d 0d 3f
       -0.03821743 0.6477693 0.2768965 0.5519584
000320 92 55 30 3f 9b 3f fb 3e 08 d2 b8 3e d2 70 f6 3e
       0.6888057 0.49071965 0.3609774 0.4813295
000330 5f 6d d3 bf a1 56 bd be 2d 8f 69 3e d9 48 00 3f
       -1.6517752 -0.36980155 0.22808523 0.50111157
000340 68 8f 2d 3e 94 67 f5 3e d6 c0 13 3e 7b c2 7c 3e
       0.16949236 0.47930586 0.1442903 0.24683563
000350 04 21 78 be a2 2e df 3c a9 b1 92 3e 9c 70 2b 3e
       -0.24231344 0.027243916 0.2865117 0.16742176
000360 e4 89 15 3f 6f 9c 2c 3e 26 87 ac be f2 ef 0b 3c
       0.5841353 0.1685655 -0.3369686 0.008541094
000370 4c bd f1 3e 6b d3 6c be ec 14 f1 3e 57 3b 70 3e
       0.47214735 -0.23127525 0.47086275 0.23460136
000380 dd 18 ec 3e 18 ca 2f 3e 0f 4f 96 3e 82 cb fc be
       0.4611272 0.17166936 0.29357192 -0.49374014
000390 ee f7 aa 3e 1b 8f 53 3e 0f 34 23 3e 62 21 4f 3e
       0.3339228 0.20660059 0.15937828 0.20227578
0003a0 c4 da 21 3f 4a 2d 56 be 47 3b 39 be d6 53 1b 3f
       0.63224435 -0.20915714 -0.18089019 0.606748
0003b0 d0 67 e4 3e 62 67 bb 3e 3b 33 15 3f 67 d5 c1 3e
       0.44610453 0.36602312 0.58281296 0.37858126
0003c0 24 19 f8 3e 63 bf 8c 3c 4e 95 f2 3e e5 b7 b5 bd
       0.4845668 0.017181104 0.47379535 -0.08872966
0003d0 a6 2b 36 3e 8c de f2 3e 08 29 e7 3e e3 01 ee 3d
       0.17790088 0.47435415 0.45148492 0.116214536
0003e0 d9 72 ef 3e c2 20 39 bd ca db ea 3e c2 b5 79 3c
       0.4676731 -0.045197256 0.4587081 0.015241088
0003f0 59 1e e3 3e d1 76 01 3f 9b 09 7c be 41 db 5a 3e
       0.4435909 0.50571924 -0.24613039 0.21372701

feature_layers.1.bias f4 [64]
000000 69 8c a2 3e 90 03 9e 3e 28 dc 98 3e 09 17 90 3e
       0.3174775 0.30862093 0.29855466 0.28142574
000010 00 00 00 00 8f a4 9f 3e ff c5 9f 3e de d6 9e 3e
       0.0 0.31180236 0.31205747 0.31023306
000020 7d 30 a3 3e 2f b4 22 bc 62 87 9f bc 35 82 98 3e
       0.3187293 -0.009930654 -0.019473735 0.2978684
000030 87 dd 9c 3e 43 9e 96 3e 29 b1 d7 3d ee 28 9b 3e
       0.30637762 0.2941762 0.105318375 0.30304664
000040 b2 c6 94 3e 9c d8 9f 3e ff bc 99 3e c2 61 9c 3e
       0.29057842 0.31219947 0.30027005 0.30543333
000050 dc b8 95 3e 88 11 a3 bc 35 06 9c 3e 00 00 00 00
       0.292426 -0.01990582 0.30473486 0.0
000060 ef d0 a2 3e c4 18 f0 bc b6 5e 21 bc 56 3f 9e 3e
       0.3180003 -0.029308684 -0.009849241 0.30907696
000070 57 64 1d bc c0 a5 9e 3e 30 ec a0 3e 0f 65 9e 3e
       -0.009606442 0.30985832 0.31430197 0.30936477
000080 c6 7e 9e 3e 5d 20 a1 3e a6 ab 96 3e c1 06 94 3e
       0.30956095 0.31470004 0.29427832 0.28911403
000090 a2 05 a4 3e 4d d3 21 bc b8 a1 97 3e 26 32 a3 3e
       0.32035547 -0.009877038 0.2961557 0.31874198
0000a0 a7 13 a4 3e e2 13 1d bc a6 26 a0 3e 81 26 a2 3e
       0.32046244 -0.00958726 0.31279486 0.3167
0000b0 00 00 00 00 33 c7 9d 3e 6c ea 9a 3e 31 92 a2 3e
       0.0 0.3081604 0.30256975 0.3175216
0000c0 b1 75 93 3e b1 ea a4 3e c1 40 a0 3e cf 52 98 3e
       0.2880073 0.32210305 0.31299403 0.29750678
0000d0 3a fd 9b 3e f3 10 96 3e 5a 9b 99 3e b1 fe 9d 3e
       0.30466634 0.29309806 0.30001336 0.30858377
0000e0 07 b2 94 3e 6c 9f 1f bc 0e 20 99 3e 6f fe a1 3e
       0.29042074 -0.009742599 0.29907268 0.3163943
0000f0 50 c1 96 3e dc 69 a1 3e 85 f2 9b 3e d6 ff 99 3e
       0.2944436 0.31526077 0.30458465 0.30078

action_layer.weight f4 [2, 64]
000000 83 ce 56 3d da d4 c3 3c fd 00 ac bd 94 eb 5f be
       0.05244304 0.023905206 -0.08398626 -0.2186721
000010 52 2a cc b8 dc 56 d9 3c 45 91 06 3d 38 fd ae 3c
       -9.735361e-05 0.026530676 0.032853384 0.021360978
000020 20 c0 76 3d e6 ff 26 bc c6 c0 a3 3c 66 26 92 bd
       0.06024182 -0.010192847 0.019989382 -0.0713623
000030 68 e0 59 bd c9 c3 ad bc d3 a1 7d 3f 5a 37 3d bd
       -0.053192526 -0.021211522 0.9907505 -0.046195365
000040 e1 d8 51 bd f8 4c 56 3d cf f9 b7 3c 11 98 be bc
       -0.051232222 0.052319497 0.022457985 -0.02326587
000050 f8 a3 f0 3c 02 6f b4 3b a8 78 aa bb 0f 4a c2 b8
       0.029375061 0.005506397 -0.0052023716 -9.264435e-05
000060 64 fa 1e 3b 68 f7 39 3c aa e2 12 bc dc 39 ee bd
       0.002425813 0.01135049 -0.008965174 -0.116321295
000070 75 f0 df bc d4 27 bd 3d bb b0 7c 3d 19 8b 8d 3b
       -0.027336339 0.09236112 0.06169198 0.0043195602
000080 9d da 19 3c e2 16 34 3d 48 98 ce 3c 8d d3 83 3b
       0.0093905 0.043967135 0.025219098 0.0040230216
000090 2d 1c 5b 3b bd 22 21 3c d2 8f eb 3c f7 85 96 3d
       0.0033433542 0.009834942 0.028755102 0.073497705
0000a0 47 51 d3 3d 00 5a 20 3c 7f 49 22 3d ba ed 1b 3d
       0.10318237 0.009787083 0.039620873 0.03806851
0000b0 9d 6e e2 b8 2d 2d 35 3d 03 c2 3d bd 00 6d a7 3d
       -0.00010797123 0.044232536 -0.046327602 0.08175087
0000c0 5d 15 8f bd 29 0e 0c bd b8 e6 b1 bd 31 71 0a 3c
       -0.069864966 -0.03419319 -0.08686584 0.0084498385
0000d0 b7 25 ba 3d 45 2c 16 bb f1 48 06 be b3 3d 1c 3c
       0.09089225 -0.002291457 -0.13113762 0.009536195
0000e0 69 b6 d2 ba 3b b3 23 3c cf b5 4e be b3 04 0a 3d
       -0.0016076091 0.009991462 -0.20186542 0.033695888
0000f0 66 e7 14 bb 7d af 67 3d 65 ee f0 bb f7 a5 b0 bd
       -0.0022720932 0.056563843 -0.0073526376 -0.08625405
000100 10 95 58 bd 81 f0 c3 bc 9f dc ab 3d b8 bf 5f 3e
       -0.052876532 -0.023918392 0.083916895 0.21850479
000110 1a 64 48 b9 2e c1 d6 bc 4e 34 06 bd ca b3 b0 bc
       -0.00019110777 -0.026215162 -0.032764725 -0.021570105
000120 a5 65 76 bd dd 36 25 3c 19 37 a4 bc 4c 91 92 3d
       -0.06015553 0.010083881 -0.020045804 0.071566194
000130 70 94 5a 3d 5b 65 af 3c 22 ae 7d bf 33 33 3d 3d
       0.053364217 0.021410635 -0.9909383 0.046191406
000140 95 e3 52 3d d8 44 55 bd 19 18 b5 bc 0e ab bf 3c
       0.05148657 -0.052067608 -0.022106217 0.023396995
000150 d0 06 f2 bc d6 56 b7 bb 5c c8 a3 3b 99 51 76 38
       -0.029544264 -0.0055950684 0.00499825 5.8726964e-05
000160 21 c6 16 bb 59 db 3b bc 9b a9 0e 3c 6d 64 ee 3d
       -0.0023006278 -0.011465871 0.008707429 0.116402484
000170 f6 e4 de 3c 8b 6a bc bd d5 52 7d bd 12 15 8b bb
       0.027208786 -0.09200009 -0.061846573 -0.004244455
000180 70 8b 18 bc a3 3a 34 bd f3 97 cc bc cf a3 84 bb
       -0.009310588 -0.044001233 -0.024974799 -0.004047848
000190 ec df 68 bb d3 05 22 bc 28 17 ea bc da 72 96 bd
       -0.0035533858 -0.009889084 -0.028575495 -0.07346125
0001a0 87 4c d3 bd 58 cf 1e bc 34 16 22 bd 3d a4 1b bd
       -0.10317331 -0.009692989 -0.039571956 -0.037998427
0001b0 4b 73 83 b7 12 2c 34 bd f7 d4 3d 3d 27 29 a7 bd
       -1.5670104e-05 -0.04398734 0.046345677 -0.08162146
0001c0 ea 45 8f 3d 1f f3 0b 3d 8a 66 b1 3d c9 7a 0a bc
       0.06995757 0.034167405 0.08662136 -0.008452126
0001d0 8b d6 ba bd 3b 2f 0d 3b 8f 37 06 3e cc c6 1f bc
       -0.09122952 0.0021543044 0.13107131 -0.009751987
0001e0 18 98 e0 3a bc 33 24 bc c5 00 4f 3e 0d c2 09 bd
       0.0017135171 -0.0100221 0.20215137 -0.033632327
0001f0 cc d5 01 3b 17 33 68 bd 21 49 f7 3b 05 82 b0 3d
       0.001981127 -0.056689348 0.0075465594 0.08618549

action_layer.bias f4 [2]
000000 1c 30 94 3d 1c 30 94 bd
       0.07235739 -0.07235739

value_layer.weight f4 [1, 64]
000000 69 76 bc 3e 79 c9 b5 3e db 56 ae 3e d6 37 c2 3e
       0.3680909 0.35505274 0.3405064 0.37933224
000010 41 36 ca 38 81 9c b2 3e 2b 58 b7 3e 2c bc be 3e
       9.642216e-05 0.34885028 0.35809454 0.3725294
000020 87 b3 b5 3e 98 db 22 3c 80 6f de b8 1b c0 b9 3e
       0.3548853 0.009940051 -0.000106065534 0.36279377
000030 6f 83 b6 3e 9a d2 b7 3e 33 80 47 3d 72 58 b5 3e
       0.3564715 0.35902864 0.048706245 0.3541904
000040 8a 36 b8 3e 7f 25 b1 3e 08 a4 b9 3e 12 80 b0 3e
       0.3597911 0.3459892 0.36257958 0.3447271
000050 3f c5 ad 3e e4 e2 15 3c 64 7b a5 3e e3 81 55 b9
       0.3393955 0.009148333 0.32320702 -0.0002036165
000060 6b c4 bf 3e 22 e1 0a 3c 1b dc 19 3c 05 a0 c3 3e
       0.37454543 0.008476527 0.009390856 0.38208023
000070 7a 32 24 3c 8b 69 b7 3e d1 98 b4 3e 7e 74 b7 3e
       0.0100218 0.3582271 0.3527284 0.35831064
000080 ef 7d b3 3e 3c f0 b5 3e 79 47 a8 3e 41 4a ab 3e
       0.35057017 0.35534847 0.3286703 0.3345509
000090 7b 0d bb 3e b2 8d 24 3c 32 68 b4 3e 46 01 b6 3e
       0.36533722 0.010043548 0.35235745 0.35547847
0000a0 1c 52 bf 3e 2f 51 22 3c 81 47 b3 3e 00 c8 bd 3e
       0.37367332 0.009907051 0.3501549 0.3706665
0000b0 52 71 1b 39 59 fc b8 3e c7 6a b2 3e c4 b2 bf 3e
       0.00014824167 0.36130026 0.3484709 0.37441075
0000c0 78 40 bf 3e a9 cc c0 3e 67 8a b9 3e b0 18 b7 3e
       0.37353873 0.37656143 0.36238405 0.35761023
0000d0 b5 66 ac 3e 07 27 ac 3e 61 fa bd 3e 9b 3c ac 3e
       0.3367211 0.33623526 0.37105086 0.33639988
0000e0 cc cb b6 3e 69 0a 22 3c 2d a6 cf 3e 7a d4 be 3e
       0.3570236 0.009890177 0.4055647 0.37271482
0000f0 8a 30 bd 3e f0 63 b7 3e f7 43 bd 3e 36 35 bd 3e
       0.36951095 0.35818434 0.36965916 0.3695466
