policy_weights.pth (torch_old, 8261 bytes, 5 tensors)

feature_layers.0.weight f4 [128, 8]
00000000: ec6b f2bd a13e af3d ffbc 57bf 06d3 a8be
00000010: d40a ca3e bfaf 56be c711 843d e155 363e
00000020: b5d9 263e 9c40 173d 57a2 de3e 0787 113f
00000030: 2ce4 06bf f61c 863e f23d 363c 7e9f 9abd
00000040: ae82 023d eb99 32bc 134f bd3e dc74 e4be
00000050: 9d85 8bbe f295 253d 3bbb 63bd f482 febd
00000060: efb6 663e 61c9 32bd 5451 253f d90b 903e
00000070: 1aba cfbe 4c75 d13e 93a4 9cbe 3cec b9be
00000080: d5ee 273e 51cd a5bc ef5f 293f 17be 9dbe
00000090: 11a2 e5be 48fa 013e 3ed7 073d 0297 4abe
000000a0: 2bfb 99bc 4783 35bc 696e 313e 4a76 9c3f
000000b0: 7081 dabd 51fa d7bc ec1f 8b3e 3da8 803e
000000c0: 15bc 12bc feeb 89bc fd70 1bbf 07df 1bbf
000000d0: 23c1 aa3e b08c 78be e643 a3bd 7671 053d
000000e0: da58 be3b 88d6 9f3c 20ff 093f dca2 f6be
000000f0: d5f2 f0be c4aa c53d 58da 9bbc 373f 983d
00000100: ebaf 18bd 3c09 8cbc 6abf 9fbe efd1 48bf
00000110: 4e50 9b3e 67a3 9fbd 3a4b 22be c081 3a36
00000120: 267e 35be 4c15 0dbd 0b7c 25bf 3948 8e3e
00000130: fabd 993e 7b27 03be c8df a33d b8eb e03c
00000140: bddb 4abd 0e50 093e aa35 25bf 93a6 eabe
00000150: 7aea f43e 0b03 bfbe dffd 533e 90c7 1d3e
00000160: 0ed6 d83d 9f11 0ebd 78a9 39bd f1ba 273f
00000170: 507e c43d 6d45 c33c 4798 9a3e 7add 1f3e
00000180: bf6c 263e 60e6 21bc 9af1 4dbe 718a 89bf
00000190: 54c8 3cbe b192 943d 1528 1abe c078 363e
000001a0: 01af a43d b81e 0abd 8f31 283f c2da f93e
000001b0: 2376 05bf bdda 8a3d 8815 f63d b4ff 91bd
000001c0: f760 253e f80e 1c3d b1b8 433f 4c2b f8bd
000001d0: 03f9 aabe 96e0 7c3e 79e4 823e 1ee7 913e
000001e0: c7b5 95bd d16f 893d 41dd 10bf 180b 2d3f
000001f0: 8528 bd3e 696b c6bd e4cb 193e 6180 89be
00000200: cb1d be3d 04b7 92bd 38bd 4f3f 092a bc3e
00000210: 36b9 babe 1d5a cb3e fec0 29bd 260f 4bbe
00000220: fde6 89be a53a 223d ef70 0ebf 38d2 153f
00000230: 57e2 103f 3097 1bba f244 073d 67ba e6bd
00000240: 45f1 733e 713d a1bc f45c 363f 743e 743d
00000250: bb9b ecbe 4995 22bb c67d 823d 9e65 593d
00000260: 5d42 8ebc bd50 bcbd 0174 083f 1409 0a3f
00000270: dae6 d9be 7f52 693e c0e9 193d 6aa6 02be
00000280: 577a 5e3c 2e70 723d 6ea2 fc3e 4a2b 873f
00000290: 6cc5 e5be 1452 363e 3dd4 913d 75e1 bcbd
000002a0: d60e 25be c01f b53c c14d 183f d13a 093f
000002b0: e5e7 dcbe d382 a93d b7b5 373e 61e0 2cbe
000002c0: b46d cbbd e6b8 483d 423c 09bc fe3f b43f
000002d0: 93a5 c53d 1474 7bbd de88 fc3d 607e e53d
000002e0: 464a e13c eb7f 1e3e d148 3a3f 9873 d2be
000002f0: c293 0cbf 2ba8 603d 8d17 923c a253 653d
00000300: 4bdc 283e 869e a13d 4021 463f e3e4 10bf
00000310: 6b22 10bf d8c3 343e e604 22bc 5cdc 0c3e
00000320: cdeb 1e3e cdbf 123d 3070 463f bce4 f3bb
00000330: dda0 c6be d0e2 023e c057 6a3d d611 103e
00000340: cb21 80bd 72ed c53c 8ab0 fc3e 1b5c 093f
00000350: 7bb4 7cbe 546e 3b3e d276 b43d 10f6 04be
00000360: df82 c53d ef4e 343d 7db9 433f 5429 553e
00000370: 1f88 ffbe 7225 753b 4f8f b13d 4c46 5bbd
00000380: 2586 f6bd ac51 563b b32d d6be bba8 3b3f
00000390: 560f 0c3f 03fb 73be 13b2 173b 0515 97bd
000003a0: 0327 0e3e 81af 9dbc 90be 183f f477 00bf
000003b0: 227b fbbe 4267 d53d c8af 32bd c1c3 043e
000003c0: ff91 fbbd 2e7a 733d ed5f 27bd 0475 4d3f
000003d0: e742 953e 1399 cabd 4c3e f03d aaa6 cabd
000003e0: b9b3 49bc bce9 113c 76da 33bf 158e 4bbd
000003f0: e3df 163f 8854 f73d 1312 f8bd 5c93 fbbd
-0.11836991 0.085568674 -0.8427276 -0.32973498 0.39461386 -0.2096548 0.06448703 0.17806198
0.16293986 0.03692685 0.4348323 0.5684666 -0.5269191 0.2619397 0.011123167 -0.07549952
0.031862907 -0.010900955 0.3697439 -0.44620407 -0.27250376 0.040426202 -0.05559848 -0.12427321
0.22530721 -0.04364908 0.6457722 0.2813404 -0.40571672 0.40909803 -0.3059431 -0.36313045
0.16399701 -0.020239504 0.6616201 -0.3080909 -0.4485021 0.12693131 0.033164255 -0.19784167
-0.018796524 -0.011078662 0.17327274 1.2223599 -0.106692195 -0.026364477 0.27172792 0.25128356
-0.008955975 -0.016836163 -0.6071928 -0.6088719 0.33350477 -0.24272418 -0.07971935 0.032578908
0.005808932 0.019511476 0.53904915 -0.48171127 -0.47060266 0.096517116 -0.019025013 0.07433932
-0.037277143 -0.017094247 -0.31200725 -0.78445333 0.30334705 -0.077948384 -0.15849009 2.7791684e-06
-0.17723903 -0.03444414 -0.646424 0.27789477 0.30027753 -0.1280803 0.08001667 0.02745615
-0.049525965 0.13409445 -0.6453501 -0.4583021 0.4783514 -0.3730701 0.20702313 0.15408158
0.10587703 -0.034684774 -0.045327634 0.65519625 0.09594405 0.023836816 0.30194303 0.1561183
0.16252421 -0.009881586 -0.20111695 -1.0745374 -0.18435794 0.07254542 -0.15054353 0.178195
0.08041192 -0.033720702 0.6570062 0.4879971 -0.5213339 0.06780002 0.120158255 -0.071288496
0.1615027 0.038100213 0.7645369 -0.12117633 -0.33393106 0.24695048 0.25564936 0.2849664
-0.07310062 0.067107804 -0.56587607 0.6759505 0.36944976 -0.096884556 0.15019184 -0.26855758
0.09283026 -0.07163814 0.811481 0.3675082 -0.3646943 0.39717188 -0.041443817 -0.19829997
-0.26934043 0.03960671 -0.55641073 0.58523893 0.5659537 -0.00059353095 0.033024736 -0.11266022
0.23822506 -0.019682618 0.71235585 0.059629872 -0.46212563 -0.002480822 0.06371646 0.053075425
-0.017365629 -0.09195087 0.5330201 0.539201 -0.42558938 0.22785376 0.037576437 -0.12758794
0.013578973 0.059189014 0.49342674 1.0560086 -0.44877183 0.17804748 0.07120559 -0.0922269
-0.1611894 0.022109866 0.59493643 0.5360537 -0.4314567 0.08276906 0.17940412 -0.16882469
-0.099330336 0.049004458 -0.008376183 1.4082029 0.096507214 -0.061389998 0.12330793 0.11205745
0.027501237 0.15478484 0.7276736 -0.41103816 -0.5491296 0.054847877 0.017833496 0.05598796
0.16490285 0.07891564 0.77394485 -0.56599253 -0.5630252 0.17652833 -0.009888863 0.13755935
0.15519638 0.035827447 0.77514935 -0.0074430387 -0.38794604 0.12781835 0.05721259 0.14069304
-0.062564455 0.024161074 0.4935344 0.53656167 -0.24678223 0.18303806 0.08811726 -0.1298449
0.09644102 0.04402059 0.7645491 0.20816547 -0.4990854 0.0037406352 0.08669912 -0.053533837
-0.12037305 0.0032702489 -0.4183174 0.7330434 0.547109 -0.23826222 0.0023146912 -0.07377056
0.1388207 -0.019248726 0.59665775 -0.50183034 -0.4911738 0.104200855 -0.04362467 0.12965299
-0.12283706 0.05944269 -0.040862966 0.80256677 0.29152605 -0.09892478 0.11730632 -0.0989507
-0.012310916 0.008905824 -0.7025522 -0.049696047 0.58935374 0.1207667 -0.121128224 -0.12283966

feature_layers.0.bias f4 [128]
00000000: 66ab 9e3d 5f53 bbbd a457 0cbd 1e07 35be
00000010: 54a6 79bd c169 ba3d 59e9 6c3d 08a9 843d
00000020: 9907 91bd 1682 573d c277 e33d b640 283e
00000030: 8834 8bbc 77d7 e6bc fd1f 113e 3674 60bd
00000040: a970 c3bd 8551 8eb9 24d2 6f3d a8a1 28bc
00000050: 1a1d 87bd 9ee5 4abd 6cd4 36ba 5ebb 163d
00000060: b352 a63d 017a 863d fb5d e1bc 79e8 7e3d
00000070: 7afb 76bd 6385 373d f091 d7bb a74d 6a3d
00000080: e6c3 68bb c4e3 103e d5e5 e4bd 2d9b bc3d
00000090: b566 7a3d 75d2 70bd 6888 5bbd 0252 5b3e
000000a0: f706 adbb 8643 bcbd a367 70bd 1036 a93d
000000b0: 4b2e a83d f080 f43d 6d37 d7bc 14d9 0dbc
000000c0: 20d8 343e a6f4 d8bd 3a70 433e 963c 233d
000000d0: a299 893c 2cd2 9f3d 61da 29bc 9d64 053e
000000e0: 91a4 e83d 3cb7 3cbe 01f8 8fbe a088 3a3c
000000f0: f736 5fbc 617b f23d a35e 18be d9d1 513d
00000100: 6c3b 493e e54e b43d 32a4 61bd e953 d43d
00000110: 52d3 7c3d 9e75 a23b 4cdd f03c 373b ba3d
00000120: 3414 863d f86a 71bd 6d7b 01bd 6425 e13d
00000130: d811 89bd 3d4a dcbd 45a2 fabc 4511 913c
00000140: a340 ffbc 6983 0bbd ef66 b13c 00f6 503a
00000150: d5e3 163d af0b 22be 6dd3 9cbd 2d82 dfbd
00000160: 6f3d f9bd 505d ef3d 92ab 783d a31c a0bd
00000170: b58c 333d 1ff1 d5bd c916 3fbc dd86 a5bd
00000180: 383b 3c3c eac2 8f3d f2fc 12bd 089d 1cbd
00000190: f2fe 95bd 3dbd febc 2a9b 1d3d 435c a23d
000001a0: c41b a3bd 449c 1ebc 99eb 58bc a6a8 823d
000001b0: 5ad0 853e 3b8a 503d 338b 2ebd 66d4 123d
000001c0: 888e 1e38 f22f 983c 3448 1c3d 8afa 2fbe
000001d0: acc3 01bd f73a b7be c2d3 e9bc 7716 343c
000001e0: f0da 50bd f782 02be 2c20 dabb 469e 903d
000001f0: 7ff5 db3d 0cd7 f13d 4d60 8cbc 5baf d3bc
0.077475354 -0.09146761 -0.034263268 -0.17678496 -0.06094964 0.09102202 0.057839725 0.06477553
-0.07081527 0.052614294 0.11106826 0.16430935 -0.016992822 -0.028178914 0.14172359 -0.054798327
-0.095429726 -0.00027145087 0.058550015 -0.010292448 -0.065973476 -0.049535386 -0.00069744023 0.03679978
0.081212424 0.06566239 -0.027510634 0.062233422 -0.06029842 0.044804942 -0.0065786764 0.05720296
-0.0035517155 0.14149386 -0.111766495 0.09209285 0.061133105 -0.058794457 -0.053596884 0.21418002
-0.0052803713 -0.091925666 -0.058692586 0.08262265 0.08211955 0.119386554 -0.026271546 -0.0086577125
0.1766057 -0.10593538 0.1908578 0.0398527 0.01679689 0.07803759 -0.010367007 0.13026662
0.113595136 -0.18429273 -0.281189 0.011385113 -0.0136239445 0.11839939 -0.14879851 0.051225517
0.19651574 0.088041104 -0.05508823 0.10367567 0.06172497 0.0049578687 0.029402398 0.090933256
0.06546822 -0.058939904 -0.03161185 0.1099346 -0.066928566 -0.10756347 -0.030594954 0.01770843
-0.03115875 -0.03406087 0.021655528 0.0007971227 0.03683837 -0.1582477 -0.07657514 -0.10913501
-0.12169921 0.1168772 0.060710497 -0.07817962 0.04383536 -0.10446381 -0.011663147 -0.08082364
0.011488728 0.07019599 -0.03588576 -0.038235694 -0.073240176 -0.031096095 0.038478054 0.07927754
-0.0796428 -0.009680811 -0.013239765 0.063798234 0.26135522 0.050913077 -0.04261322 0.03584709
3.7802878e-05 0.01857755 0.038154796 -0.17185417 -0.031680748 -0.35787174 -0.028543357 0.010991684
-0.050990045 -0.12745272 -0.006656667 0.07061438 0.10740184 0.11808595 -0.017135764 -0.025840452

action_layer.weight f4 [4, 128]
00000000: 2d6d dfbd d8c1 e43e 6113 b3be fbf7 93bd
00000010: 1efe 59be 129c 1b3f 7d5d 18bf 9a9b 72be
00000020: b2df 0bbf 98c7 943e cb8f 993c 3087 0c3f
00000030: dca2 08bf 44c5 973e 15b5 ec3d eb60 1d3f
00000040: 5a86 783d 58ac b53e ea90 7b3e 7022 333e
00000050: 87f0 403f 1576 d53e 959b 263f 9674 45bb
00000060: 8406 0cbe 99b7 96bc bc67 db3e 473e 463e
00000070: fc51 033f c6ab b8be 6d31 283f 6b76 a73c
00000080: b768 36bf d305 9d3d f1b4 143e 6cfe b8bd
00000090: 3c7b ad3e a187 083d e16a 823e 0baf a53e
000000a0: 2c2b 6bbe 8260 d23e 6ef5 f53e 3aac be3e
000000b0: 3e6e 51be 047c 0f3b d328 393f 4cbe b3be
000000c0: e88c 22bc 9d02 d93e 17f3 233e 82dd b3be
000000d0: 36c6 9f3c 01b6 dabc 5481 3f3f d2bb 993e
000000e0: 2c3f b13e ec62 80be 51d1 6abe 6952 32be
000000f0: ac5d a9bd 5388 be3e 591c adbe 2f71 31be
00000100: 8faf e33e 0837 b0bd 3898 993e 3d75 c73d
00000110: 8a5d e03e 1710 b73e 61ec 393e a9bc d5be
00000120: 791f 92be e6d0 0c3e a76f 313f c41b d13d
00000130: 1446 b13c 207b 0abd bb60 bb3d 7d62 6dbc
00000140: 7812 7a3d a06e 003f 2eed e3be 6534 34bf
00000150: ac51 36bf e552 123d 99ef 103f 4115 95bd
00000160: 1247 37be d894 633f f81b f13e 6f98 ac3e
00000170: 65ca f53c 3e90 c73d 9920 303f 4e21 23bf
00000180: 1c20 eb3c bb94 19bf 891d 4c3e 2b18 243f
00000190: f286 dc3e a434 ce3d 0ec6 9abe 8d2a ebbe
000001a0: fa70 38bf 38bb ee3e 5701 323e f28e 22bf
000001b0: 5997 173e c8c2 d1bd 32c5 443e f518 293f
000001c0: 4360 fa3e a81f bbbe 367f 113f 26c4 10bf
000001d0: f061 0e3f d7be eebe e7e4 833e aa2a 2a3f
000001e0: 58c8 a63d a67a 583c 4156 8f3d 1eb1 cd3e
000001f0: a8d7 adbd d7fa a1be 7590 b53e 1c97 c63e
00000200: 1232 81bf 988e 843f ba5f 443e 7c40 233f
00000210: c86f f03e 8a0b 463d 9d7b b2bf acaf 493e
00000220: 6d17 72be eed5 99be a932 13bf bbcb d33d
00000230: e183 2cbe fa7c 6a3f aeac c63e a182 2cbe
00000240: 1b28 5a3f 6a00 9bbe 103b 203f 2b74 683f
00000250: d5ac 323f 0584 6a3f 41e6 113d 0123 2d3e
00000260: 6287 8a3e f2cf 023f 7c30 223f 4550 213f
00000270: 5ba4 74bd ec43 983e 774d 503d 55e6 14bf
00000280: 43ee fabc 263b 52bf 160e 953f db29 5dbf
00000290: a69a c3be 7d92 1f3f 6ff0 6f3f 7a5f 16be
000002a0: da33 003e 1557 17be 39f5 50be 0244 49be
000002b0: 2495 78bf ab20 2fbf 1990 7ebd cc60 b33c
000002c0: 8488 b93e 6644 a43f 408b 1e3e 967a a83e
000002d0: dd94 b1be eaa7 58bf 380e ce3b ae12 b8be
000002e0: ea63 b43e 979e e33c a009 b33e ee9d 653e
000002f0: 33aa 92be 7362 89bd 4d1d b9be 0ef1 e63d
00000300: 4818 80bd 0e19 8d3e ffa0 bdbd 4142 b23e
00000310: 1170 e53e 11be 96be d0ee d93e 32eb 8f3e
00000320: c427 033e 0c46 bcbc 052d b43f aa79 9f3e
00000330: 6318 0dbe 1520 223f c0ea fb3e fa71 a63e
00000340: 78d0 ccbe f909 9b3e 1a1b 54bf c3ec 7abd
00000350: 2392 c7be be9e 243f 2ca3 173f 757c 99be
00000360: 0c26 d6be d40f 0b3e caa7 2bbd a5d3 9f3f
00000370: ff1a 28bf 907a 9fbe 67fe 293f 4b2d 633e
00000380: 8b64 7fbe f13e bd3d d7a2 d0be 8097 d7b4
00000390: 7167 a23f cbae 483f 70f7 65bf 0664 32bf
000003a0: 9f9c 8cbd 085d 6dbe 3cea ddbe 98ee 57be
000003b0: 201e 82be 36dc 01bf 9361 053f e5a1 cb3d
000003c0: c8cc 3d3f 86a6 a83e 484c 8a3d 0d7d 25be
000003d0: 8790 1f3e 0e61 913c c594 193f 5327 e83e
000003e0: 9813 94be ef03 7d3f 8603 50bf 016c 1b3f
000003f0: 61b6 6abf c845 673e aa62 5e3f 2d23 4c3f
-0.109094955 0.4467914 -0.34975722 -0.07225033 -0.21288344 0.6078502 -0.5951765 -0.2369217
-0.54638207 0.29058528 0.018745324 0.5489378 -0.53373504 0.2964269 0.11557976 0.6147601
0.060675003 0.3548305 0.24566999 0.17493606 0.75367016 0.41691652 0.6508115 -0.0030129305
-0.1367436 -0.018398093 0.4285258 0.19359694 0.51296973 -0.36068553 0.6570042 0.020442208
-0.7125353 0.076671265 0.14522149 -0.09032902 0.33883083 0.03333247 0.25472167 0.3236011
-0.22965688 0.41089255 0.4803881 0.37240773 -0.2045221 0.0021893987 0.7232792 -0.35106122
-0.00992129 0.42384806 0.160107 -0.35129935 0.019503694 -0.026698114 0.74806714 0.30026108
0.3461851 -0.2507547 -0.2293141 -0.1741425 -0.082698196 0.37213382 -0.3381069 -0.17328332
0.44469878 -0.086042464 0.29998946 0.09739158 0.43821365 0.35754463 0.18156578 -0.417455
-0.28539637 0.13751563 0.6931099 0.10210374 0.021639861 -0.033808827 0.09149309 -0.0144888135
0.06105277 0.501688 -0.4451689 -0.7039245 -0.7121837 0.035723586 0.56615597 -0.072794445
-0.17898205 0.8889899 0.4709165 0.33710048 0.030003736 0.09744309 0.6879974 -0.63722694
0.028701834 -0.5999257 0.19933142 0.6409938 0.43071705 0.10068634 -0.3022923 -0.459309
-0.7204739 0.46627212 0.17383324 -0.6349937 0.14803828 -0.1024223 0.19215849 0.66053706
0.48901567 -0.3654759 0.56834733 -0.565493 0.5561819 -0.46629974 0.25760576 0.6647135
0.08143681 0.013212835 0.069988735 0.40174192 -0.08488399 -0.31636688 0.35461774 0.38787162
-1.0093405 1.0356016 0.19177142 0.6377027 0.46960282 0.04835085 -1.3943974 0.1969592
-0.23641749 -0.30046028 -0.57499176 0.10341593 -0.16847183 0.9159695 0.3880362 -0.16846706
0.85217446 -0.30273753 0.6259012 0.9080226 0.6979497 0.91607696 0.035619978 0.16907884
0.27056414 0.5109855 0.6335523 0.63013107 -0.059727054 0.2973932 0.050855126 -0.5816396
-0.03063119 -0.82121503 1.1644924 -0.8639199 -0.38203925 0.623329 0.9372625 -0.14684859
0.1251978 -0.14779313 -0.20406045 -0.19654849 -0.9710257 -0.6840922 -0.06214914 0.021896742
0.36236966 1.2833374 0.15482807 0.32906026 -0.34683886 -0.84631217 0.006288316 -0.3595175
0.35232478 0.027785582 0.3496828 0.22423527 -0.28645477 -0.06708231 -0.36155167 0.11276446
-0.06254631 0.27558178 -0.09259223 0.34816173 0.44812062 -0.29441884 0.42565012 0.28109127
0.12808138 -0.02298262 1.4076239 0.3114751 -0.13778834 0.63330203 0.49202538 0.32508832
-0.400028 0.30281046 -0.82853854 -0.06126095 -0.3897868 0.6430472 0.59233356 -0.29977766
-0.41825902 0.13580257 -0.041908063 1.2486464 -0.6566619 -0.31148195 0.6640381 0.22185247
-0.24940698 0.09240521 -0.40749237 -4.0157101e-07 1.2687818 0.7839171 -0.89830685 -0.69683874
-0.068658106 -0.2318002 -0.4334277 -0.2108711 -0.2541361 -0.5072664 0.5210201 0.09942988
0.74140596 0.32939547 0.06752831 -0.16160984 0.15582477 0.017746475 0.5999263 0.45342502
-0.289212 0.9883413 -0.81255376 0.60711676 -0.9168454 0.22585213 0.868693 0.79741174

action_layer.bias f4 [4]
00000000: b0ed cf3d 1939 98bd a547 8e3d 7521 34bd
0.10152757 -0.074327655 0.06947259 -0.04397722

value_layer.weight f4 [1, 128]
00000000: bb38 6cbe 48d2 1d3d a7b7 cb3e c6e0 903f
00000010: 934d e23e 8388 92bf eb18 b93e 3062 ec3d
00000020: ce32 ee3e 4d1e aebe f0a7 0bbf 9b72 b9bf
00000030: a30b d93e be96 d1be 596b 90bf 2a33 18be
00000040: 105b cc3e 407d 00bf 6fc1 32be ac97 9fbe
00000050: 04e6 99be 780f a5be 680b 1dbf dfa0 873e
00000060: 70eb 83be ec9d fabe 2534 26bd 0868 bebe
00000070: 2b14 8a3d 748e 903e b3c6 c3be a28a 2b3c
00000080: ca0a c23f 0823 36bf 2874 8e3e dd65 82be
00000090: 32dc 57be 3b1e 763e 70e8 a5be d8f4 35c0
000000a0: b9c5 553e 82c4 a43d 6dc9 bfbe 2c87 c5be
000000b0: 006f f9bd 1d45 20bf e833 4dbf e150 973f
000000c0: b6fc c5bf f6b9 bc3d 1f81 aebf d634 9d3e
000000d0: 0dbe 97be 40e7 cdbe 0bf6 fdbe 8d9d 9fbf
000000e0: 9a3e aebf e322 ef3f 9315 e03f 006b 5f3e
000000f0: 441e bebd 041a 85bf f8c4 e63f a971 d53d
00000100: db03 e4bf 25e6 00bf ac4b 95be 28d3 d2be
00000110: 32b5 c2bf d63f 46be e0b1 4fbe b832 69be
00000120: 67f4 5b3e bd1f f53e d81b 09bf 712d 14bf
00000130: 9a9e 0abc 6bbc 103f a595 cd3e 9b6e e5bd
00000140: 2720 48be 5a1a 5fbe bdb2 613f 0f3c 593f
00000150: 4640 833f cc7c 553f 3f3d 99bf d977 653f
00000160: 6656 873f 8000 03c0 0dd7 5ebf 8f1c cabd
00000170: 2dc5 7fbe 153b 203e ed5e 09bf 24f0 473f
00000180: f981 90be bfee 043f c43e 34be a1f7 95bc
00000190: 9d52 32be 6186 8bbe cd0e 893c b154 0e3f
000001a0: 55af 513f e7ec 3dbf 3dc6 09be e737 f03e
000001b0: ece7 08c0 3bb0 72be 3009 843d ec6c 90bf
000001c0: 3722 81bf 2569 883e e036 44bf 1921 db3f
000001d0: d4ff 15be 6268 6340 a2a6 283c ed28 96bf
000001e0: 0276 343e 1f05 1a3f 6e44 513e 74ab 62bf
000001f0: 5ff5 b1be 79f3 2ebe 2e5c 3bbf 4d7d a1be
-0.23068516 0.038530618 0.39788553 1.1318595 0.4419981 -1.144791 0.36151823 0.11542165
0.46523136 -0.34007493 -0.5455313 -1.44881 0.4239169 -0.4093532 -1.128276 -0.14863268
0.39913225 -0.50191116 -0.17456602 -0.31170404 -0.300583 -0.32238364 -0.6134553 0.26489922
-0.25765562 -0.4894861 -0.040577073 -0.37188745 0.06742128 0.28233683 -0.38237533 0.010470064
1.5159543 -0.71147203 0.27822995 -0.2546834 -0.21080092 0.2403497 -0.32403898 -2.843069
0.20876206 0.080452934 -0.37458363 -0.3857969 -0.12179375 -0.6260546 -0.8015733 1.1821557
-1.5467746 0.09215157 -1.3633155 0.30704373 -0.29637185 -0.40215492 -0.49601778 -1.2469956
-1.3612854 1.8682522 1.7506584 0.21818161 -0.092831165 -1.0398564 1.802886 0.104220696
-1.7813677 -0.5035117 -0.29159296 -0.41176724 -1.5211546 -0.19360289 -0.20282698 -0.22773254
0.21479951 0.47875777 -0.5355811 -0.5788184 -0.008460665 0.56537503 0.40153232 -0.11202737
-0.19543515 -0.21787396 0.8816336 0.8485727 1.025399 0.8339355 -1.1971816 0.89636
1.0573242 -2.0469055 -0.8704689 -0.09868728 -0.2497756 0.15647538 -0.5366047 0.781008
-0.2822416 0.519268 -0.17602068 -0.018306555 -0.17414327 -0.2725096 0.01673069 0.5559798
0.8190816 -0.7418961 -0.13454528 0.4691765 -2.1391554 -0.23700039 0.06447065 -1.128324
-1.0088567 0.2664272 -0.7664623 1.7119476 -0.14648372 3.553246 0.010293635 -1.173124
0.17623141 0.60164064 0.2043626 -0.88542867 -0.34757516 -0.17085065 -0.7318753 -0.3154091
