policy_weights.pth (torch_old, 21683 bytes, 7 tensors)

feature_layers.0.weight f4 [64, 8]
000000 e7 57 06 be 62 2c 1d 3e ed 8f dd 3e 30 5e 1e be
       -0.1311947 0.15348962 0.4327387 -0.15465617
000010 bc e0 ce be 70 15 01 be c7 71 9e be 30 bc f3 3d
       -0.40405834 -0.12605834 -0.3094618 0.11901128
000020 95 ea 47 3d 51 ee 39 bd 43 5c b9 3d 55 85 39 bf
       0.0488077 -0.04539329 0.09050801 -0.72469074
000030 9f a6 26 3e fb d4 da bb 6e 47 b9 bd 0a ef ff bd
       0.16274498 -0.0066782213 -0.09046827 -0.12496765
000040 0a 61 20 bd 60 06 79 3d e6 49 9f be 6d 24 e1 3e
       -0.039155044 0.060797095 -0.31111068 0.43973103
000050 98 2f 32 3e 15 12 47 bd 62 62 9a 3e c9 b0 89 3d
       0.17400968 -0.04860123 0.30153185 0.06723172
000060 cd ee 38 be 81 1e b4 bd 58 33 46 bf cc ba 65 3d
       -0.18059845 -0.08794881 -0.77422094 0.056086347
000070 ab 6c 2d 3d 42 a6 e2 bd 54 94 13 3e e4 2b 34 be
       0.042339962 -0.110668674 0.14412051 -0.17594868
000080 7f 14 36 bc 14 67 ad 3c 1c b8 a1 be 71 68 02 3e
       -0.011113285 0.021167316 -0.31585777 0.12735154
000090 85 5d 95 3e 31 86 04 be e3 cc 43 3e 3f 2f 13 be
       0.29172912 -0.12941815 0.19121127 -0.14373492
0000a0 f8 4a 94 bd 69 5b 26 3e be 06 7a bd f2 ad 26 3f
       -0.07240862 0.16245808 -0.061041586 0.6510917
0000b0 b5 49 9a bc 7c 08 d1 bd ac c4 90 3e fd b2 95 3e
       -0.018833974 -0.102066964 0.2827505 0.2923812
0000c0 b5 d9 a6 3d 04 c3 f0 3d 69 46 45 be 2f 10 31 3f
       0.08146993 0.11755946 -0.1926514 0.6916532
0000d0 55 51 2c bd a5 02 8e 3c 17 6d f6 bc ae be aa 3e
       -0.04206975 0.017335245 -0.030081315 0.33348602
0000e0 e6 c5 9e be 4f 84 d9 3d d9 d8 7c 3e 6f be 73 be
       -0.3101036 0.10620939 0.24692096 -0.23803113
0000f0 1c e8 1b bf 9b a2 55 bd bf bd 7d bd 07 97 52 3c
       -0.60901046 -0.052157026 -0.061948534 0.012853391
000100 ef 98 c8 bd c5 06 b1 bd be c7 c4 3c 39 84 05 bf
       -0.09794795 -0.08643869 0.024021026 -0.5215488
000110 67 6b c1 bd a9 27 4e be cb cc 9f 3d 85 c3 91 3d
       -0.094443135 -0.20132317 0.07802733 0.071173705
000120 cb 14 a7 bd f4 2f 69 3d f1 ad 18 3d fc a3 e1 be
       -0.08158263 0.056930497 0.03727526 -0.44070423
000130 8d ce a3 bd 04 8d 3f be f5 aa 67 3d ad a6 97 3d
       -0.07998381 -0.18706137 0.05655952 0.07404838
000140 d6 09 ab bd 11 4f 3e 3d bb 98 e7 be b2 ba d1 3e
       -0.083514854 0.046462122 -0.45233712 0.4096275
000150 8d 39 f4 bd a5 9e 80 be 2a c8 71 3e 28 ad 4c 3e
       -0.119250394 -0.25121036 0.23611513 0.19987929
000160 74 a8 74 3a c4 5e 21 be 02 d9 04 bf 2e 52 21 3e
       0.0009332963 -0.15758806 -0.5189363 0.15754005
000170 a1 52 9b 3e ea 52 3a be 37 59 69 3c 0c b3 38 bd
       0.30336478 -0.18195692 0.014242462 -0.045092627
000180 b5 f4 b7 bd 05 71 d6 bd b5 bf 0c bf 7d 34 9d bd
       -0.08982221 -0.104707755 -0.5498002 -0.07676027
000190 69 90 bb 3e 5b ca ce bd d9 fe 68 bd e0 d9 2c bb
       0.36633614 -0.1009719 -0.056883667 -0.002637498
0001a0 78 6d 44 3e a7 1d e8 3c fc e0 ad bc 86 0f 22 3f
       0.19182384 0.028334452 -0.021225445 0.63304937
0001b0 34 f7 73 be 49 b3 12 3d fc c2 90 3e 7f 12 8d 3e
       -0.2382477 0.03581551 0.2827376 0.27553174
0001c0 19 44 82 3e 3d fb 02 3d 34 24 fb 3e 10 f0 22 be
       0.2544258 0.03197788 0.49051058 -0.15911889
0001d0 ce 9d 95 be 2d 4e 15 bd 7b 88 13 3e 42 06 51 bd
       -0.29221958 -0.036451507 0.14407532 -0.05103136
0001e0 b9 f7 97 bc 32 cb a1 bd 96 c3 52 3e 49 02 75 be
       -0.01855074 -0.079000846 0.20582423 -0.23926653
0001f0 0f de 40 be d2 17 1b 3e 1b 42 c1 bd 3b 8d 21 3e
       -0.18834709 0.15145805 -0.09436437 0.15776531
000200 7b fe 57 3e ab 9f 74 3d 4d 80 47 3e 9e 39 16 3f
       0.2109317 0.059722584 0.19482537 0.58681667
000210 c5 bd d0 3d 1d 8c ea 3d 31 8c d3 bd 1e 7c b2 3e
       0.10192446 0.11452506 -0.10329474 0.3486032
000220 3e c5 44 be f7 22 af 3d fa 4f 04 3e c6 12 0a 3f
       -0.19215867 0.08551591 0.12921134 0.53934896
000230 9a 34 5e bc 18 c8 8f 3d 0b f9 21 3e 74 60 9a 3e
       -0.013562346 0.07020587 0.15817659 0.30151713
000240 0a e9 bb 3c b6 e3 79 be d6 60 ce 3e ec 20 f2 bd
       0.02293827 -0.24403271 0.40308255 -0.118226856
000250 56 2a 96 be 0d 1e 14 be 5f e2 c2 bd 6e 00 a3 bb
       -0.29329175 -0.14464588 -0.09515833 -0.0049744165
000260 53 b9 59 3d 23 a3 a9 bd 01 d0 8a be 20 91 0d 3f
       0.053155255 -0.08283069 -0.2711182 0.5529957
000270 87 75 c6 3b 12 c5 60 3e 8b 4d b9 bb f2 15 b4 bb
       0.006056491 0.21950176 -0.005654996 -0.00549578
000280 88 15 27 be 49 35 5f bd 61 93 8f be d5 25 e9 be
       -0.16316807 -0.054494176 -0.2804213 -0.45536676
000290 2c cb e7 3e c9 47 18 3e aa be 51 3e 0e 80 44 be
       0.45272195 0.14871134 0.20482889 -0.19189474
0002a0 ce cf 29 3e 50 2e 92 3d b5 ec 76 3d 9c 53 0d bf
       0.16583177 0.0713774 0.060284335 -0.552057
0002b0 cb 6f a0 be e7 94 26 3e 90 34 e3 3c 9c cb 05 3b
       -0.3133529 0.16267739 0.027735025 0.002041555
0002c0 16 09 82 3e 68 98 77 3d 65 42 0e 3f 9d 02 e0 3e
       0.25397557 0.06044808 0.5557006 0.43751994
0002d0 22 01 fe 3a ff 19 2d 3e 64 b0 ad 3c 27 95 8c 3e
       0.0019379 0.16904448 0.021202274 0.27457544
0002e0 95 b6 9f be 41 99 be 3d 2e ca 03 bf 94 96 34 be
       -0.31193987 0.093065746 -0.51480377 -0.17635566
0002f0 39 1a ac 3e bb 7a 03 be 60 9d 19 3e 14 27 6e be
       0.33613756 -0.12839787 0.1500144 -0.23257095
000300 ed 23 92 bd 90 3e 77 bd 02 0f bc be 67 8c a8 be
       -0.071357585 -0.0603624 -0.367302 -0.32919618
000310 08 18 aa 3e 01 8c f2 3d 99 9d 29 3e 10 25 b8 bc
       0.3322146 0.1184311 0.16564025 -0.02247861
000320 98 ea e9 bc 2e 79 3c 3e 2a 96 e3 be c9 21 e7 3d
       -0.028554246 0.18405601 -0.44450504 0.11285741
000330 f4 7a b5 3d 44 6f 54 3a f2 7b b3 bd f0 1d 6e bc
       0.08861342 0.0008103738 -0.08763875 -0.014533505
000340 6a 4d 94 3d 5d 05 46 3e bb 91 f5 be 9d fa e3 3d
       0.07241328 0.19337983 -0.47962746 0.11131785
000350 27 91 de 3d 62 c2 2c be 86 f7 6f 3a 30 50 09 be
       0.10867529 -0.16871026 0.00091540103 -0.13409495
000360 3a 31 8f bc eb 71 87 bd 8a cf 8c 3e 17 73 74 3e
       -0.017479528 -0.06613525 0.2750209 0.23872028
000370 46 40 0c bf d3 f2 c1 bd 8b 22 00 3e 25 b4 2a 3e
       -0.54785573 -0.09470143 0.12513177 0.16670282
000380 64 5e 8a 3d eb 4a ad bd 32 85 e5 bd 65 42 2a bd
       0.06756285 -0.08461555 -0.112070456 -0.041567225
000390 49 ef 42 3e 20 a8 88 bd 83 e1 bd 3d d5 04 3e bd
       0.19036593 -0.06672692 0.092715286 -0.046391327
0003a0 e7 81 38 bd 62 42 12 bc 03 8e eb be f6 2f dd 3e
       -0.04504576 -0.00892696 -0.46006784 0.43200654
0003b0 ad 13 a2 3e 88 ce c0 bd 74 dd 87 3d 01 bc ac 3c
       0.31655636 -0.09414393 0.06634036 0.021085741
0003c0 0e b0 14 be fc 92 05 3e f3 62 cc 3e 00 a4 0a 3f
       -0.14520285 0.13044351 0.39919242 0.54156494
0003d0 44 6b 5b be 49 5e 19 3c 18 48 da bc 76 83 34 3e
       -0.21427637 0.009360858 -0.026645705 0.17628273
0003e0 f7 1a e0 3d 21 a7 b4 3d 21 9c 1a 3e 8f 1d 57 3e
       0.10942643 0.0882094 0.15098621 0.2100737
0003f0 d6 e9 3a 3e b2 fb 0d 3e b8 1e f0 bd 6f 60 e0 3d
       0.18253264 0.13865545 -0.11724609 0.10955893

feature_layers.0.bias f4 [64]
000000 e2 23 da bc 40 5d f1 3c 41 f4 3d bd 0c fe 53 3c
       -0.026628438 0.02946341 -0.046375517 0.012938987
000010 a1 ee bb 3b 16 bc 8a bd 8b fd a3 bd d3 3d d9 bc
       0.005735234 -0.06774156 -0.08007344 -0.026518738
000020 4e 57 28 3d 85 5b 57 3d c5 cb 43 3d 56 30 85 3a
       0.041098885 0.052577514 0.04780175 0.00101615
000030 e3 20 28 3d a9 4e 4f bd 8b c6 ae bc 7b 97 61 bd
       0.04104699 -0.050612126 -0.021334907 -0.055076104
000040 ec dd 2b 3c 3c fd 2c bd 5d c1 c0 3d ce d3 c6 3c
       0.010489922 -0.04223369 0.09411881 0.024270918
000050 6d de a9 3b 2f 24 85 3a 52 24 89 3a e4 7a 92 3c
       0.005183986 0.0010157878 0.0010463095 0.017880864
000060 6d c0 1f 3c 56 85 18 be d9 a7 b7 bc 18 38 10 3d
       0.009750468 -0.14894614 -0.022418903 0.035209745
000070 55 78 5e 3d b2 e1 8f bd 36 b0 58 bd 4f cc a1 bd
       0.054313976 -0.0702547 -0.052902423 -0.07900297
000080 62 2a a0 bc e2 7d 24 3d cd 1e 23 3d 9f 25 b6 bd
       -0.01955146 0.040159114 0.039824296 -0.088938944
000090 7c 62 9e 3d 3f f8 34 3d 92 a4 82 3d 10 a4 ba bb
       0.07733628 0.04418206 0.063790455 -0.0056958273
0000a0 ba 36 f2 3b c9 b4 33 bb 13 cf a6 bc 6d 4c d1 bc
       0.007391778 -0.0027420989 -0.020362413 -0.025549138
0000b0 71 2b 43 3c 33 37 1f bd de a9 be 3b 3f b4 81 bc
       0.011912213 -0.038871 0.0058185896 -0.015833018
0000c0 56 94 07 bd 04 c5 ed bb 97 9d cc bc be 34 9a 3c
       -0.03310045 -0.007256152 -0.024977488 0.018823978
0000d0 22 60 2d 3c b9 ff 55 bd 0e 31 f0 bb 1c 8d 10 3e
       0.010582002 -0.05224583 -0.0073300665 0.14116329
0000e0 7b 18 2a 3d ca 8d 72 3c 44 81 12 bd b7 51 97 3c
       0.041527253 0.014804313 -0.03576781 0.018471582
0000f0 56 9e 17 3d 9f e0 dd bc b8 e6 ca bc 9a 95 5e bd
       0.037016235 -0.027084647 -0.024768218 -0.05434189

feature_layers.1.weight f4 [64, 64]
000000 97 65 92 be 3f ff 58 3e 97 f4 5b 3d 0d e1 ba 3d
       -0.28593132 0.21191119 0.053700056 0.09124956
000010 bc 4b 8b 3e 00 77 71 bd 8c c8 da bd 14 87 45 be
       0.27206218 -0.058951378 -0.106827825 -0.1928981
000020 df cd 19 3c 63 9a 11 bd d7 bf 94 bd c1 c7 ab 3e
       0.009387462 -0.035547625 -0.07263153 0.33550838
000030 3e aa c0 3e 3a 72 fd be 21 bb 1c bd b8 ac f2 bc
       0.37629884 -0.4950121 -0.038264398 -0.029623374
000040 2b 3b 4f 3d 41 72 99 be 69 df 52 be 58 97 04 bd
       0.050593536 -0.2996998 -0.20593037 -0.032370895
000050 54 d0 2b 3f 27 55 eb bd 0f 5d 69 be 56 7c 1f 3f
       0.6711476 -0.11490851 -0.22789405 0.62299097
000060 28 87 1f 3f 1d 9a 06 3e 68 c2 96 3d 42 18 1f be
       0.6231561 0.13144727 0.07361299 -0.15536597
000070 4d 09 4b 3d 5e 46 06 be 1f 98 28 bf 94 5a ff bd
       0.049569417 -0.1311278 -0.6585712 -0.12468448
000080 f3 a7 5f be 06 ec d9 3e fc ec b0 3a fc c9 b6 3c
       -0.21841411 0.42562884 0.0013498361 0.02231311
000090 f2 62 a8 bd 78 d6 4b 3d f9 f0 f8 3e cb 8e 3a 3e
       -0.08221997 0.04976508 0.48621348 0.18218534
0000a0 11 10 9f bc 6b 26 d9 bc 17 07 d5 bd d8 c2 03 be
       -0.01941684 -0.026507577 -0.10401743 -0.12867296
0000b0 49 01 4d 3e f8 50 25 3e 70 f1 17 be 32 24 e5 bd
       0.20020021 0.16144168 -0.14838195 -0.11188544
0000c0 6e 5f df be 0f 01 7c 3d ef 13 7f 3e 71 4e cb 3e
       -0.43627495 0.061524447 0.24909948 0.39708284
0000d0 61 ac ed 3d fe b8 9b 3d f3 6c 3b 3d 2a 5b e6 3d
       0.11605144 0.07603644 0.0457582 0.11247857
0000e0 a8 1b 0b bf 91 8d b6 bd a0 d0 9d 3c b3 2a ec bd
       -0.54339075 -0.089137204 0.01926452 -0.11531582
0000f0 1c 9a 2c 3e 33 06 9a 3d 32 24 dc 3d d2 a0 a7 be
       0.16855663 0.07520714 0.10749091 -0.32739884
000100 fc 85 55 3e cf d8 41 be 55 ba 2b be b4 bf 1f 3e
       0.20851892 -0.18930362 -0.16770299 0.15600473
000110 0f aa 65 be 36 5c 17 3e 00 e9 a0 3e e8 6b 9b 3d
       -0.22428153 0.1478127 0.31427765 0.07588941
000120 71 06 82 be 8d cb 70 be c1 93 92 be 35 c9 28 3e
       -0.2539554 -0.23515148 -0.28628352 0.16483004
000130 1c f8 48 be b1 aa 88 3e 15 26 ec 3d 88 9c 83 3e
       -0.19625896 0.26692727 0.11530701 0.2570536
000140 f7 63 f5 3d dc 10 05 3e 0a 5d bf bb 8d e8 28 3e
       0.119819574 0.12994713 -0.0058399485 0.16494961
000150 85 81 82 be cd 81 08 3d 9e 2c 23 3d 36 32 dd be
       -0.2548944 0.033326913 0.039837472 -0.4320237
000160 4b a8 03 bf 64 c8 08 be 18 33 10 be 10 1a 96 3e
       -0.5142867 -0.13357693 -0.1408199 0.2931676
000170 50 ea b0 be 6e 20 be 3d 88 b4 c4 3e 15 e5 95 bd
       -0.34553766 0.09283529 0.38418984 -0.073190846
000180 3b 71 72 3e ed a5 00 bf 95 c5 4d 3e 75 82 c0 3d
       0.23676006 -0.5025318 0.20094903 0.09399883
000190 f7 6c 6e 3d c5 32 ed 3c 98 91 9c be 81 34 17 3e
       0.058209386 0.028954873 -0.3057983 0.14766122
0001a0 d3 20 49 bb 55 17 a1 be 52 66 57 be 88 97 ea 3d
       -0.003068973 -0.31463113 -0.21035126 0.114546835
0001b0 b0 f7 9a bd b3 f2 30 be 50 51 e2 3d 61 a3 b8 3e
       -0.07566774 -0.17280082 0.110506654 0.36062148
0001c0 9a 6e 8a 3d e1 72 a4 bd d6 e6 52 be 39 19 d1 be
       0.06759377 -0.08029724 -0.2059587 -0.40839556
0001d0 af 15 70 bd 09 81 45 be d1 66 ae bc 92 27 30 3b
       -0.05861443 -0.19287504 -0.021289261 0.0026879054
0001e0 de 4d f3 3e af 7b 42 3d d3 07 73 be f9 20 ea bd
       0.47520345 0.047481235 -0.23733453 -0.1143207
0001f0 0d 56 45 be ff 69 b1 bd f5 8f ba bd 63 16 16 3f
       -0.19271107 -0.08662795 -0.09109489 0.5862791
000200 a9 03 d1 bd 05 d8 45 3d b0 74 66 3c 04 27 d2 bd
       -0.10205776 0.048301715 0.014065906 -0.10261348
000210 2c b2 bb bc a5 66 91 bd 09 cd 0a bd f4 e8 06 3e
       -0.022912107 -0.07099656 -0.033886943 0.13174802
000220 5e 51 a7 be 30 e3 2a 3d a6 8b 4a bc 0e ce 8e be
       -0.32679266 0.04172057 -0.012362396 -0.27891582
000230 4f 89 c2 bd 87 87 6f bc 41 77 03 3d 05 96 5c be
       -0.09498846 -0.014619715 0.03209615 -0.21541603
000240 fe 58 5e 3d 8c 50 27 3e 18 f9 6f bb 26 54 1a 3e
       0.05428409 0.1633932 -0.0036616977 0.15071163
000250 7d ac 33 3e fa 6f 48 3d d2 92 48 bc e6 cb 1b 3d
       0.17546268 0.048934914 -0.012242036 0.03803625
000260 a4 0c 74 bd fe aa d4 3d e4 4f 8f 3d 4c d2 11 bd
       -0.059582368 0.10384177 0.0699766 -0.035600945
000270 b4 62 3d be 7b 91 82 bd 8a c3 6d 3e 65 23 85 bd
       -0.18494684 -0.063754044 0.23219123 -0.065008916
000280 3a 97 69 be 03 e3 9e bd e6 1a 90 bd 19 f4 f9 3c
       -0.22811595 -0.07758143 -0.070363805 0.030511903
000290 66 e5 4d 3d dc ee 26 be 49 1c 34 3e 30 0e 9f 3c
       0.0502676 -0.16302055 0.17588915 0.019415945
0002a0 76 81 68 bd d0 b1 a4 3a a6 22 91 3c ee f8 98 3d
       -0.05676409 0.0012565199 0.017716717 0.074693546
0002b0 91 58 70 be 3d 73 21 be cd e6 0b 3e a8 13 c7 bd
       -0.23471285 -0.15766616 0.13662262 -0.09720546
0002c0 d5 01 f6 3d 4a 98 95 bd 52 7e de 3c 5f 8a 43 be
       0.12012068 -0.073044375 0.027159844 -0.19095753
0002d0 87 8d 1c 3d 75 5a ca bd e4 bb 7b 3c a0 f8 67 3c
       0.03822091 -0.098805346 0.015364621 0.014158398
0002e0 9f 7e 12 be 11 22 21 3e 69 db 6a 3d 77 1c 8c be
       -0.14306115 0.15735652 0.057338152 -0.27365467
0002f0 2e 00 87 bd 79 ed 67 bc 7c b6 99 3c 3c 54 6f 3e
       -0.06591831 -0.014155739 0.018763773 0.23371977
000300 6f d2 f2 bd 83 f0 3a bd 0c fd 9f be 8a 7f ca bd
       -0.11856543 -0.045639526 -0.31247747 -0.098876074
000310 7a 84 21 bd 1b 9d eb 3c 06 5b a6 bd 63 45 c6 bd
       -0.03943298 0.028761437 -0.0812283 -0.09681203
000320 f0 c8 bb 3c 65 2a 86 3e cd d6 89 be 18 c4 a3 bd
       0.022922963 0.2620422 -0.26921692 -0.07996386
000330 09 97 7d be 55 c7 f2 bc 32 f0 da 3e 3b 95 b1 bd
       -0.24764647 -0.029636065 0.4276138 -0.086710416
000340 c6 d9 2c bb 9b 7b 03 bd e4 62 06 bd 37 29 15 3d
       -0.002637492 -0.0321003 -0.032809153 0.03641626
000350 7d 60 bf bd 89 cc 92 3d 68 4f 0e bd 43 01 82 bd
       -0.093445756 0.07167918 -0.034743696 -0.06347897
000360 3b b3 81 be 01 f4 06 be a6 78 81 3c a4 04 4f 3d
       -0.25332054 -0.13179018 0.0158046 0.050541535
000370 4a 01 f1 3d 5a 7b 89 bd 31 0c b2 3e 1c 0d eb 3c
       0.11767824 -0.067129806 0.34774926 0.028692774
000380 db 21 cd bd 14 e9 f7 3d fc 6f 6c be fe 26 ce bd
       -0.10016223 0.12105003 -0.23089594 -0.10066031
000390 09 19 a0 3d 92 eb 5c 3d 5a b0 0e be 39 87 26 be
       0.07817275 0.053935595 -0.1393446 -0.16262521
0003a0 ad b8 d0 3d 41 97 b0 bd 06 21 5d 3e 0a a2 97 3d
       0.10191474 -0.086225994 0.21594629 0.074039534
0003b0 52 7e 89 3e 80 5f 42 3e 1c de be 3d 43 01 16 3e
       0.26854187 0.18981743 0.09319708 0.14648919
0003c0 a4 a0 96 3d 54 2e 10 be 8c 52 19 be 06 c7 ab be
       0.073548585 -0.14080173 -0.14972895 -0.3355028
0003d0 96 5b 30 be e7 52 a4 3d a7 a5 d8 3d 27 cc 61 3d
       -0.17222437 0.08023625 0.10578471 0.055126335
0003e0 90 dd 0a bd 16 e1 87 ba 20 7c 28 3d d4 f6 75 3e
       -0.033902705 -0.0010366763 0.041134 0.24019939
0003f0 83 81 ca be 37 39 88 bd 11 07 f3 bd 34 86 f3 3d
       -0.39551935 -0.06651538 -0.11866582 0.118908316

feature_layers.1.bias f4 [64]
000000 74 f4 29 3d 7b 7b 0b be df a4 8a 3d 3e 66 bd 3c
       0.041492894 -0.13621323 0.06769728 0.023120042
000010 76 6f 80 be 11 6d 08 3d a5 b3 a6 bd 88 13 04 be
       -0.25085038 0.03330714 -0.08139733 -0.12898076
000020 dd 68 6d bd 87 08 2e bd 8c 20 0d be 96 9a ac bb
       -0.057961334 -0.0424886 -0.13781947 -0.0052674515
000030 85 c2 ae bd 4a dc c7 3d 88 59 16 be 01 33 fb bd
       -0.085331954 0.09758814 -0.14682591 -0.122655876
000040 cc 91 60 bd f6 b6 4c be f9 45 37 bd d2 91 52 bc
       -0.054826543 -0.19991669 -0.044744466 -0.012852149
000050 13 ad d6 bd e8 4e ef bd 57 ca 57 3d eb 36 12 3e
       -0.1048223 -0.11684972 0.0526832 0.14278762
000060 9c 1a 50 3c fe 81 54 bb d2 99 19 3d cf 45 75 be
       0.012701657 -0.0032426114 0.03750021 -0.23952411
000070 c1 15 ae 3d f8 23 e8 bc ab d9 67 bd 33 30 7f 3e
       0.08500243 -0.028337464 -0.05660407 0.2492073
000080 bc 1c 42 be 33 f6 11 bd a0 a5 b4 3d 58 74 0e 3d
       -0.18956274 -0.035635184 0.08820653 0.034778923
000090 42 0b 5c 3d 02 cc 84 bd a5 77 9f 3d 5f 1c 02 3e
       0.053721674 -0.06484224 0.07786492 0.12706135
0000a0 80 eb 12 be 5b 87 9f bd 80 aa fb 3d 44 a5 03 3d
       -0.14347649 -0.07789489 0.1228838 0.03214003
0000b0 43 85 08 bb d3 38 45 3d 3f 51 cb 3d 24 f0 52 bc
       -0.0020831383 0.048149895 0.09927606 -0.012874637
0000c0 44 b8 1e 3d 41 2d a7 bc d8 a9 c1 bd 4b 4c 02 3e
       0.03874995 -0.020407321 -0.09456223 0.12724416
0000d0 dc 7d 70 3c 62 d7 a2 3c f1 10 5c be 0a a9 4f be
       0.014678445 0.019878093 -0.21490838 -0.20279327
0000e0 5b 4d 35 bc d8 00 c9 bd 4d 0c 0f bd 92 5b dc 3c
       -0.011065806 -0.09814614 -0.03492384 0.026899133
0000f0 62 67 30 3e bd b0 20 bd c4 b4 e4 3c 47 c3 83 be
       0.17226937 -0.03923105 0.027918227 -0.25734922

action_layer.weight f4 [4, 64]
000000 83 e7 a8 be d1 3b 45 3e 6c fd e0 3d df 2a 2f 3d
       -0.3298913 0.192611 0.109858364 0.042765494
000010 bf 55 90 3d 5a 6a 6c bd 67 b8 dd bc d2 c3 77 3e
       0.07047605 -0.057718612 -0.027065469 0.24195793
000020 b2 01 20 bc 37 df 5c 3c c5 6d 79 3d 9e f1 92 be
       -0.009766029 0.013480953 0.0608957 -0.28699964
000030 e9 ba 41 bd 23 c2 2a 3e 9a 64 c8 3d e6 e7 a8 3d
       -0.047297392 0.1667562 0.09784813 0.08247356
000040 53 20 56 be 0d 5e c1 3d a2 7c fe bd 80 57 59 be
       -0.20910768 0.09441767 -0.124261156 -0.21224785
000050 a7 ab 27 3e e2 14 bc 3d ae 9b 3f 3e 50 e6 86 3d
       0.16374074 0.091836706 0.18711731 0.065868974
000060 07 ea e7 3c 46 47 94 3c af 25 13 3e ec 4c e2 3e
       0.028309835 0.018100392 0.14369844 0.44199312
000070 37 37 78 3d 57 87 7f 3d 3b 82 15 3d ff 84 cf be
       0.060599532 0.06238493 0.03650115 -0.40531155
000080 7a 93 1b 3c 0e f8 a4 bd 8b bf 82 be 25 0e 42 be
       0.00949561 -0.08055125 -0.2553676 -0.18950708
000090 2e 42 ec bc 69 f3 d1 3d 19 c6 c4 3d 42 a9 25 3d
       -0.02884015 0.10251505 0.09608097 0.04044462
0000a0 05 09 d7 3d 71 66 b7 bd fc 4b aa 3e c5 cb cf 3e
       0.10499767 -0.08955086 0.33261096 0.4058515
0000b0 cc a2 10 be ec e3 8e be 82 77 d8 3e 46 6f bd be
       -0.14124602 -0.27908266 0.42278677 -0.36998957
0000c0 22 04 2a bd e8 3c 4d bb ab 10 61 3d 0c e2 25 be
       -0.041507848 -0.003131682 0.054947536 -0.16199511
0000d0 7f 47 c1 bd bb 96 09 3a af e8 a8 3e e3 82 52 3e
       -0.09437465 0.0005248596 0.32990023 0.20557742
0000e0 66 b8 74 3d e3 fb 29 3e e0 7f 54 3e 34 62 51 3e
       0.05974617 0.16599993 0.20751905 0.20447618
0000f0 e7 d6 2c be 3d 91 89 3e 77 47 0a 3e a8 9a f0 3e
       -0.16878854 0.2686862 0.13503824 0.46992993
000100 40 10 5f bd 95 42 04 3d 31 23 bd 3d bf dc 66 3e
       -0.054458857 0.03229006 0.09235228 0.22545145
000110 a4 95 c3 3d 32 7d 81 be af 63 03 be cb c0 9d bd
       0.09550026 -0.2529083 -0.12830995 -0.07702788
000120 33 92 c2 3d 2c b6 6c be 3a b5 ae bc 2d 5e 04 be
       0.095005415 -0.23116368 -0.02132665 -0.1292655
000130 58 54 9e bc b7 75 cc 3e 92 3f 9f bd 34 36 93 be
       -0.019327328 0.3993356 -0.07775797 -0.2875229
000140 fe 33 59 be 70 ac 59 3e ab ef 2f be a1 c6 ba be
       -0.2121124 0.21257186 -0.1718127 -0.36479667
000150 66 89 2e bb 9c ef a1 3c b2 67 be 3e 8a 84 ca 3c
       -0.0026632189 0.019767575 0.37188488 0.024721403
000160 0b 57 02 bf 18 a1 e4 3d 5a b5 5e bd 48 7f 0f 3e
       -0.5091407 0.11163539 -0.05437217 0.14013398
000170 15 e9 12 be e9 48 c2 3d 33 4c cd be 12 fa d1 bd
       -0.14346726 0.09486563 -0.40097198 -0.10252775
000180 f2 a8 6c 3d 7b 0c 03 3c 35 bd f0 be 03 61 30 be
       0.057778306 0.007998581 -0.47019354 -0.17224507
000190 14 68 9c 3e de c5 41 bd 78 59 da 3e e6 70 b6 be
       0.30548155 -0.04730784 0.42646384 -0.3563301
0001a0 b2 0a 8b bc 67 79 d8 3d 06 60 78 3d 4f 96 95 3e
       -0.016972873 0.10570031 0.06063845 0.2921624
0001b0 c1 28 6e be a7 0c 4a bd fd 80 99 3e dd 2a 76 bd
       -0.23257734 -0.049328472 0.29981223 -0.06009947
0001c0 35 e6 ea be 82 a7 80 be 40 73 e9 3d cc c1 a7 3d
       -0.4587876 -0.25127798 0.11398935 0.08191261
0001d0 21 56 74 be e9 c8 33 bd 94 df 93 3c af 2e 3f 3d
       -0.2386098 -0.043892775 0.018050946 0.04667538
0001e0 42 1e 28 3e 7d e8 38 3e 51 39 b5 3d 48 eb b2 3e
       0.16417792 0.18057437 0.08848823 0.3494513
0001f0 b0 83 13 bd 4b a8 96 3e c9 4b ac 3e 71 5c 12 3d
       -0.03601426 0.29425272 0.3365157 0.03573269
000200 a8 6f f3 3e 88 5e cb be 47 0b e3 3d 80 13 56 3d
       0.47546124 -0.3972056 0.11086135 0.05226469
000210 c4 f6 84 be 8b a4 9f 3e ac 1a e3 3e d7 31 ad be
       -0.25969517 0.31180224 0.44356287 -0.33827087
000220 9e 80 a1 bd 49 69 6e bd c2 f1 a5 be f2 d8 f9 3e
       -0.0788586 -0.058205876 -0.3241101 0.4879833
000230 59 b1 54 be ec 13 b8 3d 0a 7b e7 bd 33 04 85 be
       -0.20770778 0.08988175 -0.11302765 -0.25979766
000240 01 7e d0 3e 5d 30 41 be fc c9 07 3e 6f 1f 00 be
       0.40721133 -0.18866105 0.13260645 -0.12511991
000250 9f c8 8a be 5d 2d 2f be d1 5b 64 be 3a 25 a7 3e
       -0.27106187 -0.17107148 -0.2230065 0.3264559
000260 71 51 ac bd d7 b8 56 bd 42 04 6f be 94 3f 99 be
       -0.08413971 -0.05242237 -0.23341468 -0.2993132
000270 80 d0 df 3c db 24 01 be 9a c8 1b bd 3a d6 90 3e
       0.0273211 -0.12611715 -0.038033105 0.28288442
000280 6c cb d0 bd 98 26 da 3d ba d7 da 3d 3b 93 21 3e
       -0.1019505 0.106518924 0.10685678 0.1577882
000290 e5 88 6d 3d e0 49 97 be 6b 7d c2 be e9 5d ab 3c
       0.05799188 -0.2954855 -0.3798631 0.020918803
0002a0 65 10 5a be 57 d1 8d be 7b 9e 09 bf 39 9f d6 be
       -0.21295317 -0.27698776 -0.53757447 -0.41918352
0002b0 06 f2 d2 3e 03 f1 c3 3e 5f b3 85 be 40 98 b0 3e
       0.41200274 0.38269815 -0.26113412 0.34491158
0002c0 6e fc a4 bb 2d c5 9c bd 48 43 af be af 95 aa 3d
       -0.005034975 -0.07654796 -0.3423102 0.08329331
0002d0 7f db 7f 3e af 79 9a 3e ca fe 42 be da a4 1b be
       0.24986075 0.30170962 -0.19042507 -0.15199605
0002e0 b9 f1 3d bd eb 34 05 bd 37 5d 48 be 1f dc 38 be
       -0.046373103 -0.03252117 -0.19566809 -0.1805272
0002f0 18 b9 9b 3d 90 ad 90 be bf d6 3a be 49 c9 77 be
       0.07603663 -0.28257418 -0.18245982 -0.24197878
000300 b2 89 d7 3d 09 07 3f bc ed b8 39 3d 98 9e 2d be
       0.1052431 -0.011659392 0.045342375 -0.1695503
000310 cf bb f3 bc df f0 b2 bc 49 c1 1d be 49 88 01 3e
       -0.02975264 -0.021843372 -0.15405764 0.12649645
000320 b7 12 13 be 67 8e 7e 3e a8 ed d0 bc 01 f7 d2 bd
       -0.14362608 0.2485901 -0.025503948 -0.103010185
000330 37 e5 12 be 59 04 92 bc a5 c2 bb 3e 71 f0 5d 3e
       -0.14345251 -0.017824339 0.3667194 0.21673752
000340 49 5c 45 be 74 20 98 bd af 14 7e 3e 4c 60 16 3e
       -0.19273485 -0.07428065 0.24812578 0.14685172
000350 81 27 a2 bd a6 71 d3 3e 39 b8 b1 bc 76 27 b0 be
       -0.07917691 0.41297644 -0.02169429 -0.34405106
000360 f3 5c da 3e 0b d3 fb bd 78 f0 6b 3e a7 99 2c 3e
       0.4264904 -0.122961126 0.2304095 0.16855489
000370 00 b2 99 3c e4 a1 9a be 00 9c a9 3e cd 93 12 bd
       0.018761635 -0.30201638 0.3312683 -0.035785485
000380 d3 31 97 3e 37 65 9e 3e 04 18 9b bd 97 16 8e 3e
       0.295302 0.30936596 -0.0757294 0.2775161
000390 8e 60 9b be 2e 1d 8d 3e 02 e5 a5 bc 7e 8e cb bc
       -0.30347103 0.27561325 -0.020250801 -0.024848219
0003a0 24 8e 1d 3e 7c 72 ae 3e 21 91 06 3f 62 5d 78 3e
       0.15386254 0.3407172 0.525652 0.24254373
0003b0 9d 7a 95 be 53 46 1d bd e6 8b 18 3e ed 36 81 bd
       -0.2919511 -0.038397145 0.14897117 -0.063093044
0003c0 b4 7c 82 3e ba 0e 50 3e 99 db a5 be d7 0f d3 be
       0.25485766 0.20318118 -0.32394102 -0.41223022
0003d0 95 89 2f 3e 97 27 00 3e 00 32 6c 3d e1 dc c5 3c
       0.17142327 0.12515102 0.05766487 0.024153175
0003e0 ad 37 85 be fd fb f3 bd 58 fc 47 be f3 de 3c bd
       -0.2601904 -0.11913297 -0.19529855 -0.04611106
0003f0 b1 ef c9 be ff 3b 72 be 51 0d 8b bd 87 d9 a7 3d
       -0.39440683 -0.23655699 -0.06789649 0.08195787

action_layer.bias f4 [4]
000000 a4 91 9c 3c 82 e3 1f bd be 32 10 3e 7b e2 69 bd
       0.019112416 -0.039035328 0.14081857 -0.057100754

value_layer.weight f4 [1, 64]
000000 60 4f 96 bd d0 c6 58 bd 36 ed 82 3d 51 ac 7b 3d
       -0.07339358 -0.052923977 0.06392901 0.06144363
000010 21 6d b3 bd b6 42 2d 3d 2a b5 2b bd b7 2b 40 3d
       -0.08761049 0.04229995 -0.04192082 0.04691669
000020 31 18 91 bd 7d 4b b0 bd 59 64 4b 3e d5 cb ee bd
       -0.07084692 -0.08608148 0.19862498 -0.116599716
000030 e8 d3 b0 3d d4 62 97 3d 40 97 1d be ad a2 10 be
       0.08634168 0.07391897 -0.15389729 -0.14124556
000040 c1 94 ab 3c e0 28 24 3d 45 46 dd 3d 5a c7 2e 3c
       0.020944955 0.040078044 0.108044185 0.010667646
000050 51 c0 b0 3c 0e 0a 88 be 2f b6 92 3d 32 af 97 bd
       0.021576079 -0.2657017 0.07163655 -0.07406463
000060 a4 39 0c 3d fc 06 df 3d 02 e9 c7 3d 6b 3c 0f be
       0.034234658 0.10890004 0.097612396 -0.13987891
000070 2a 8c c1 3d 6c 0c af bc e3 2f 98 be b6 fe 78 bd
       0.09450562 -0.021368228 -0.29724035 -0.060789786
000080 cd 12 1d 3e 0c 9f 22 be 58 4d d6 bd 00 48 9a 3e
       0.15339203 -0.15880984 -0.10463971 0.30133057
000090 e5 71 57 bb 6c f2 c7 bd 1f ba 58 bd c5 e0 60 3d
       -0.0032874283 -0.09763035 -0.052911874 0.054901857
0000a0 d6 55 03 3d 3b 6a 0b be 33 14 ac be 75 a9 6e bb
       0.03206428 -0.13614742 -0.3360916 -0.0036416922
0000b0 11 ee 92 be ca f3 45 3e bf 60 4a bd fb e3 9b 3d
       -0.28697255 0.1933128 -0.04940867 0.07611843
0000c0 65 80 8f 3d 23 cd 4e bd 16 9f 9b bd e5 42 54 be
       0.07006911 -0.050488602 -0.075987026 -0.20728643
0000d0 00 67 ba 3d 2a 7e 92 bd f1 b3 d8 bb 84 f8 bd 3c
       0.09101677 -0.0715297 -0.0066132476 0.02318979
0000e0 37 e4 15 3e da 3d 05 3e 68 03 bc 3d d3 46 1c 3e
       0.14637838 0.13011876 0.09180337 0.15261392
0000f0 7a 5a 9e bd 2c 23 a8 3c 8f 9f b6 3d 22 c3 2c 3e
       -0.07732101 0.020524584 0.08917152 0.16871312
