policy_weights.pth (torch_old, 8345 bytes, 5 tensors)

feature_layers.0.weight f4 [128, 8]
0	0xbe51ad69	-0.20476307
1	0x3e49f043	0.19720559
2	0x3eeb8233	0.45997772
3	0x3ea6a813	0.32550105
4	0xbe7a977d	-0.2447185
5	0x3eb4c47c	0.35306156
6	0x3e7d66cb	0.24746244
7	0x3f12e345	0.57378036
8	0x3e5dbe0e	0.21654531
9	0x3e90c9e1	0.2827902
10	0x3d2b839c	0.04187356
11	0x3f5ee1dc	0.87063384
12	0xbdf5397b	-0.11973854
13	0x3e817346	0.2528326
14	0x3e96c16b	0.2944444
15	0x3f20e499	0.6284881
16	0x3d5087c6	0.050910734
17	0x3e038ab5	0.12845881
18	0xbdd22501	-0.10260964
19	0x3f350090	0.70703983
20	0x3dab2200	0.08356094
21	0x3e2c7248	0.1684047
22	0x3ea5d323	0.32387647
23	0x3efae07f	0.48999402
24	0x3d14bdde	0.036313884
25	0x3e8770ec	0.2645334
26	0xbe25d9d2	-0.16196373
27	0x3f3d194c	0.73866725
28	0xbd252011	-0.040313784
29	0x3e8bbad9	0.2729099
30	0x3f01b13a	0.5066105
31	0x3f099a86	0.5375141
32	0x3e481acd	0.19541474
33	0x3e7b48e2	0.24539521
34	0x3ee74e9f	0.4517717
35	0x3f48b292	0.78397477
36	0xbe16a268	-0.1471039
37	0x3e18e67e	0.14931676
38	0x3eca923f	0.39564702
39	0x3ee4efd5	0.44714227
40	0x3dff0fa3	0.12454154
41	0x3d5d6b6e	0.05405753
42	0xbe923d9d	-0.28562632
43	0x3f38ad23	0.72139186
44	0x3df47cbe	0.11937855
45	0x3dd0a94b	0.1018854
46	0x3e9d4828	0.30719113
47	0x3f204baa	0.62615454
48	0x3cc064bf	0.02348554
49	0x3e0ea5e0	0.13930464
50	0xbd802272	-0.0625657
51	0x3ef92ff7	0.48669407
52	0x3dfd547b	0.12369629
53	0x3de568fe	0.11201666
54	0x3e6aa6ea	0.22915235
55	0x3f31dc01	0.69476324
56	0x3c5dca08	0.013536938
57	0xbd2d878d	-0.0423656
58	0x3e9aaecb	0.3021148
59	0xbf784043	-0.96973056
60	0xbe252963	-0.16129069
61	0xbd4f744f	-0.05064803
62	0xbe9eff50	-0.31054163
63	0xbf2d4433	-0.6768219
64	0x3e9b8167	0.30372164
65	0x3eafded1	0.34349683
66	0xbf6c1d26	-0.92231977
67	0x3e2d301b	0.16912882
68	0x3f594b40	0.8488045
69	0xbef345d5	-0.47514215
70	0x3e90320f	0.28163192
71	0x3f1612be	0.5862235
72	0xbc89d90e	-0.016827133
73	0xbe81a7ca	-0.25323325
74	0x3f0de94c	0.5543411
75	0xbf2cea0d	-0.67544633
76	0xbf124226	-0.57132185
77	0x3e624fda	0.22100773
78	0xbe9b87fa	-0.3037718
79	0xbf170939	-0.5899845
80	0xbe0ab141	-0.1354418
81	0xbe49ef64	-0.19720227
82	0xbed2446b	-0.41067824
83	0xbf0cdcf8	-0.5502467
84	0x3db27e22	0.08715464
85	0xbe125c27	-0.14292966
86	0xbe75b18b	-0.23993509
87	0xbeef3c54	-0.46725714
88	0x3da810af	0.08206307
89	0x3e33fab3	0.17576103
90	0xbee1ef27	-0.4412777
91	0x3f3b0feb	0.73071164
92	0x3eb753de	0.35806173
93	0xbd58e64c	-0.052954003
94	0x3ea042ee	0.31301063
95	0x3f108266	0.5644897
96	0x3db1e191	0.086856015
97	0xbe8a4c47	-0.2701132
98	0x3eb55c0a	0.35421783
99	0xbdfb0d3f	-0.12258386
100	0xbeaad0d9	-0.33362463
101	0x3d5332af	0.051562008
102	0xbeb51a87	-0.353718
103	0xbebf147c	-0.37320316
104	0x3d45fe95	0.04833849
105	0xbe338be5	-0.17533834
106	0x3e956ddb	0.29185376
107	0x3f7d434c	0.9893081
108	0xbee76295	-0.451924
109	0xbee009ba	-0.4375742
110	0x3e88db41	0.26729777
111	0x3f11a1b6	0.56887376
112	0x3bc80e40	0.0061052144
113	0xbdfc4d04	-0.12319377
114	0xbebb5a74	-0.36592448
115	0x3d552da9	0.052045498
116	0x3f0db540	0.5535469
117	0x3d74d17a	0.059770085
118	0xbe285a9f	-0.16440819
119	0xbebd6f2c	-0.3699888
120	0x3e29475e	0.1653113
121	0x3e0cabd4	0.13737422
122	0x3e87ec7f	0.2654762
123	0x3f8890f9	1.0669242
124	0xbdc6b31d	-0.09702132
125	0x3c55fdf4	0.013061035
126	0x3eac52e5	0.33656994
127	0x3eb884a0	0.36038685
128	0xbdcc254e	-0.09968053
129	0xbe99b6b2	-0.30022198
130	0xbf282574	-0.6568215
131	0xbe7885aa	-0.24269739
132	0x3f1401b9	0.5781513
133	0xbf09ec44	-0.5387614
134	0xbe99aaf3	-0.30013236
135	0xbec1279e	-0.37725538
136	0x3e1d218d	0.1534483
137	0x3eac61c1	0.3366833
138	0xbd9414ee	-0.072305545
139	0x3f4c285e	0.79749095
140	0x3e1bcd3d	0.15215011
141	0x3de748cb	0.11293181
142	0x3e8f7f14	0.2802664
143	0x3ed440b6	0.4145562
144	0x3e0d1fe0	0.1378169
145	0x3eb02ba9	0.3440831
146	0x3d1ed654	0.038778618
147	0x3f1c4720	0.6104603
148	0x3dc0ad2a	0.094080284
149	0x3df9ef70	0.12203872
150	0x3ed23377	0.4105489
151	0x3f1423c2	0.5786706
152	0xbd7deb27	-0.061991837
153	0x3e81db5b	0.25362667
154	0x3ea3694d	0.31916276
155	0x3f0b3308	0.5437474
156	0xbe59faad	-0.21287031
157	0x3ecca399	0.39968565
158	0x3ecda2d7	0.401633
159	0x3ee4c485	0.44681183
160	0x3cb57d61	0.022154512
161	0x3d987d4e	0.07445775
162	0xbebf4d5c	-0.37363708
163	0x3f500f43	0.8127329
164	0x3eceb25a	0.40370446
165	0xbdda9eb5	-0.10674802
166	0x3edf9e1b	0.43675312
167	0x3f09f530	0.5388975
168	0x3d81314f	0.06308233
169	0xbe84e74b	-0.25957713
170	0xbe192b5a	-0.14957944
171	0xbe962c97	-0.29330894
172	0x3dbe0c85	0.09279732
173	0xbe8bf95c	-0.27338684
174	0xbe640c58	-0.22270334
175	0xbee5d440	-0.44888496
176	0x3dc38c49	0.09548242
177	0x3e523423	0.20527701
178	0x3de31382	0.11087705
179	0x3f522154	0.82082105
180	0xbcc3f619	-0.02392106
181	0x3e8067c2	0.2507916
182	0x3ee28207	0.44239828
183	0x3ecf8e85	0.4053842
184	0x3cad90a7	0.02118714
185	0x3d58b1ca	0.052903928
186	0xbd07c83a	-0.033149935
187	0x3f7ec368	0.99516916
188	0x3dce3542	0.10068752
189	0x3da14d6b	0.078760944
190	0x3f1a7dce	0.6034821
191	0x3f1afbaa	0.6054026
192	0xbd88dcca	-0.06682737
193	0xbe8c7a8c	-0.27437246
194	0x3ea426ff	0.32061002
195	0xbef4f5d9	-0.47843817
196	0xbe442ee0	-0.19158506
197	0xbdb4e3a6	-0.08832483
198	0xbef166cd	-0.47148743
199	0xbefbddea	-0.49192744
200	0xbe825bf2	-0.25460774
201	0xbcfefc1b	-0.031126073
202	0xbd0189eb	-0.03162567
203	0xbf097b89	-0.53704125
204	0xbf30c04e	-0.69043434
205	0xbedb6bc9	-0.4285567
206	0x3e458265	0.19288023
207	0x3dec18a6	0.11528139
208	0x3e43b1e6	0.19110832
209	0x3dbd66fb	0.092481576
210	0xbdcdba14	-0.10045257
211	0x3f6321c2	0.88723385
212	0xbd1682d8	-0.036745876
213	0x3e19af9e	0.15008399
214	0x3e81d502	0.25357825
215	0x3f091b1a	0.5355698
216	0xbd0605b9	-0.0327203
217	0xbeb92d4b	-0.36167368
218	0xbe54aa62	-0.20768121
219	0xbf12c821	-0.5733662
220	0x3dbf48fc	0.093400925
221	0xbe9084f0	-0.28226423
222	0xbe7cdfb2	-0.24694708
223	0xbf0de0f6	-0.5542139
224	0xbc5422d5	-0.012947758
225	0x3d95efb6	0.07321112
226	0xbe7c57ab	-0.24642818
227	0x3f52d824	0.82361054
228	0x3e8abc9c	0.27097023
229	0x3ce40f94	0.02783946
230	0x3efad3bc	0.48989666
231	0x3ef2485f	0.4732084
232	0x3e430399	0.19044341
233	0x3e40cca7	0.18828069
234	0xbf5629ec	-0.8365772
235	0x3eceed01	0.40415195
236	0x3f182f35	0.5944703
237	0xbe7c2160	-0.24622107
238	0x3ebc6973	0.367992
239	0x3ee72d27	0.45151636
240	0xbe1065da	-0.14101353
241	0xbe6ba7dc	-0.23013252
242	0x3f3834ca	0.7195555
243	0xbe4ee3bc	-0.20204061
244	0xbf252344	-0.64506936
245	0x3e9c2b07	0.30501577
246	0xbe43e7d4	-0.19131404
247	0xbeeb82bd	-0.45998183
248	0xbe57daa9	-0.21079506
249	0xbeb8ad3f	-0.36069676
250	0x3f03215b	0.5122277
251	0xbebda9b8	-0.37043548
252	0xbec197df	-0.3781118
253	0x3db28f12	0.08718695
254	0xbedb2375	-0.4280049
255	0xbf143cd2	-0.57905304

feature_layers.0.bias f4 [128]
0	0x3ec13e94	0.37743056
1	0x3e6996f9	0.22811498
2	0x3e938b75	0.28817335
3	0x3e869462	0.26285082
4	0x3e3b2c67	0.18278657
5	0x3e825aa5	0.2545978
6	0x3eb4a400	0.35281372
7	0xbe559dbe	-0.20860955
8	0x3eeb5669	0.45964363
9	0xbea3b0f0	-0.3197093
10	0xbe75f7aa	-0.24020258
11	0x3e987a19	0.29780653
12	0xbee14554	-0.43998206
13	0xbd754298	-0.059877962
14	0xbe5f1fa2	-0.2178941
15	0x3e11a51f	0.14223145
16	0xbebec15a	-0.3725689
17	0x3e868886	0.26276034
18	0x3e9d32b3	0.30702743
19	0x3ed6681a	0.41876298
20	0x3e9b5ee9	0.30345848
21	0xbeb397a3	-0.35076627
22	0x3ea74fe6	0.32678145
23	0x3e5d7430	0.21626353
24	0xbeb14165	-0.34620205
25	0x3d486270	0.048922002
26	0x3e6488d3	0.2231782
27	0xbea6abf7	-0.32553074
28	0x3e8ab297	0.27089378
29	0x3ebd445f	0.36966226
30	0xbecd5385	-0.40102783
31	0xbebe39d7	-0.37153503
32	0x3ea828f0	0.32843733
33	0x3ea3aafc	0.31966388
34	0x3ea12723	0.3147517
35	0x3e8c076b	0.2734941
36	0x3e93a75c	0.28838623
37	0xbe46612d	-0.19373007
38	0x3e5f2b91	0.21793963
39	0x3e9606ec	0.29302156
40	0x3e88b089	0.26697186
41	0xbe76d6b7	-0.24105345
42	0x3ea1b9a4	0.31586945
43	0xbe859b6e	-0.26095146
44	0xbebc87df	-0.3682241
45	0x3e87dd2d	0.2653593
46	0x3e6b9442	0.23005775
47	0x3ea094fe	0.31363672
48	0x3e7ae48a	0.24501243
49	0xbc5d8a71	-0.013521777
50	0x3e9ebdcc	0.3100418
51	0x3e9aa705	0.3020555
52	0xbdc78806	-0.09742741
53	0xbe7e08db	-0.24808066
54	0xbdd8cc64	-0.105858594
55	0xbe9ec9ef	-0.31013438
56	0xbed3ba71	-0.4135318
57	0xbebff260	-0.37489605
58	0xbeb2d872	-0.3493076
59	0x3ebee5b5	0.37284628
60	0x3e5eef46	0.21770963
61	0x3e9b30e7	0.30310747
62	0xbe9b4f57	-0.3033397
63	0x3e875fb1	0.26440194
64	0x3e834c69	0.25644234
65	0xbe886127	-0.2663662
66	0x3ea0155d	0.312663
67	0x3e9ad76d	0.30242482
68	0xbeb84570	-0.35990477
69	0x3e6a2bd8	0.22868288
70	0x3e8dca2f	0.27693316
71	0xbded0f23	-0.11575153
72	0xbeb760dc	-0.35816085
73	0xbe9e22bf	-0.30885884
74	0x3ed07a83	0.4071847
75	0x3e9927dc	0.29913223
76	0x3ed70c51	0.42001584
77	0xbe8e328e	-0.27772945
78	0xbeaaf6fa	-0.33391553
79	0xbeeada50	-0.45869684
80	0x3e810c5f	0.2520475
81	0xbe96ef1b	-0.29479298
82	0xbe81b173	-0.25330696
83	0xbe1caad3	-0.1529954
84	0xbe7f7ae9	-0.2494923
85	0xbea14500	-0.31497955
86	0xbeaf839b	-0.34280095
87	0xbe54e7ce	-0.20791551
88	0xbeadd7a7	-0.33953592
89	0xbe5f3f6a	-0.21801534
90	0x3eb1ff96	0.3476531
91	0x3e5a6188	0.21326268
92	0x3e5ba327	0.21448956
93	0x3e8865fb	0.26640305
94	0x3e90823c	0.2822436
95	0x3e3d8d42	0.18510917
96	0xbe730357	-0.23731743
97	0x3d090a16	0.033456884
98	0x3ed6e8c7	0.4197447
99	0x3ea4f630	0.32219076
100	0x3e8242cc	0.25441587
101	0x3eda43de	0.42629904
102	0xbecd6e17	-0.40123054
103	0x3e9d91e3	0.30775365
104	0x3e8cd6bf	0.27507588
105	0xbedf3d43	-0.43601426
106	0xbeb0e278	-0.34547782
107	0x3ebba007	0.3664553
108	0xbe88992c	-0.2667936
109	0x3eb475b7	0.3524606
110	0x3e9c8d2e	0.30576462
111	0x3eb3a11e	0.3508386
112	0x3e97cf15	0.2965018
113	0xbeca3a5f	-0.3949766
114	0xbe889e5a	-0.26683313
115	0x3e90cf89	0.28283337
116	0xbe0af179	-0.13568677
117	0xbde40fc8	-0.111358225
118	0xbd2bc3a7	-0.041934635
119	0xbea60b5d	-0.32430544
120	0xbea5e57c	-0.32401645
121	0xbee0e9d3	-0.43928394
122	0xbe8411ed	-0.25794926
123	0x3eda7a20	0.426713
124	0xbe8b6f95	-0.27233568
125	0xbec267f8	-0.37969947
126	0xbea42c1f	-0.32064912
127	0x3ea7c008	0.32763696

action_layer.weight f4 [4, 128]
0	0xbeb8e589	-0.3611262
1	0x3e253611	0.16133906
2	0xbe12437d	-0.14283557
3	0xbdcb2e09	-0.0992089
4	0x3d7eca8e	0.06220489
5	0xbd64eaae	-0.05588787
6	0xbe82a60f	-0.25517318
7	0x3d79226d	0.060823847
8	0xbd6e5c73	-0.058193635
9	0x3d8b1549	0.06791169
10	0x3de2ab19	0.110677905
11	0xbd8d30e7	-0.06894093
12	0x3e4e842a	0.20167604
13	0xbd9a554c	-0.075358
14	0x3e160396	0.14649805
15	0x3d2b9847	0.04189327
16	0xbc63f915	-0.013914366
17	0xbd7f08bd	-0.062264193
18	0xbe667a8d	-0.22507687
19	0xbd821d6a	-0.063532665
20	0xbe35dac9	-0.17759241
21	0x3e0c116c	0.13678521
22	0xbe2b055b	-0.16701262
23	0x3df1d64c	0.11808452
24	0x3e02df8f	0.12780593
25	0xbe4106eb	-0.18850295
26	0x3e5b26c4	0.21401507
27	0x3e3d13e6	0.18464622
28	0xbe4e204e	-0.20129511
29	0x3ba262eb	0.0049556396
30	0x3e0fcbdf	0.14042614
31	0x3e2efae4	0.17087895
32	0xbe190dd5	-0.14946683
33	0xbe41d682	-0.18929484
34	0xbdbfe62e	-0.09370075
35	0x3d2b1e7c	0.04177712
36	0xbd3a375d	-0.045462955
37	0xbcae7b61	-0.021299066
38	0xbd8346f2	-0.06410016
39	0xbdcc06aa	-0.099622086
40	0xbaa7447f	-0.0012761502
41	0x3e8d3cb5	0.27585378
42	0xbe21ae9d	-0.15789266
43	0x3dfb7c0e	0.12279521
44	0x3d2f2929	0.042763863
45	0xbe2222e3	-0.1583362
46	0xbe5fe0ea	-0.21863142
47	0xbdc465b5	-0.095897116
48	0x3e1128fb	0.14175789
49	0x3da712bb	0.081578694
50	0xbe5a30ae	-0.21307632
51	0xbd7e090b	-0.062020343
52	0xbda995e1	-0.0828054
53	0x3d281ebe	0.041044943
54	0x3e0cd459	0.13752879
55	0xbcaa7197	-0.020806117
56	0x3e27af89	0.16375555
57	0x3e9f2d36	0.3108918
58	0xbd11ceb9	-0.035597537
59	0xbe841883	-0.2579995
60	0x3d5ac0e0	0.053406596
61	0xbce0e456	-0.027452629
62	0x3db0a96c	0.08626065
63	0xbd871909	-0.06596572
64	0x3cd76b37	0.026296241
65	0xbd93dab5	-0.072194494
66	0xbe114d3d	-0.1418962
67	0xbc7ee1bd	-0.01555675
68	0x3e32ce76	0.17461571
69	0x3ca8505f	0.020546136
70	0x3d535cd3	0.051602196
71	0x3caf5798	0.021404073
72	0x3e124414	0.14283782
73	0x38e6c2e1	0.00011003554
74	0xbddee6bf	-0.10883855
75	0xbe095b45	-0.13413723
76	0xbe048a38	-0.12943351
77	0x3e4e9a0e	0.20175955
78	0x3e87390e	0.26410717
79	0x3e5191dd	0.20465799
80	0xbd842dd4	-0.064540535
81	0x3cfb0123	0.03064019
82	0xbc8b3e17	-0.01699738
83	0x3cb34567	0.02188368
84	0x3dc5759f	0.09641575
85	0x3dd5b513	0.10434928
86	0x3e8ebbf4	0.27877772
87	0xbd179e8c	-0.037016436
88	0x3e513e78	0.20433986
89	0x3e498de0	0.19683027
90	0xbd89140d	-0.066932775
91	0x3de633e7	0.11240368
92	0x3e26b212	0.16278866
93	0xbd5e261b	-0.05423556
94	0xbe3f094f	-0.18655895
95	0x3c19c884	0.009386186
96	0x3e759169	0.23981251
97	0x3def95e7	0.116985135
98	0xbdc74ce6	-0.09731464
99	0xbe0a0c42	-0.13481238
100	0x3b3019c8	0.0026870836
101	0xbe2f9964	-0.17148358
102	0x3db315ba	0.087443784
103	0xbe13b5aa	-0.14424768
104	0xbd51b2ae	-0.051195793
105	0x3e6f5cff	0.23375319
106	0x3e0e6a4c	0.13907737
107	0xbe550306	-0.20801935
108	0x3d8bf0a8	0.06833011
109	0xbe10b5c4	-0.14131838
110	0xbe7e676e	-0.24844143
111	0xbe12c46e	-0.14332744
112	0xbd97bc49	-0.074089594
113	0x3def757d	0.11692331
114	0x3b9cfe42	0.004791052
115	0x3dfc9ec4	0.1233497
116	0xbe703304	-0.23456961
117	0xbd337cac	-0.04382007
118	0x3d820f4e	0.063505754
119	0x3e22da49	0.15903582
120	0x3d0e99f4	0.03481479
121	0x3e9afbad	0.30270138
122	0x3cc46657	0.02397458
123	0xbe4d0bbf	-0.20024012
124	0x3ce6c22b	0.028168758
125	0x3e354242	0.17701057
126	0x3e12b3c3	0.14326386
127	0xbe6ef88f	-0.23337005
128	0x3e965643	0.29362687
129	0x3e7ec96e	0.24881527
130	0x3e0f09e1	0.13968612
131	0x3dcf2f24	0.10116413
132	0x3ee246ef	0.44194743
133	0xbe0ac370	-0.13551116
134	0x3c44e6e8	0.012017943
135	0x3e50eecc	0.20403594
136	0xbeba41c9	-0.36378315
137	0x3ec4845a	0.38382226
138	0xbee58c8f	-0.448338
139	0xbe413a4e	-0.18869898
140	0x3e511761	0.20419075
141	0x3eef80a2	0.46777827
142	0xbe72f477	-0.23726068
143	0x3f0bf0e2	0.54664433
144	0xbef2a61a	-0.4739235
145	0x3c49eef0	0.012325034
146	0x3ad627fe	0.0016338823
147	0x3e7c6fb1	0.24651982
148	0xbe7f03a7	-0.24903737
149	0xbd5a4328	-0.0532867
150	0x3e79f18c	0.24408549
151	0x3deb238d	0.1148139
152	0x3dffab6c	0.12483868
153	0x3db006d3	0.085950516
154	0x3c93b783	0.018031841
155	0xbe9d6d61	-0.30747512
156	0xbe8c2c1c	-0.27377403
157	0xbf03d6a5	-0.51499397
158	0x3eca3009	0.39489773
159	0x3e724da5	0.23662432
160	0xbd45f4b6	-0.048329078
161	0xbe151f62	-0.14562753
162	0x3b37adab	0.0028027098
163	0x3e1ecbc3	0.15507416
164	0x3d2ea54b	0.042638104
165	0xbe3601ae	-0.17774078
166	0x3db453ac	0.08805022
167	0xbe6b1da1	-0.22960521
168	0x3dba46a1	0.09095503
169	0xbd876054	-0.0661017
170	0xbe170580	-0.14748192
171	0xbdb988c2	-0.090592876
172	0xbe3f7c67	-0.186998
173	0xbea5c9ca	-0.32380515
174	0x3eb76a9d	0.35823527
175	0x3e3d478f	0.18484329
176	0xbdf29213	-0.11844268
177	0xbec6d18a	-0.3883174
178	0xbcafdb24	-0.0214668
179	0xbe072f06	-0.13201532
180	0x3e3c427b	0.18384735
181	0xbe801d31	-0.2502227
182	0xbf201e3f	-0.6254615
183	0x3e4cfcb4	0.20018274
184	0x3ed8610a	0.42261535
185	0xbcb15fb2	-0.021652076
186	0x3d82ac87	0.06380563
187	0xbc8b5544	-0.017008431
188	0xbe856a2f	-0.26057574
189	0x3e040b13	0.1289485
190	0xbe7eb94c	-0.24875373
191	0xbe9ef0e7	-0.3104317
192	0x3d670e37	0.05641004
193	0xbce7c187	-0.028290523
194	0x3e01ebd2	0.12687615
195	0x3e8f24e7	0.27957842
196	0x3d48eb02	0.049052246
197	0xbd6955d4	-0.056966618
198	0x3e1d11be	0.153388
199	0x3e12faa9	0.14353432
200	0xbe6f6fc2	-0.23382476
201	0x3cfd19b2	0.030896042
202	0x3e2b20f9	0.16711797
203	0xbd9ce47d	-0.07660768
204	0x3e45721c	0.1928181
205	0x3dc58f5b	0.096464835
206	0x3dc5fa8d	0.096669294
207	0xbe54e4fc	-0.20790476
208	0x3d71acb2	0.059002586
209	0xbe2bcdab	-0.16777675
210	0x3e114fc0	0.14190578
211	0xbe853af2	-0.26021534
212	0x3bd4c5ae	0.006493292
213	0xbe192dcb	-0.14958875
214	0x3e91bfdd	0.28466693
215	0xbec92092	-0.39282662
216	0xbe43c774	-0.19119054
217	0xbecc1b88	-0.39864755
218	0xbf211cc3	-0.6293451
219	0x3e1444d9	0.14479388
220	0x3bf429fd	0.0074512945
221	0xbe215f77	-0.15759073
222	0x3dc24d6a	0.09487422
223	0x3e71e3cb	0.23622052
224	0xbe80fee1	-0.25194457
225	0x3f20ad7f	0.62764734
226	0x3d93ffb7	0.07226508
227	0xbece86cd	-0.4033722
228	0x3cd6e0c9	0.026230233
229	0xbea200f2	-0.31641346
230	0xbd348722	-0.044074185
231	0xbd863ba5	-0.06554345
232	0xbe443d1f	-0.19163941
233	0xbc8c82e9	-0.017152267
234	0xbe499180	-0.1968441
235	0x3e2f22e2	0.1710315
236	0xbe45e316	-0.19324908
237	0x3e2fd0fe	0.17169568
238	0x3e08b09f	0.13348626
239	0x3e5118dc	0.2041964
240	0xbf1ab6d4	-0.60435224
241	0x3d7d6033	0.06185932
242	0xbeb70943	-0.35749254
243	0x3e085896	0.13315043
244	0xbdacf6b4	-0.084454924
245	0x3ed972c5	0.42470375
246	0x3f024ea7	0.50901264
247	0x3df5fec8	0.12011486
248	0xbd9df333	-0.07712402
249	0x3d0b2d9f	0.033979055
250	0xbd2c8f2b	-0.042128723
251	0x3e8a9c27	0.2707226
252	0xbccd6f28	-0.025077417
253	0xbe195179	-0.14972486
254	0xbc421470	-0.011845693
255	0x3e91f3ec	0.2850641

action_layer.bias f4 [4]
0	0xbdd1cefa	-0.10244556
1	0x3cf58a79	0.029973255
2	0x3d80fbed	0.06298051
3	0xbd0645de	-0.032781474

value_layer.weight f4 [1, 128]
0	0xbf08cac9	-0.53434426
1	0xbf3d5f67	-0.739737
2	0xbf4a3ca4	-0.7899878
3	0xbf3a967d	-0.72885877
4	0xbf180269	-0.5937868
5	0xbf5f2869	-0.87171036
6	0xbf1d4c61	-0.6144467
7	0x3f775bd5	0.966245
8	0xbf5df3f6	-0.8670038
9	0x3f62c2f9	0.88578755
10	0x3f049716	0.5179304
11	0xbf607543	-0.8767893
12	0x3ee7ac93	0.4524885
13	0xbf38390c	-0.71962047
14	0x3c328572	0.010896074
15	0xbf5b0262	-0.8555051
16	0x3f0a97c3	0.5413782
17	0xbf2bf5c3	-0.6717188
18	0xbf1518c3	-0.5824091
19	0xbf1df8e5	-0.6170791
20	0xbf76bd1c	-0.9638231
21	0x3ec9ab08	0.393883
22	0xbf45c282	-0.7724992
23	0xbf6cdfd6	-0.92529047
24	0x3f16e221	0.58938795
25	0x3ec65b5a	0.3874157
26	0xbf4d6c41	-0.8024331
27	0x3f020e13	0.50802726
28	0xbf6b48f0	-0.9190817
29	0xbf5f8251	-0.8730822
30	0x3f596179	0.84914356
31	0x3f112f6b	0.5671298
32	0xbf29e981	-0.66371924
33	0xbf35c758	-0.710073
34	0xbf4f9467	-0.8108582
35	0xbf4591ab	-0.77175397
36	0xbf2f742e	-0.6853665
37	0x3f817b10	1.0115681
38	0xbf5a5132	-0.85280144
39	0xbf3d660c	-0.73983836
40	0xbf4ce938	-0.80043364
41	0x3f410641	0.7540017
42	0xbf26f77d	-0.6522139
43	0x3f1f05aa	0.6211802
44	0x3f1ca780	0.61193085
45	0xbf5b7c09	-0.8573614
46	0xbf468b60	-0.7755642
47	0xbf2181ed	-0.63088876
48	0xbf6fe87f	-0.93714136
49	0x3e730eb6	0.2373608
50	0xbece5a4e	-0.40303272
51	0xbf5c2a07	-0.8600163
52	0x3f62b7df	0.88561815
53	0x3f70d95b	0.9408166
54	0x3f2408b5	0.64075786
55	0x3f48805d	0.78320867
56	0x3f636475	0.8882516
57	0x3f03d9e0	0.51504326
58	0x3eed5dfa	0.4636076
59	0xbf02427a	-0.50882685
60	0xbf3bba50	-0.73331165
61	0xbf3f6da5	-0.7477668
62	0x3f30b1a0	0.69021034
63	0xbf3fc3d7	-0.749082
64	0xbf6463d5	-0.8921483
65	0x3f67a70d	0.90489274
66	0xbf2410da	-0.64088213
67	0xbf02073d	-0.50792295
68	0x3f20fc94	0.62885404
69	0xbf6bbd64	-0.9208586
70	0xbf459e8e	-0.7719506
71	0x3f32e5b1	0.6988173
72	0x3ee0f769	0.4393876
73	0x3f20a070	0.6274481
74	0xbf3f567f	-0.7474136
75	0xbf271d1a	-0.6527878
76	0xbf0232ee	-0.5085896
77	0x3f1c35d5	0.6101964
78	0x3f2ea87b	0.6822583
79	0x3f13bb72	0.57707894
80	0xbf65a548	-0.89705324
81	0x3f48f350	0.78496265
82	0x3f70bb42	0.9403573
83	0x3f3612cb	0.71122426
84	0x3f654b6f	0.8956823
85	0x3ee4fccf	0.44724128
86	0x3f0000d6	0.50001276
87	0x3f473af4	0.7782433
88	0x3efb6b1d	0.49105158
89	0x3f5ab74f	0.85435957
90	0x3f0f450a	0.5596472
91	0xbf4d7775	-0.802604
92	0xbf5c90cc	-0.8615844
93	0xbf4a35fc	-0.78988624
94	0xbf5a38d3	-0.85242957
95	0xbf6bbc97	-0.9208464
96	0x3f234f12	0.63792527
97	0xbf15fc1f	-0.5858783
98	0xbf183da9	-0.59469086
99	0xbf2d4e63	-0.67697734
100	0xbf64287a	-0.8912426
101	0xbf51dd51	-0.8197833
102	0x3ee89f93	0.45434245
103	0xbf2a9be1	-0.666441
104	0xbf41db32	-0.7572509
105	0x3f0e6365	0.55620414
106	0x3f1af386	0.6052784
107	0xbf2080ff	-0.6269683
108	0x3f736345	0.9507335
109	0xbf32f547	-0.69905514
110	0xbf25a9c6	-0.6471218
111	0xbf2b33c3	-0.6687586
112	0xbf31122b	-0.6916835
113	0x3f0a464c	0.54013515
114	0x3f5d0543	0.86336154
115	0xbf478ea8	-0.7795205
116	0x3f7b34f3	0.9812767
117	0xbf3b22c2	-0.7309991
118	0xbe9c88e0	-0.30573177
119	0x3f337daa	0.70113623
120	0x3f0854ef	0.532546
121	0x3f01014b	0.503926
122	0x3f6d96b4	0.9280808
123	0xbf0cc2db	-0.54984826
124	0x3f59c3bf	0.8506431
125	0x3f13ad6f	0.57686514
126	0x3f2c31ca	0.6726347
127	0xbe962154	-0.29322302
