policy_weights.pth (torch_old, 49316 bytes, 27 tensors)

critic.0.weight f4 [64, 10]
00000000: 2c2a 39be cdf0 88bd 9fd7 b4bd 3a63 0ebe
00000010: db62 943e 704c 07be 285c 6e3e 489d 91be
00000020: 7ef5 a93d 6429 44be ff19 373e cc7c 5dbe
00000030: 79e3 763e 2744 9bbd 606e 6a3c 2324 f93b
00000040: 5355 883e a468 0f3e 4fec 823e cf8a c3bc
00000050: 929d 4c3e 41f6 d1bd ecd3 633e 6cb0 883e
00000060: db39 e83d 948d 553e f066 2e3c 4daa 7a3e
00000070: 3623 f83d 2267 973e 8521 3bbe eb71 da3d
00000080: bc11 97be f2a8 063e a7c2 1abe 5c7d 343d
00000090: 2f01 703e 7247 623e 41c3 853e c740 20bc
000000a0: fc05 a13e 2f08 083e 7018 8a3e cc52 913e
000000b0: 0d83 393e 2bdc 05be ab50 6cbe 4ad8 8cbe
000000c0: e535 1b3e 7564 cfbc 28e3 943e e147 153e
000000d0: b9e1 993d 609d 943d b538 5cbd f1ee 44bd
000000e0: 0a75 9bbd df78 b83d eaf8 1a3d d910 3c3e
000000f0: 6bbf 9e3e eb83 02be 63c5 2cbd 46ec 053e
00000100: 91a5 77be 38cb 97be 30a3 2c3e 5a14 86be
00000110: e3f7 f7bb d23e 39be fad8 65be 9e32 0a3e
00000120: e5f2 8bbc ec53 3a3c 9ec3 583d d17e 883e
00000130: 73be 793e d1f0 78be 62bd 03be 27c9 cdbd
00000140: 3f8e f83b 6b3d 0b3e 0198 2c3d 8eac 0dbe
00000150: 4a76 c03d c436 2a3e efea a0bd ec95 d4bd
00000160: db2d 0b3e 9ad0 663e 7a10 433d 0796 1b3e
00000170: f1ad 5dbe 88f0 213e efac 95be f432 94bd
00000180: e663 a23c d666 bebb b1bc 203e 1737 3e3d
00000190: 903f aa3d 8d31 81bd d1f9 23bd 5f49 27be
000001a0: 7133 88be 5480 89bd 9b34 033e 4dc8 7c3e
000001b0: 7b2f 893c fcc5 9dbe 2b24 da3d ca64 07be
000001c0: 49c3 c33d 44c8 c2bc aa66 9fbe e29b 3cbe
000001d0: 9055 143d 9e25 663e 07f9 15be eebd 1ebe
000001e0: 736c 343e 13f4 873e 28a4 69be e36e 773c
000001f0: 4eba 2fbe 2028 6e3e 83dc f2bd fa8f 8bbe
00000200: be0c 25be 2c1b 8cbc 0ab8 d73b ae17 17bd
00000210: 7df0 9b3d 4319 873e d3d6 153c a1a3 0e3e
00000220: 5c5e e93d a355 813c 524d 593d c8fd 793e
00000230: 5127 2b3e e08b e4bc d9a0 24be 838d 793e
00000240: c522 52be 71cd 1f3e 3fbf ffbd 610f 64be
00000250: f414 71be eefe 9dbd 96bc 903c db5b 623e
00000260: 7585 073d 0c70 7dbe 56e6 c63d facf 8d3d
00000270: 41e8 7f3e f795 9e3e 1057 4cbe 33ea 7ebe
00000280: 290b 59be 41c9 d7bd 31f5 44be 4af0 513e
00000290: 5694 283e 86be 28be 9840 633e 8808 243d
000002a0: 918b 843e 2f33 8a3e a6e5 8e3e db3c c7bd
000002b0: 5e0b 8fbe 685d 38be 6907 303e d6ae 143e
000002c0: 17f5 a93d 42db 2a3d c6da 22be 88f2 6fbe
000002d0: 720d 91be 22e4 38be a570 58be 82da 85be
000002e0: c6cf 45be 30a2 6f3e 7521 92bd 5d7f 153e
000002f0: a0b4 b43e 285c 9a3d c63c 87be 10c4 7a3d
00000300: df8a 373e e939 c8bc 3356 703e 6536 8cbd
00000310: bf54 25be b21c 763e 0cbe a33e 62e4 8c3e
00000320: b562 21be 6938 f0bc a71d 463e 69a9 dbbd
00000330: aa49 2abc 68c3 973e 10d8 48be 56b7 adbd
00000340: 9e9b 0b3e 45e7 0ebd 4910 5b3e 5944 5fbe
00000350: 0c6a 303d 41d1 f4bd 05ca ab3d 5278 59bd
00000360: 63a3 3f3e b1c3 61be f83a 81be dac5 f0bd
00000370: c751 48be 7fb6 873e f638 2a3e 79e8 b4bd
00000380: 15be 9b3e 2ae4 963e 0779 6cbe 9bdb 603e
00000390: 5ad2 14bc b541 ffba 7391 593c 220b 0e3e
000003a0: 1106 58be ab61 22be 56cf 533e d4ec 7cbe
000003b0: 9781 9d3e d24f 3fbe d78a 4c3e 6504 3dbe
000003c0: e84d 90bd a07c 173d 0a63 c83d b9fb a0be
000003d0: e6ec 2e3d 7eb8 493e f77e 173e fc50 95bc
000003e0: 8754 8e3e aba2 4bbe b5f0 6f3e f905 9e3e
000003f0: c2e6 ecbd 9451 b83d 42bf 88be 923b 723e
-0.18082494 -0.06686554 -0.08830189 -0.1390504 0.2898167 -0.13212752 0.23277342 -0.2844031
0.08298777 -0.19156414 0.1788101 -0.21629637 0.24110211 -0.075813584 0.014308542 0.007603185
0.26627597 0.14004761 0.25570914 -0.0238699 0.19981983 -0.10252047 0.2224881 0.266971
0.1133916 0.20854789 0.010644659 0.24479027 0.12116091 0.29570872 -0.18274505 0.106662594
-0.29505718 0.13150385 -0.15113316 0.044064865 0.23437952 0.22097567 0.2612553 -0.009781069
0.31449878 0.13284372 0.2697177 0.28383482 0.18116398 -0.13072269 -0.23077647 -0.27508765
0.15157278 -0.025316456 0.29079556 0.14578201 0.07513756 0.072565794 -0.053765018 -0.048079435
-0.07590683 0.09007429 0.03783504 0.18365802 0.31005415 -0.12745635 -0.04218043 0.13078412
-0.24184252 -0.2964723 0.16859126 -0.26187402 -0.007567392 -0.1809037 -0.22446051 0.13495871
-0.017083595 0.011372548 0.05292093 0.26659253 0.24389057 -0.24310614 -0.12865213 -0.100481324
0.0075853164 0.13597648 0.04213715 -0.13835356 0.09397562 0.16622454 -0.0785731 -0.10380158
0.13591711 0.22540513 0.047623135 0.1519395 -0.21648385 0.15814412 -0.292335 -0.07236281
0.019823026 -0.005810599 0.1569698 0.046439257 0.08312905 -0.06308279 -0.040033165 -0.16336583
-0.26601747 -0.0671393 0.12813036 0.24685784 0.016746273 -0.30815113 0.1065143 -0.13222042
0.09558732 -0.023777135 -0.31133014 -0.1841884 0.03621441 0.22475287 -0.14645778 -0.1550214
0.17619495 0.265534 -0.22816527 0.015102121 -0.17160913 0.23257494 -0.118584655 -0.27258283
-0.16118142 -0.0171028 0.0065832185 -0.036887817 0.07614229 0.2638646 0.009145456 0.13929607
0.11394951 0.015787905 0.053052254 0.24413216 0.16714217 -0.027898729 -0.16076984 0.24370389
-0.20521076 0.15605713 -0.12487649 -0.22271492 -0.23543149 -0.077146396 0.01766805 0.22105353
0.03308626 -0.24749774 0.09711902 0.06924434 0.24990942 0.3097379 -0.19955087 -0.24894027
-0.21195664 -0.10536433 -0.19234158 0.20501819 0.16462836 -0.16478929 0.2219261 0.0400472
0.2588773 0.26992175 0.27909583 -0.09728404 -0.2793836 -0.18004382 0.17190327 0.1451982
0.082987 0.041713007 -0.15903768 -0.23432362 -0.2833057 -0.18055776 -0.2113672 -0.2614327
-0.1931754 0.23401713 -0.07135288 0.14599366 0.35294056 0.07537109 -0.26413554 0.061222136
0.17924069 -0.024441676 0.23470382 -0.068463124 -0.1614561 0.24034384 0.31980932 0.27517992
-0.1576031 -0.029323773 0.19347249 -0.10725672 -0.010393539 0.2964127 -0.19613671 -0.08482234
0.13633582 -0.034888525 0.21392931 -0.21803416 0.043069884 -0.119539745 0.083881415 -0.053093262
0.18714671 -0.22047307 -0.25240302 -0.11756487 -0.19562446 0.2650642 0.16623291 -0.08833403
0.3041846 0.2947095 -0.23093043 0.21958773 -0.009083355 -0.0019474538 0.013279307 0.13871434
-0.21096064 -0.1585757 0.20684561 -0.24699718 0.30762932 -0.18682793 0.19974838 -0.18458708
-0.070461094 0.036984086 0.09784515 -0.3144205 0.042706393 0.19699284 0.14794527 -0.018227093
0.27798864 -0.19886272 0.23431666 0.30863932 -0.11567451 0.08999935 -0.26708418 0.23655537

critic.0.bias f4 [64]
00000000: 11fb ed3c 482a 643e 7545 8a3e 37ec bc3d
00000010: 1b55 543e 5f99 793e fe63 8d3c 3be6 8cbc
00000020: 7703 883e f785 85be 91c2 ebbd 038b 923d
00000030: 784f 613d 1ebb 12be 7d77 7dbe 2864 94be
00000040: 0608 013e 8329 2c3e 2478 0bbd 20f4 0a3e
00000050: b30d 043e 1844 c23d 6917 80be 39d1 2e3d
00000060: a4bc 86bd 90cc 3dbd 10fd 51bd fa37 3ebe
00000070: 2bef 5ebe 27fd 683d 31fc 6cbd 7969 b5bc
00000080: a765 5ebd 6f5f ddbc cc9a 9a3e 6e2c 903e
00000090: 0cd9 70bd dade 1cbc 0d5e ee3d 7a18 813e
000000a0: 4684 a43d 2604 47be 9aea 943d e141 96bd
000000b0: 169f 8abd 1e43 05be 2546 1dbe 1869 58be
000000c0: 5566 7b3e bc7e a1be 4f3c 89be 1f84 2e3d
000000d0: 6fe3 953e 12cc 85be 49d7 6d3e d801 8abe
000000e0: 064f 3dbe cc23 3a3e a5df 91be 8bd3 103e
000000f0: c213 a1be fd78 5cbe ee75 9d3e f3bb 92bd
0.029050382 0.22281754 0.27006117 0.09224742 0.2073559 0.24374913 0.017259594 -0.017199626
0.26565143 -0.2607877 -0.1151172 0.07155421 0.055007428 -0.14329192 -0.24752612 -0.28982663
0.12600717 0.1681271 -0.034050122 0.13569689 0.12895851 0.09485644 -0.2501786 0.04268
-0.06578949 -0.046337664 -0.05126673 -0.18576041 -0.21770923 0.05688205 -0.057857696 -0.02214502
-0.054296162 -0.027023045 0.30196226 0.28158897 -0.058800742 -0.009574616 0.116390325 0.25213987
0.08033042 -0.19435176 0.07271309 -0.07336784 -0.067686245 -0.13013884 -0.1535879 -0.2113384
0.24550755 -0.31542003 -0.26803824 0.04260647 0.2927508 -0.26132256 0.23226656 -0.26954532
-0.18487176 0.18177718 -0.2849094 0.14143197 -0.31460387 -0.21530528 0.30754036 -0.07164755

critic.1.weight f4 [64]
00000000: 9be7 793f e8b1 7a3f 7e3c 7f3f c62d 803f
00000010: 6b7d 803f 1214 7f3f 5a92 7f3f 7a72 803f
00000020: 6105 813f 8392 783f 7eca 7d3f 5952 803f
00000030: 2c10 823f e22a 833f 15ac 7e3f 76c9 803f
00000040: e366 7d3f b2a1 803f 152c 803f e716 7c3f
00000050: 6035 7c3f 2a8a 7b3f b21d 7c3f 49d1 823f
00000060: d30d 803f 201c 823f 75f7 7a3f 1990 7d3f
00000070: 8f8d 813f c739 7e3f f774 7e3f 941a 803f
00000080: 15cc 7d3f 1b61 803f b4ea 803f ac49 7f3f
00000090: b05f 7e3f b161 803f 48c9 793f f042 7f3f
000000a0: c9ca 7d3f 995a 7a3f 465d 7a3f 3ab2 7c3f
000000b0: fb03 7c3f ce8a 7f3f 5bdc 7b3f 331b 7b3f
000000c0: 12ff 7d3f 9f6c 7e3f 6e8c 813f 4f91 7c3f
000000d0: fdc1 7e3f bf71 7c3f 1387 7d3f f0d4 7b3f
000000e0: 72db 7e3f 2b26 7c3f d184 7c3f aa76 823f
000000f0: c580 7c3f 8afe 803f def5 7d3f 978a 823f
0.97619027 0.97927713 0.9970168 1.0013969 1.0038275 0.9964 0.9983269 1.0034935
1.0079767 0.9709856 0.99137104 1.002513 1.0161185 1.0247462 0.99481326 1.0061481
0.9898512 1.0049345 1.0013453 0.98472446 0.98518944 0.98257697 0.9848281 1.0220119
1.0004219 1.0164833 0.9803384 0.99048 1.0121325 0.9930691 0.99397224 1.0008111
0.9913953 1.0029634 1.0071626 0.9972179 0.9936476 1.0029813 0.97572756 0.99711514
0.9913755 0.9779449 0.97798574 0.9870945 0.98443574 0.99821174 0.9838311 0.9808838
0.9921733 0.9938449 1.0120981 0.98659223 0.9951475 0.9861106 0.9903423 0.9837179
0.99553597 0.9849574 0.9864016 1.0192463 0.98633987 1.0077679 0.9920329 1.0198544

critic.1.bias f4 [64]
00000000: a962 393d 1aef 4bbc ce25 c4bb 4d6e e1bd
00000010: db15 ebbd 476a 1f3d 19e7 9cbd b5ac d7bd
00000020: 5cbc da3d 0003 9ebd f9cd b2bc a934 68bd
00000030: 4d32 543d 3dc7 98bd 9208 e23d 14bd cbbd
00000040: 8cb3 8fbd b4ec 053d 326e fe3d 99ec e8bd
00000050: 1518 e03c 031a 243d 0e37 c8bc d2b2 143d
00000060: 3b23 103d c945 8fbd ee3f efbd 2334 a4bd
00000070: 9345 c03c 8656 613d 7b59 503c 146d ad3d
00000080: 09c3 1c3d 19ef 6e3d 7eb5 f1bd 3c59 88bd
00000090: 2588 c2bd 6431 4c3c 8058 51bd d6b7 abbd
000000a0: d0c9 7d3d 5fc9 2c3d 16a8 683c c3b5 863b
000000b0: ccc6 c1bd 7124 5bbd a9cd d43d b2af ce3c
000000c0: 1548 023d c208 0d3d 4882 aa3c 8e65 babd
000000d0: a505 bb3d 812f 43bd 4dc5 b2bc b51f 2c3d
000000e0: 10b3 a23c 1355 b13d cf38 f8bb e9ce 82bd
000000f0: f149 503d e160 fabd b656 a73b 9dd5 833d
0.045260105 -0.012447143 -0.005985952 -0.11007366 -0.11478778 0.038919713 -0.07661266 -0.10530988
0.10680458 -0.07715416 -0.021826731 -0.056690846 0.051805783 -0.07459877 0.11036791 -0.09948173
-0.07016668 0.03269644 0.12423362 -0.113732524 0.027355233 0.04006387 -0.024440315 0.03630335
0.03518985 -0.06995732 -0.116821155 -0.08017757 0.023470676 0.055014156 0.012716646 0.084680706
0.038271938 0.05833349 -0.11802195 -0.06657645 -0.09498624 0.0124629475 -0.05110979 -0.08384673
0.06196004 0.04218423 0.014200231 0.004111023 -0.094617456 -0.05350155 0.10390789 0.025230262
0.031807024 0.03443218 0.020814076 -0.09101401 0.09131936 -0.047652725 -0.021822596 0.042022426
0.019860774 0.08658805 -0.0075751315 -0.06387121 0.050851766 -0.122255094 0.0051067723 0.06437228

critic.1.running_mean f4 [64]
00000000: 60b2 9fbd f030 d73d 8a59 ffbb e754 09bf
00000010: 2d6c 90be 6437 8b3d dcfb c03e 8062 b3be
00000020: fabb 08bf 324c 44bf dbf0 9f3e b1f7 843f
00000030: c655 f6be a125 e3be aa4c 09be 3a8f 3a3e
00000040: 739a 67be 8dc4 de3e 8c0e 57bf 4478 c2be
00000050: 32fa fabe dfe4 523f c0e3 2abf fb2e bdbe
00000060: 9766 56bf 3eb6 2bbf df37 13be 1722 61be
00000070: e7e5 f9be f80c 9bbe 6410 f03e 00bb 0bbe
00000080: 574a a83e 2978 65bf a5db 493f b39b fcbc
00000090: 7251 aa3e b2dd b13e 2ac7 d83d d813 453e
000000a0: 9c56 b73e 6aef 28bf 392f 0cbe 847f c93e
000000b0: 28cc 06be f511 493f 4fbe 3abf 3fdc 7dbe
000000c0: 9050 323e 8843 d6bd 85a0 3a3f c123 03be
000000d0: b54b b8bd c57f c5be 7ad2 27be 20c6 4ebd
000000e0: a6c0 2cbf ce52 213f e67d 9cbe 21e0 333b
000000f0: 53f8 afbf 1608 8ebe 46fd 963d cfbd 9cbe
-0.07797694 0.10507381 -0.0077926563 -0.53645176 -0.28207532 0.06797674 0.37692153 -0.35036087
-0.5341183 -0.76678765 0.31238446 1.038809 -0.48112315 -0.44364646 -0.13408151 0.18218699
-0.22617511 0.4350933 -0.8400657 -0.3798238 -0.4901901 0.8238048 -0.6675377 -0.36949906
-0.8375029 -0.67074955 -0.14376782 -0.2198566 -0.48808214 -0.30283332 0.46887505 -0.13645554
0.32869217 -0.89636475 0.78850776 -0.030835962 0.33265263 0.34739453 0.105848625 0.19245851
0.35808265 -0.65990317 -0.13689889 0.393551 -0.13163817 0.78543025 -0.7294664 -0.24791048
0.17413545 -0.10462099 0.72901183 -0.12806608 -0.08998815 -0.38574043 -0.16388884 -0.050481915
-0.6748146 0.63016975 -0.30564803 0.0027446824 -1.3747658 -0.27740544 0.07372527 -0.30613562

critic.1.running_var f4 [64]
00000000: 7c3e 303f 01d3 9940 f9a5 7840 8a6a 0141
00000010: 64ab db40 9c96 4d3f 9329 013e c71e 4f3e
00000020: f1ae 173f e924 8640 5b93 8d3f 39dd 953f
00000030: 7404 8240 190d 443f ec90 e93f 85bb 843f
00000040: fad5 8940 db9a c440 9174 8c40 8d71 0740
00000050: 7790 5640 d0db e03e 6da5 0c40 5c34 5340
00000060: 75a2 b33f 3ef3 a93f f423 4e3f 9064 2e40
00000070: 6047 f23f 15a3 b240 612d 8840 e77b c13e
00000080: 525a f63e 00a9 4e3f 2cea 383f f729 b640
00000090: d4b4 6c3f d27d 883e c05a 0640 b1cc 8d40
000000a0: d3e3 c040 d100 893f 07d9 bc3f 7273 8240
000000b0: e5cc 8240 ed76 0d40 00e6 f53e 38a4 963f
000000c0: 6cd2 ce3f 55cc c240 4dae 4040 bdb4 2d3f
000000d0: b130 d03f d3e1 1c40 7a51 c13f 9f28 ba3e
000000e0: 5b83 e840 9844 863f ec51 1041 f7a5 a83e
000000f0: 46ff 983e 2705 4840 772d 1340 70c9 513f
0.68845344 4.8070073 3.8851302 8.0885105 6.8646717 0.80307937 0.12613516 0.20226584
0.59251314 4.1920056 1.1060594 1.1708137 4.0630436 0.76582485 1.8247352 1.0369726
4.30737 6.1439033 4.3892293 2.1163056 3.3525674 0.43917704 2.1975968 3.3000708
1.4033953 1.3277357 0.8052361 2.7248878 1.8928032 5.5824075 4.2555394 0.37789842
0.48115784 0.80726624 0.7223232 5.6926227 0.9246342 0.26658493 2.099289 4.4312367
6.0278106 1.0703374 1.4753731 4.0765924 4.0875115 2.2103837 0.4802704 1.1768866
1.6157966 6.087443 3.0106385 0.6785391 1.626486 2.4512832 1.510299 0.36359116
7.2660346 1.0489683 9.02 0.3293912 0.29882258 3.1253145 2.29965 0.81947994

critic.3.weight f4 [64, 64]
00000000: 045a d73d abaa 85bd 3a5f a53d 2ec0 9a3d
00000010: 65fa aa3c 218a 3fbc a58b c3bc cb97 753d
00000020: 6a89 f83d 34bf 8ebc 816c a7bd 224e 823d
00000030: 5886 c13b ab9a d4bd d9d7 2fbc 8d2f 97bd
00000040: d97a e2bd 47c2 8fbd a920 be3d 87c1 b33c
00000050: a6e9 f73d 76a8 b6bd a75e 2ebd bc9d 1c3d
00000060: 6819 f33d 4716 8abd edd1 aabc 1d5d a3bd
00000070: a27a 823d 8a7d 65bd 45d0 20bd ce76 8e3d
00000080: 8d36 2cbd 082f d0bd f30e 63bd f6bf 8a3d
00000090: 7d55 7cbd 8eca ce3d d8b0 2ebd 1bea 4f3d
000000a0: 68f7 873b a5d2 8ebb 9493 14bd 108c 81bc
000000b0: 5ebb bdb9 d864 643d e87b b8bd 4169 8d3d
000000c0: 33c7 8bbd 4c3a 49bd 148e 623d 33e9 78bd
000000d0: af85 06bd 52f6 e5bc 9a20 8bbb bcc7 bb3d
000000e0: f9ab af3d 7a57 f0bc 980d a2bd 4d09 90bd
000000f0: 46a2 5fbd 8155 9d3c e623 edbd 76bd 79bd
00000100: 63f1 f23c bba7 e0bd b8ba dd3d 6812 b83d
00000110: ecdf d7bd f422 9d3d 81ea 2b3d 9048 6a3d
00000120: 8408 373b bac9 62bc fbe0 b23d 7a5b f43d
00000130: 8166 acbd 54ab e4bd 917b b83d 662b f83d
00000140: 3678 efbd fe82 a7bd 9f88 b2bc eb98 85bd
00000150: ba22 cbbd 63f6 4d3b e948 b53d bd04 ca3d
00000160: 326b 853d 50ff b13d 981f 15bd 2355 9dbd
00000170: 4ce2 a3bd 1b18 c03d f3ef 643d db9e a73d
00000180: a098 2f3d 76db 52bd fc6b f0bc a3e1 523d
00000190: 1af2 093e d6d5 6a3d 0e9b 713c 3100 3c3d
000001a0: ed55 b33d 2119 44bd e6aa 6cbd 44a9 bb3d
000001b0: d99c f2bc 5b00 84bd fde2 e23d e831 dbbd
000001c0: 21ec a93d 2f80 bdbd 0077 c6bd 50ee 94bc
000001d0: acd9 8f3c 0ff6 d2bd 7a7a b83d fe6c 7ebd
000001e0: 68cf 36bd f57d 8d3c 4535 a53d a17b a5bd
000001f0: 966c 81bc 41d3 90bd 81da aa3d 667b 753d
00000200: 2b08 773d 26a4 f3bb b0ca ed3d 8ab9 7ebd
00000210: 5634 dcbc 5b59 8bbd 3db0 493d 6d8d f93d
00000220: a28e cabd dc13 97bd 5291 8abd 2e1f 0ebe
00000230: 1b9f 953d adcb 3bbd 8b78 8d3d 5e1a a4bd
00000240: 6284 553d bb14 c13d effc 2ebd b726 7cbc
00000250: 2a08 2b3d 45ab 283d 5ffa c13d 2e6e 883d
00000260: d059 ed3d cb92 23bd 37e0 a0bd d536 dfbc
00000270: b38b 1c3d 7643 373d fb1e 4cbd fd58 14bd
00000280: 01e5 133d e776 863c 0e91 0d3d b0d3 d53d
00000290: 9f93 b5bd 1b2a 98bd 979b 24bc 378f e2bd
000002a0: 2f61 fa3d fdf1 fc3c 76df 56bd 8318 8bbc
000002b0: 210c ddbd 9d1d a03d 1aee 2abd c576 e33d
000002c0: f4ed e9bc 8f2c e3bd 38c5 e43d bd17 7abd
000002d0: 3cab 04b8 1453 8a3d 84c1 d9bb 53c6 793d
000002e0: fddb cabd 30e3 28bd f850 b23a 42b7 013e
000002f0: 1113 f7bc 45cf a33d cdf7 17bd 1090 eabd
00000300: e202 6f3c 14e8 77bc e5da dc3c f171 8cbb
00000310: 1de9 8f3d 950b 023e 2bf6 b4bb b671 eabd
00000320: 12e6 e1bd 2c23 a7bc 50a0 87bd 4f90 8d3c
00000330: 8374 adbb 18b0 773c c9f3 6a3d d4c8 f23d
00000340: 9691 bdbc 7112 0abc 0298 cd3d 790e 5b3d
00000350: b915 71bd e0fc b5bd 2a39 65bd d984 013d
00000360: d8e7 e93c 0763 d3bd 26a1 c03b f488 c9bc
00000370: 3c34 debd 1ce0 08bd 63e8 f73b 5f4b 5ebd
00000380: 82cd a23d 0933 103c c949 ee3c 29ce fd3c
00000390: 9c35 65bd e05f 9a3d b8e3 6c3d e760 ea3d
000003a0: 9d35 8cbd e0f8 b33d 8e25 d83d bb81 3ebc
000003b0: 9212 ce3d d7fe e639 9531 393d f147 40bd
000003c0: 5e95 62bd ebd4 42bc 0b2d f8bd 734e d13d
000003d0: 208d 27bd 2b9f 85bd 510a 833d 3072 e73d
000003e0: e065 d03d a9c6 b2bd 14f9 f5bd 1c48 8e3d
000003f0: 72b2 8dbb 6a26 ca3d cd17 39bd fb04 1abd
0.10515216 -0.06526693 0.08074804 0.075561866 0.02087135 -0.011690647 -0.023870299 0.059959214
0.12135585 -0.017425157 -0.08174992 0.06362559 0.0059059076 -0.10381063 -0.010732614 -0.073821165
-0.110585876 -0.07019477 0.09283573 0.021942867 0.12105112 -0.0891885 -0.042570736 0.038236365
0.1187008 -0.0674253 -0.020852054 -0.07976744 0.063710466 -0.056027927 -0.03926112 0.06956254
-0.04204421 -0.101652205 -0.05543418 0.06774895 -0.061604965 0.10097228 -0.04264912 0.05076037
0.004149366 -0.004358607 -0.036273554 -0.015813857 -0.0003618849 0.055760235 -0.09008008 0.06904841
-0.068251036 -0.04912786 0.055311278 -0.06076927 -0.032842334 -0.028071556 -0.00424583 0.09168956
0.08577723 -0.029338587 -0.07912749 -0.07033024 -0.054598115 0.01920581 -0.11579113 -0.0609717
0.029656118 -0.10969492 0.108266294 0.08987886 -0.105407566 0.076726824 0.041971687 0.057198107
0.002792866 -0.013842041 0.08734318 0.1193151 -0.084179886 -0.11165491 0.090079434 0.121176526
-0.1169285 -0.08179282 -0.021793662 -0.065233074 -0.09918733 0.0031427376 0.08851797 0.09864185
0.065145865 0.08691275 -0.036407083 -0.07682254 -0.08002147 0.09379598 0.055892896 0.08184596
0.042870164 -0.051478826 -0.029348366 0.051484715 0.1347126 0.057332836 0.014746441 0.04589862
0.087566234 -0.047875527 -0.05778017 0.09163144 -0.029615806 -0.0644538 0.11078451 -0.10702878
0.08296991 -0.09252965 -0.09690666 -0.018180043 0.017559849 -0.10300838 0.090077356 -0.06211566
-0.04463139 0.017271975 0.08066801 -0.08080221 -0.015798848 -0.070715435 0.083424576 0.059932135
0.060310524 -0.0074353395 0.11610925 -0.062188663 -0.026880424 -0.068041526 0.04924034 0.12185178
-0.09890486 -0.07376835 -0.06765999 -0.13879082 0.073057376 -0.045848537 0.06907757 -0.08012842
0.052128203 0.09427782 -0.042721685 -0.01539009 0.041755833 0.04117896 0.094715826 0.0666164
0.11589396 -0.039934915 -0.078552656 -0.027247826 0.038219165 0.04474207 -0.049834233 -0.03621768
0.036107067 0.016414119 0.034562163 0.10440767 -0.08866047 -0.07429906 -0.010046861 -0.11062472
0.122255675 0.030877108 -0.052459203 -0.016979462 -0.10793329 0.07818148 -0.041730978 0.11106638
-0.028555848 -0.11092483 0.11170429 -0.061057795 -3.1630727e-05 0.06754127 -0.0066453833 0.060980152
-0.09905241 -0.041232288 0.0013604453 0.12667564 -0.030160459 0.07998518 -0.037101556 -0.11453259
0.01458809 -0.015131015 0.026959846 -0.004286044 0.07026885 0.1269973 -0.0055225096 -0.1144747
-0.110302106 -0.020402513 -0.06622374 0.017280726 -0.0052934303 0.015117668 0.057361398 0.11854711
-0.02314071 -0.008427248 0.10038759 0.0534806 -0.058858607 -0.08886123 -0.05596272 0.031620834
0.028552935 -0.10321622 0.0058785854 -0.024601437 -0.10849807 -0.033416852 0.0075655445 -0.0542711
0.07949354 0.00880123 0.029087918 0.030982094 -0.05595933 0.07537818 0.057834357 0.11444264
-0.068461634 0.087877035 0.10554038 -0.01162761 0.10062136 0.0004405889 0.0452133 -0.04694361
-0.05531823 -0.011891584 -0.12117966 0.10220041 -0.04090607 -0.065244995 0.06398452 0.113010764
0.10175681 -0.08729298 -0.120103985 0.069473475 -0.004324251 0.09870608 -0.045188714 -0.037602406

critic.3.bias f4 [64]
00000000: d25f fa3d 5134 d83a 39d9 e83d c571 ea3d
00000010: 8683 023d 08e4 d53d ad2d 9d3d e4b7 afbd
00000020: 6a5c 963d 48fd ef3d 2bdf 223d 477a 3dbc
00000030: 9ea5 eebd a026 2bbd fa6d 7dbd f705 9e3d
00000040: 41c4 90bc 0050 863d 2a2e b83c 64f1 f7bd
00000050: 9a47 1b3c d048 283d ce42 c73d 2e5c 21bd
00000060: 3e85 903d 2191 16bd 9d03 f1bd 7ab9 de3d
00000070: ad51 9f3d 22f4 e8bc 1d44 6c3d a305 f23d
00000080: b3d2 71bd 4dce a0bb a0c4 6fbc 1f0c d0bc
00000090: 82a0 b73c e61b e93b 9ebe d93d e50e 753b
000000a0: 6157 4c3d 6afd 53bd 1b15 efbd 57ce e23d
000000b0: 1e63 603d 1cef 19bd ebe7 f4bd 3c21 f03c
000000c0: 5a18 5e3d b6fd d33d b404 b43d aa6c 833d
000000d0: 87ec f3bc 68a1 e4bd 95d9 a0bd b265 fc3d
000000e0: 3472 d03c 9499 cabc da68 bb3d 1537 773d
000000f0: a6e8 dbbd d14c 3cbd 09a9 ac3d b2e2 27bc
0.122253075 0.0016495084 0.11369557 0.11447481 0.03186371 0.10443884 0.076747276 -0.08579996
0.07341845 0.117182314 0.03976361 -0.011564798 -0.11652683 -0.041784883 -0.06187246 0.077159815
-0.017671706 0.065582275 0.02248295 -0.121065885 0.00947752 0.041085064 0.09729539 -0.03939455
0.07056664 -0.0367595 -0.11768267 0.108752206 0.0777925 -0.028436724 0.057682145 0.11817481
-0.05903883 -0.0049074055 -0.014634281 -0.025396405 0.022415403 0.0071139215 0.106320605 0.003739291
0.04988802 -0.051755346 -0.116739474 0.110745125 0.054782026 -0.037581548 -0.11958297 0.029312722
0.054222442 0.10351126 0.087899595 0.064172104 -0.029775871 -0.11163598 -0.078540005 0.12324084
0.025445081 -0.024731435 0.09150858 0.060355265 -0.107377335 -0.045971695 0.084306784 -0.0102469195

critic.4.weight f4 [64]
00000000: 12d9 743f 873b 7b3f 649f 7a3f 8f22 763f
00000010: 7583 7c3f 1437 713f e635 773f 0434 763f
00000020: fd67 763f 3170 733f 5b6d 723f 8ac5 763f
00000030: 6315 793f bd10 733f 2e43 783f a68f 723f
00000040: 63bb 763f 237a 743f 8109 743f ec7b 7c3f
00000050: c908 773f 2292 7c3f d672 753f 7a22 783f
00000060: 50f4 733f e547 7a3f 0a06 793f 7c9c 803f
00000070: 3f2e 763f 6953 793f 5cfe 753f e74a 773f
00000080: 69ef 7a3f a7c5 763f d7f3 7a3f 5b1a 743f
00000090: 0f6c 683f aff6 763f fbb8 793f a297 7a3f
000000a0: c49b 7b3f 6f9f 743f 898f 773f 03f1 6e3f
000000b0: 2fcd 753f f628 7a3f 2ad3 733f eff8 7d3f
000000c0: 0ee7 783f 434f 743f 5649 7d3f d283 763f
000000d0: 2ae3 773f a3ff 763f 7e7a 733f 9612 7b3f
000000e0: 8040 773f be7d 7b3f 3402 763f 21c8 743f
000000f0: 1619 723f a350 773f cdfa 723f f4f6 763f
0.95643723 0.98137707 0.9789946 0.9614648 0.9863809 0.9422467 0.9656662 0.9617312
0.96252424 0.95093066 0.94698113 0.9639517 0.9729826 0.94947416 0.9697751 0.9475044
0.9637968 0.95498866 0.95327 0.9862659 0.9649778 0.9866048 0.9587835 0.9692761
0.95294666 0.9776595 0.9727484 1.0047755 0.96164316 0.973929 0.96091247 0.96598667
0.9802156 0.96395344 0.9802832 0.95352715 0.90789884 0.9647016 0.9754788 0.97887623
0.98284554 0.95555776 0.9670339 0.93336505 0.9601621 0.9771875 0.95244086 0.9920797
0.9722756 0.95433444 0.98940027 0.9629489 0.96831 0.9648382 0.95108783 0.98075235
0.96582794 0.9823874 0.9609711 0.9561787 0.9456953 0.96607417 0.9491394 0.9647057

critic.4.bias f4 [64]
00000000: ee3b b5bd 8c5d abbd e0f8 ac3d 65bf debd
00000010: e362 ae3d f3b9 19be 30b6 b1bd 6f82 ac3d
00000020: 6b58 b7bd 64dc c2bd f424 b23d fedc babd
00000030: 1692 b3bd fa3e c3bd e50b a6bd af96 b73d
00000040: 031c b13d 99e6 c53d b044 ef3d 008d ac3d
00000050: a514 aabd 0b43 c0bd 79b4 b13d 3159 b93d
00000060: 46bd c63d e4b1 ab3d 430b c13d 37e9 b4bd
00000070: c4e6 b8bd c2d5 aa3d 1238 bcbd d55b b23d
00000080: e0af a83d 4a1c a83d 6bbf acbd 5400 b43d
00000090: ad07 34be e739 cf3d e038 a9bd 8a9b b6bd
000000a0: 2b38 b8bd 144d b7bd ca0c b53d 67d1 273e
000000b0: c56d f4bd fbac b5bd d519 a7bd 6d73 b1bd
000000c0: e660 b9bd dd3c d6bd f534 ce3d 1768 c0bd
000000d0: f507 c5bd 0a03 d2bd 21bd c7bd 0cf9 f7bd
000000e0: a406 b0bd 647f a73d e600 d9bd 4002 c33d
000000f0: 4fd1 b53d f15b b2bd abe3 e4bd 9772 aabd
-0.08849321 -0.08367452 0.08445907 -0.10876349 0.08514955 -0.1501234 -0.08677328 0.08423316
-0.08952411 -0.095146924 0.086984545 -0.09124182 -0.08768098 -0.09533496 -0.081077375 0.089642875
0.08647921 0.09663124 0.11683023 0.08425331 -0.08304719 -0.093877874 0.086770006 0.09050215
0.0970407 0.08383539 0.09425976 -0.08833545 -0.0902839 0.08341552 -0.09190382 0.08708922
0.082366705 0.08208521 -0.084349476 0.08789125 -0.17581053 0.10118466 -0.08262801 -0.089163855
-0.08995088 -0.08950248 0.0884033 0.16388474 -0.119349994 -0.08870884 -0.08159224 -0.08664594
-0.09051685 -0.104608275 0.100686945 -0.093948536 -0.09620658 -0.10254486 -0.0975287 -0.12108049
-0.085950166 0.08178595 -0.105958745 0.095219135 0.08877813 -0.08708943 -0.11176237 -0.083226375

critic.4.running_mean f4 [64]
00000000: b3a5 113e 9bd5 983c efaf f83d cd0b b73d
00000010: 45b3 923d da76 d93d fa9c 953d 1fe3 bbbd
00000020: 7366 c93d b9a4 fc3d 9ee6 073d 51e6 d53b
00000030: 68a4 19be e57c a8bd 05c2 adbd 254c 203d
00000040: 25dc eabc f3f7 033d 82e0 ac3c 3cfc d1bd
00000050: aac9 273c 8968 8d3d f4b7 b13d aa7f 8bbd
00000060: 48a8 3b3d 32a5 87bc 36bb e1bd 3dcd d83d
00000070: 0eef da3d 4ef8 a4bd 8446 c13d e74e 983d
00000080: 03f9 4bbd f607 d6bc a3a9 1d3d e3e6 f6bb
00000090: fdcd 8abb ef12 1d3d babf f33d b587 d3bb
000000a0: 5cf9 3d3d 3bf2 83bd dcce 0ebe 7052 c13d
000000b0: 483a e33d 07bc 9c3c 750d f2bd 7101 443d
000000c0: 2cdb cd3d 2185 a63d a856 893d f669 a83d
000000d0: f662 30bd b4a1 a7bd d128 b3bd 58a2 293e
000000e0: 18e6 f93c 2f64 6c3b 9820 eb3d 8cc8 bb3d
000000f0: 12ba 08be c5f8 46bd fe19 be3d bf8a 58bc
0.14223365 0.018656543 0.12142932 0.08937798 0.07163099 0.10618372 0.073053315 -0.09174179
0.09833994 0.12336106 0.033178918 0.0065277 -0.15004122 -0.08226947 -0.08484272 0.039135117
-0.028669426 0.032218885 0.021103147 -0.10253188 0.010240952 0.06904704 0.086776644 -0.06811459
0.045814782 -0.016558263 -0.11022036 0.10586021 0.10690127 -0.08055173 0.09437278 0.074369244
-0.049798023 -0.026126843 0.038491856 -0.007534848 -0.0042359815 0.038348135 0.11901803 -0.0064553865
0.046380386 -0.06442686 -0.13946098 0.09439552 0.11095101 0.019132627 -0.11818973 0.047852937
0.10051569 0.08130861 0.067059815 0.082233354 -0.043063127 -0.08185139 -0.087480195 0.16565835
0.030505225 0.0036070456 0.11480826 0.09169111 -0.1335223 -0.04857709 0.09282301 -0.013216673

critic.4.running_var f4 [64]
00000000: d697 2d3e 1451 373e b858 053e 67e3 183d
00000010: b90c 973e d4cd 433e 67c8 103e 3bcf 4f3d
00000020: e12b ad3c 9c79 963d 33b7 513e 5050 433e
00000030: 950a 9a3e 600d 8b3e cf4b 1e3e b732 eb3e
00000040: 4a3a 7b3f 53c1 9c3d 93ec aa3d af14 9d3d
00000050: eefb 033e 8e43 773d 3696 063d f43f aa3d
00000060: ec8a 873d 0772 403e 024b 0b3e 28f0 383d
00000070: 221b 0e3e 4a4b 983d 0a44 a03c 11d8 7a3d
00000080: 3b47 483e 760e d13e 729d 9a3d 26cd 323d
00000090: 33a9 143e 41ba 683e d361 de3e 3695 243d
000000a0: c92f 4b3d 7fdf a23d 3fca 423e 8f2c 8b3d
000000b0: f4d7 5c3c 6c2f 313e fb6a bd3d bd25 5c3e
000000c0: c2e3 5a3d bae3 d83d a600 513d b74a 5e3d
000000d0: 1e58 7c3d 7ae8 e73d 92ac ad3d 14d3 8f3c
000000e0: e34f 033e 6713 853e e7f3 553d 6d30 0c3e
000000f0: 5c22 b13c b5ff 603e 1386 9f3d e63b 113f
0.16952452 0.17902023 0.13022125 0.037326243 0.29501894 0.19121486 0.14138947 0.05073474
0.021139087 0.07347414 0.20480041 0.19073606 0.30086198 0.27158642 0.15458606 0.4593713
0.9813582 0.07654061 0.08345904 0.07669961 0.12889072 0.06036716 0.032858096 0.08312979
0.06618294 0.18793498 0.13602832 0.045150906 0.13877538 0.07436235 0.019563694 0.061241213
0.19558422 0.40831345 0.075495616 0.043652676 0.1451767 0.227273 0.4343401 0.04018136
0.04960612 0.07952785 0.19022463 0.06795608 0.013479222 0.17303246 0.092489205 0.21498771
0.053439863 0.105903104 0.05102601 0.054270472 0.061607473 0.11323638 0.08480181 0.017556705
0.12823443 0.25991365 0.052234557 0.13690348 0.02162283 0.21972544 0.077892445 0.5673202

critic.6.weight f4 [1, 64]
00000000: 72f9 0b3e 68be ef3d 4151 ecbd 7d6a 1f3d
00000010: 61f4 f9bd 3411 3a3d 07ae cd3d 7970 babd
00000020: 26e0 d23d 13d2 b33d 55e3 08be a17d b53d
00000030: 8f15 7a3d eaf1 3c3d 67f6 023e da4a c9bd
00000040: a8c7 28bd 9d4d 80bd d46d 2bbd c9d9 0cbe
00000050: 5a5b 0c3e ee7a a93d fb01 fcbd c5a7 b2bd
00000060: 57bc a3bd da15 d7bd 41ed 85bd a330 c13d
00000070: c727 973d 51dc 01be 080b 713d 3ff8 00be
00000080: ccb6 d7bd 20b9 e8bd 7ab7 fb3d d42c 00be
00000090: 4112 413d 52a4 6dbd dfc3 e13d d731 f13d
000000a0: 5a3b c73d 3590 9e3d 1886 45bd bf7f 37bd
000000b0: 2004 943d ef97 793d 696b f83d 80c3 b73d
000000c0: d81a cd3d f728 343d 642c 84bd 2c95 943d
000000d0: 654e 573d 9f9d 4c3d 7912 053d 3ef7 ac3d
000000e0: 5063 e73d 0a16 ffbd dc71 303d 8246 a9bd
000000f0: 6f3d e0bd 5981 a63d 2574 893d 8e87 c93d
0.13669375 0.11706239 -0.115389355 0.038919915 -0.12204815 0.045426562 0.10042959 -0.09103484
0.10296659 0.08780303 -0.1336797 0.088618524 0.061055716 0.046129145 0.12789308 -0.0982873
-0.041206032 -0.062648036 -0.041852787 -0.13754953 0.13706723 0.082754 -0.12305065 -0.08723406
-0.07994907 -0.10502215 -0.06539393 0.09433105 0.07380634 -0.126817 0.05884841 -0.12594698
-0.105329126 -0.11363435 0.12290855 -0.125171 0.04713655 -0.058018036 0.110236876 0.11777084
0.09728117 0.07742349 -0.048223585 -0.044799563 0.07227349 0.06093591 0.12129862 0.089728355
0.10014886 0.04398438 -0.06453779 0.07255015 0.052564997 0.049955007 0.03248832 0.08445595
0.11298239 -0.124553755 0.043077335 -0.082654014 -0.109492175 0.0813014 0.06711606 0.09840308

actor.0.weight f4 [64, 10]
00000000: 8966 8d3e 0bd7 febc 42b3 a33e 52a5 cdbd
00000010: ba7e 8c3e 2565 633e 5e2f cb3d e3e9 7dbe
00000020: cd03 a33d 638b 653e 5a32 3f3e 2ac9 703c
00000030: 654b 3bbd aedb b4bd be1d 5c3e 51ad 48bd
00000040: da37 99be 3636 8f3d 393a b63b cc86 96be
00000050: 58de 67be 2023 bb3c 1003 febd dd1b 26bc
00000060: 3d61 c03c 086f f2bd 04f2 063e 4650 133e
00000070: 97d0 a73e 0c4b 073e 5252 8a3e 4c90 4e3e
00000080: e024 203e 511a 803e b27d 3fbe 6ce1 963d
00000090: bc9e e5bd 97d4 bc3d 2c95 99be 4973 ddbd
000000a0: 7005 7fbe 0bb0 b43d 12df 89be 4e7c f43d
000000b0: 87ae f73d 5375 563e 909c 873e 4375 b4bd
000000c0: a090 973e 59ba 643d a674 cb3d cd6e f73c
000000d0: f010 c3bc 8a30 94be 05e6 5ebd d6f2 81be
000000e0: 697d 833e 0f2f 07bd 6415 483e e9ac 8a3d
000000f0: 7af6 bd3d 91a7 86be 41dc 38be d8b2 1abd
00000100: d3df 31be ee58 4a3e ffe0 9a3d ed12 7dbe
00000110: da83 90bd 6c1c 26be ddb5 953e c28c babc
00000120: 3d6e 173e 68e6 9bbc 46c5 d53d 3820 12be
00000130: 8429 d23d 0050 993c f786 633e 5788 3c3d
00000140: 0d44 80be 7dbc b3be c93b 453e 1f8e 493e
00000150: 0dd6 523e a847 25bc c298 cfbd a66e 1cbe
00000160: 85c8 493e 6ecd 14bd 8495 9c3e f209 a6bd
00000170: d829 0f3e a9d0 703d d3d0 27be f17b 863e
00000180: 5eb9 953e faa0 18bd a933 803d 3a13 6b3e
00000190: 742b 88be 1218 81be 8ab0 58be 94b2 123d
000001a0: fa3b f6bd 6e23 cabc 3927 6e3d 41ed d93d
000001b0: 3321 8c3e ed49 2e3d 6d7d 32bc 4e73 d6bc
000001c0: 7733 5bbe 80d7 2bbe d145 483e e610 8d3e
000001d0: 1585 9d3e 7cb8 2a3e 50d8 05be d2c4 793d
000001e0: dc9e 883e 6be2 4c3e 13dc fabd f0af 2f3e
000001f0: 2009 f23d 6920 443e 7213 a23e f942 91be
00000200: a12e b63e da6e 13bd 945c 3d3d 5def 823e
00000210: c788 3bbc fffc 35be 9d44 8fbe 6900 10be
00000220: bb94 4e3c 252b 7a3e 4cc6 39be 538e bcbd
00000230: 00d5 093e 21b5 6ebe 1a37 983d 9309 38be
00000240: eed1 9d3e 56ac 6abe 63f9 57be 6ffe 5a3e
00000250: b956 a8be 2f5d 553d 3fa0 103e 774b 233e
00000260: 6b24 11be 8976 b33c 3e34 963e 2064 2cbe
00000270: e175 c03d 0e55 1c3e a561 89be f812 353e
00000280: 3a5b d1bd 484f c43c 7df7 8c3e b033 53be
00000290: 1d0e 1bbe 38f6 c93d 19ff debd 1f61 51be
000002a0: a233 963d 4800 063e ea65 86be e412 913e
000002b0: 54d0 4abd 3102 41bd 9b0f 8d3e 461a 103c
000002c0: 538e 813e 1bc8 d7bd 96b2 843e 4a4d 783e
000002d0: d3b4 523e c6e9 0fbe d965 5bbe 76ef 19bd
000002e0: e318 9c3e 8a4c e3bd ffbb 89be 4e28 953d
000002f0: 4d81 8c3e 5feb 73be 5cf8 1abe 24d2 62be
00000300: 3b79 a1bd ab9f 1abe f69a 863e 6bac 553d
00000310: 8334 af3c be58 903e f0cd b53d b267 9c3e
00000320: 5f4d eb3c bd57 6a3e 612d 0fbe f158 2c3d
00000330: 3fa1 8b3d 1c18 6dbe 95cd a8be 8675 b43d
00000340: fce2 8bbe 5359 553e 9c98 8b37 8693 f2bd
00000350: a740 43bd 4768 8a3e 7dfb 9ebe 274b 0fbe
00000360: 661f a83e ef25 863e 17b3 ab3e ffdf 31be
00000370: b636 643e 3a76 03be 130b 3c3e 39b1 9abe
00000380: 7c02 dbbd ba81 79bc 0710 84be b157 25be
00000390: b158 23bd 58a6 d43c 4d7c f23d 3a2f 40bd
000003a0: 0531 263c a340 49bd b331 a1be 7708 c0bd
000003b0: e380 77be add0 88be 9d22 80be 7f36 293d
000003c0: 2ae9 9f3c b37e 943e b010 63bd 4ff4 3ebe
000003d0: b2af 44be c86a 68be e584 973e 8ec5 923d
000003e0: 36fa bf3d dc60 22be 0b69 1e3e 1d42 193e
000003f0: 53b9 683d 0ff1 003e 61f0 a0bd 10c8 3a3e
0.2761729 -0.0311084 0.319727 -0.10041298 0.27440435 0.22206552 0.09921144 -0.24796252
0.07959709 0.22416453 0.18671551 0.014696399 -0.0457262 -0.08830963 0.2149572 -0.048993412
-0.29925424 0.06992762 0.00556114 -0.29399717 -0.22643411 0.022843897 -0.12402928 -0.010138479
0.023483867 -0.11837584 0.13178259 0.1438609 0.3277633 0.13212222 0.2701593 0.20172232
0.15639067 0.25020078 -0.18700293 0.073672146 -0.11211917 0.09220236 -0.29996622 -0.108130045
-0.24904418 0.0882264 -0.26928002 0.11937772 0.12093835 0.20943193 0.26486635 -0.088114284
0.29602528 0.055841777 0.09934358 0.030204201 -0.023811787 -0.28943282 -0.054418582 -0.25380582
0.25681618 -0.033003863 0.1953941 0.06771261 0.09275527 -0.26299718 -0.1805277 -0.037768215
-0.17370538 0.19760486 0.07562446 -0.24714251 -0.07056399 -0.1622178 0.29240313 -0.022772197
0.14788146 -0.019030765 0.104380175 -0.14270103 0.10261825 0.018714905 0.22219454 0.04602846
-0.2505192 -0.35104743 0.19261087 0.19683121 0.20589466 -0.010087885 -0.10136558 -0.15276584
0.19705398 -0.036328726 0.3058282 -0.08107366 0.13980806 0.058792744 -0.16388254 0.26266435
0.29242986 -0.037262894 0.062598534 0.22956553 -0.26595652 -0.25213677 -0.21161094 0.035814837
-0.12023158 -0.024675097 0.058142874 0.10640956 0.2736908 0.04255097 -0.010894162 -0.026178028
-0.21406351 -0.16781425 0.19557883 0.27551955 0.30765596 0.16671938 -0.13070798 0.060978718
0.266837 0.20008247 -0.12249007 0.17156959 0.11818147 0.19152988 0.3165546 -0.2837141
0.3558245 -0.03599439 0.046230868 0.25573245 -0.0114461845 -0.17772292 -0.27982035 -0.14062656
0.012608702 0.24430521 -0.1814205 -0.09206834 0.1346016 -0.23311283 0.07432385 -0.17972402
0.30824226 -0.22917303 -0.21091227 0.21386121 -0.32878664 0.05209082 0.14123629 0.15946756
-0.14174049 0.021907108 0.29336733 -0.1683507 0.093974836 0.15266821 -0.2683231 0.17683017
-0.10222478 0.023963585 0.2753257 -0.20625186 -0.15142103 0.098614156 -0.108885 -0.20447205
0.07334067 0.13086045 -0.2624963 0.28334725 -0.049515083 -0.04712123 0.2755097 0.008795327
0.25303897 -0.10536214 0.259175 0.24248233 0.20576791 -0.14054021 -0.2142557 -0.037581883
0.30487737 -0.11098583 -0.26901242 0.07283078 0.274424 -0.23820256 -0.15133804 -0.22150475
-0.07884451 -0.15099971 0.262901 0.052166384 0.021387344 0.28192705 0.0887717 0.30547863
0.028723417 0.22885032 -0.13982154 0.04207701 0.068178646 -0.23153728 -0.32969347 0.08811478
-0.27321613 0.20834856 1.6641156e-05 -0.11844544 -0.04766908 0.27032682 -0.31051245 -0.13993512
0.32836455 0.26200816 0.33535072 -0.17370604 0.22286496 -0.12838069 0.183636 -0.30213335
-0.10693833 -0.015228683 -0.25793478 -0.16146733 -0.039879505 0.025958225 0.11840115 -0.04692004
0.010143523 -0.049133908 -0.3148323 -0.093766145 -0.2417026 -0.26721707 -0.25026408 0.041311737
0.019520361 0.29002914 -0.055435836 -0.18647884 -0.19207647 -0.22696984 0.29593578 0.07166587
0.09373896 -0.15857261 0.15469758 0.14966626 0.056817364 0.12591957 -0.07858349 0.1824038

actor.0.bias f4 [64]
00000000: 2077 48be a1a7 893e 14e3 81be 170c 5e3e
00000010: 079e a13e 4eea 9b3d e288 b2bd 2285 a2bd
00000020: 2bf5 db3d ba73 bbbd c265 c4bd a8b9 3cbe
00000030: 2cac 283d c8c6 54bc b39c 8fbe cdb1 e03d
00000040: ec5b 743e 7b51 f43a 5b29 87be 3c18 d43d
00000050: 8b96 95be 1260 9b3d e4a0 a23d 09f5 96be
00000060: a2fe 60be a0db 2b3e 47e3 0c3e b0be 693e
00000070: 9f28 1bbd 2cae 923e ab64 4cbe be1e 2abe
00000080: 986e 8fbe 25e7 183d 8500 c8bc 7484 56be
00000090: 23cf c4bd 9ae2 f1bd acb6 58be 6efa 853e
000000a0: 3384 1dbc 6155 c23d 7317 84be 1c86 78bd
000000b0: 1eb9 383e eb7f c33d f716 823d b6b7 4d3a
000000c0: 379c 753d 08f8 c13c 1242 aabd 4c07 fc3d
000000d0: 4a24 00be e602 e53d 4e04 8d3d a812 893e
000000e0: f894 27be d3a9 42be 2a16 683e 5f11 23be
000000f0: 0765 0b3e faf3 563e cab9 a23c 33ee d1bd
-0.19576693 0.26885703 -0.2536856 0.216843 0.31565878 0.076130494 -0.087175146 -0.07935549
0.107401215 -0.091529325 -0.09589721 -0.18430197 0.04117982 -0.012986846 -0.2804924 0.10971413
0.2386319 0.0018640006 -0.2639874 0.10356185 -0.29216418 0.07586683 0.07940844 -0.29483822
-0.21972135 0.16782999 0.13758574 0.22826648 -0.037880536 0.28648508 -0.19960277 -0.1661329
-0.28014064 0.03732981 -0.02441431 -0.20948964 -0.09609821 -0.11810799 -0.21163434 0.26167625
-0.009614038 0.09488941 -0.2579914 -0.06067477 0.18039367 0.09545883 0.063520364 0.00078475045
0.05996343 0.02367784 -0.08313383 0.12306079 -0.12513843 0.111821935 0.06885587 0.26772046
-0.16365421 -0.19010095 0.22664705 -0.15924595 0.13612758 0.20991507 0.019863982 -0.10250511

actor.1.weight f4 [64]
00000000: 7fa8 873f b07d 803f 8c1f 873f 2338 803f
00000010: 9b08 8b3f 7c06 773f 0ffc 803f b87f 823f
00000020: 65b5 803f 7a1f 7c3f 4984 803f 7fff 7c3f
00000030: 94e3 7f3f d81e 813f 48c5 883f a950 7c3f
00000040: e5d7 863f 960d 823f 7b80 823f beff 7a3f
00000050: 3802 853f 6e4e 833f b631 843f 07ce 833f
00000060: 3978 833f f434 763f 283c 7c3f c933 813f
00000070: cc3f 803f 50ff 7e3f 60e9 793f ef75 853f
00000080: c064 823f a520 783f c267 793f d934 8c3f
00000090: 1f4b 7a3f 0394 803f 587d 853f 00ed 753f
000000a0: c2ae 7c3f 1ad5 833f a7ac 803f bd2f 7b3f
000000b0: c697 7a3f b021 843f 3f92 7d3f 0039 783f
000000c0: 2b3f 7f3f 8289 853f 8eab 783f a846 863f
000000d0: 20ff 853f acbb 7d3f 173a 833f 598d 843f
000000e0: 16a2 843f 1780 883f 6a08 813f dbfb 7c3f
000000f0: 34aa 873f 92aa 8a3f cd69 7d3f ef12 803f
1.0598296 1.0038357 1.0556502 1.0017132 1.0862001 0.9649427 1.0076922 1.0195227
1.0055357 0.9848553 1.004037 0.98827356 0.9995663 1.0087538 1.0685205 0.9856058
1.0534636 1.0160396 1.0195459 0.9804648 1.0391302 1.025831 1.032767 1.029725
1.0271064 0.9617455 0.9852929 1.0093929 1.0019469 0.99608326 0.97621727 1.0426615
1.0186996 0.9692481 0.97423947 1.0953628 0.97770876 1.004517 1.0428877 0.9606476
0.9870416 1.0299408 1.0052689 0.9811972 0.9788784 1.0322781 0.9905128 0.96961975
0.9970576 1.0432589 0.9713677 1.0490313 1.0468483 0.9911449 1.0252103 1.0355636
1.0361965 1.066409 1.0080693 0.988218 1.0598817 1.0833304 0.98989564 1.0005778

actor.1.bias f4 [64]
00000000: 6d10 a9bc dc5f 1f3c 2814 78bb 5aa2 1a3b
00000010: 5732 2ebd 5bd8 753c 61b7 bf3b 2e60 abbc
00000020: 1b53 813a 5409 88bc 2825 20bd f54f 0fbd
00000030: 1217 0c3b e933 fdbb 3dec 233d 323a a23c
00000040: 3a47 93bc fee7 e039 101c bfbc f279 e63b
00000050: b07f 673c b01b d43b 9c9d 203c 9ec3 7abc
00000060: c039 5cbc 8fee f73c ec5b 74bc 70fc 30bd
00000070: 39e8 78bb f3bb 11bc 52be 313c a89e 96bb
00000080: 272d de3c d28f 293b e4ae 433c 76b8 0fbd
00000090: 45a4 e63b a547 b3bc a000 dd3c 4764 f73c
000000a0: e5a0 a8bc 005a 27bc da06 8dbb 63e7 88bc
000000b0: e55a 623c b920 1abc c040 00ba 6e59 87b9
000000c0: 0861 96bc 6f52 ef3c 3c80 32bc 7299 92bb
000000d0: ff57 31bc b528 40ba 6eaa 553c 8463 ce3b
000000e0: d1b9 303c d4e8 06bd 60b0 8f3c 147f 06bc
000000f0: 1940 8abb 2448 773d a9ca 56bd ee0c 83bc
-0.020637715 0.0097274445 -0.003785381 0.0023595304 -0.042528477 0.015005196 0.005850718 -0.020919885
0.0009866686 -0.01660601 -0.039097935 -0.034988362 0.0021376056 -0.0077271354 0.040020216 0.01980314
-0.0179783 0.00042897457 -0.02332881 0.00703358 0.014129564 0.006473027 0.009803202 -0.015305428
-0.013441503 0.03026512 -0.014914494 -0.043209493 -0.0037980212 -0.008894908 0.010848599 -0.00459655
0.02712114 0.0025873077 0.011943553 -0.035088025 0.0070386254 -0.021884749 0.026977837 0.030199183
-0.020584533 -0.010214329 -0.0043037953 -0.016711896 0.013815616 -0.009407216 -0.0004892461 -0.00025815837
-0.018356815 0.029214112 -0.010894831 -0.0044738585 -0.010824203 -0.00073302846 0.013041122 0.0062984843
0.01078649 -0.032936886 0.017540157 -0.008209009 -0.004219067 0.060371533 -0.052439366 -0.015997376

actor.1.running_mean f4 [64]
00000000: ee8e 4cbf d819 cc3e ec68 49bf 0ba7 2f3f
00000010: 81dc 56bf 4ec4 b9bd 1ba5 bbbd 816f a7be
00000020: 07d0 d33c 41e3 06bf 0050 b7be 6617 24be
00000030: b250 babf 532c 053f 15f9 8e3f f041 383f
00000040: ca59 26be 5e3d 84bf 896c 0dbf 110b 3e3e
00000050: ceed 843e 94c0 8ebd 9441 703e 09d8 3c3e
00000060: b989 a4be 25e1 983e 7327 543e 8590 52be
00000070: 3389 453f 33af 00bc 5c71 4f3f 04b8 b93e
00000080: 0273 543e 7a45 c33e 41ec 953e e747 9ebf
00000090: 0cae 3abe ab2e 0dbf 717a ac3e 5339 a5be
000000a0: 233d 133f 7a9c fd3e d5ff 99be 808f 683f
000000b0: 222c ef3e 6e0b 7b3d 1b91 1abf 65c5 d4bf
000000c0: a489 5dbe 7ae4 9b3c d5ca 19bf b0a4 d63e
000000d0: 38b9 0a3f f1ff b83e 6a4b ebbe c907 843f
000000e0: f44e 463e d204 5abf 1c9b 64bf 5a42 983e
000000f0: 1741 52bf d599 873f 6281 31be 5632 b6bf
-0.79905593 0.39863467 -0.78675723 0.6861426 -0.8393021 -0.09070645 -0.09162351 -0.32702258
0.025856031 -0.5269051 -0.35803223 -0.16024551 -1.4555876 0.5202076 1.1169764 0.7197561
-0.1624519 -1.0331228 -0.55243737 0.18558909 0.2596268 -0.06970325 0.23462516 0.18441786
-0.32136324 0.29859272 0.20718174 -0.20562942 0.77162474 -0.007854271 0.8103235 0.36273205
0.20746997 0.38138944 0.2928181 -1.2365693 -0.18230456 -0.55149335 0.33687165 -0.32270297
0.5751516 0.49533445 -0.30077997 0.90843964 0.46713358 0.061290197 -0.60377663 -1.662274
-0.21634537 0.019029845 -0.6007512 0.41922522 0.5418887 0.36132768 -0.45955974 1.0314876
0.19366056 -0.85163605 -0.8929918 0.29738122 -0.8213057 1.0593821 -0.17334512 -1.4234111

actor.1.running_var f4 [64]
00000000: e935 1641 e9f3 2f3f 79ff e43f 39a2 1540
00000010: 1510 cc40 86be 263e 1f01 0e40 a38c f33f
00000020: 88c9 6040 8106 0c40 2ee0 8540 074a 8840
00000030: ea58 9b3f 7712 6e3e 37d5 e53e 84fb 1940
00000040: 80f0 d140 b27e 4b3f acb7 7740 e20b bb3f
00000050: 2788 1940 397e 383f 8a78 4b40 7849 833e
00000060: ea68 e63e d76c 853f 2bc9 9f40 cd2a a03f
00000070: 043f bc40 3861 5c3f d5ce 2241 514a 0341
00000080: 3569 0840 1e67 a140 a5a9 ba3e 426d 243f
00000090: d463 343e 2d59 f840 d631 2040 1e13 563f
000000a0: 7b3d 103f e4b9 ac40 69fd 4f3f 8103 c840
000000b0: 7849 1541 c1c5 0640 12a1 643f d42c 103f
000000c0: b7d5 bc40 437b 4f40 90f7 0a3f 7786 103f
000000d0: 158f f340 8df9 c53f 937d 8640 9510 ef3f
000000e0: 636c 5c3f 7564 7e40 4d64 bf3f aabd 0f41
000000f0: 0426 7240 ba53 c73e 8292 cf40 d1e7 3140
9.388162 0.6873155 1.7890464 2.3380263 6.376963 0.16283616 2.2188184 1.9027294
3.5123005 2.187897 4.1836157 4.2590365 1.213651 0.23249231 0.44889233 2.4059763
6.560608 0.79490197 3.8705854 1.4613001 2.398935 0.720676 3.1792321 0.2564199
0.45001918 1.042384 4.9933066 1.2513062 5.8826923 0.86085844 10.175496 8.205644
2.1314213 5.0438375 0.36457554 0.64229214 0.17616206 7.7608857 2.5030417 0.8362292
0.5634381 5.3976917 0.8124605 6.2504277 9.330437 2.10582 0.89308274 0.563184
5.901088 3.2418983 0.54284 0.5645518 7.611216 1.5466782 4.202829 1.8676935
0.86102885 3.9748814 1.4952484 8.983805 3.7835703 0.38931066 6.4866343 2.779774

actor.3.weight f4 [64, 64]
00000000: 0f45 043e 3779 bc3c 4e1a a9bd 32ed a2bd
00000010: ef65 d0bd 203d c2bd 4987 dabb dc6e 11bd
00000020: 03b1 f43d 082b debd 0403 f7bd 4932 ac3d
00000030: ccd8 9abd fb24 e8bd cb02 fc3b 655d e0bb
00000040: a911 e83d 0f9c 1d3d 62a8 d1bd 40b8 ddbd
00000050: 94a7 f83d a1ae f7bd a742 4d3d 3e30 a4bd
00000060: fed2 4b3d 12b8 c93d c4bd 81bd 4c9f 36bd
00000070: ba06 da3c c153 af3d f3a2 2e3c 15f1 06bd
00000080: dce5 e43c 0429 3cbd e576 cbbd 7873 c6bd
00000090: febb 7c3d 2735 c6bb 3a3f f33d d40b da3d
000000a0: cc44 9a3d ef7e 923c 3e5d 923d 178b 8d3c
000000b0: e8d5 7f3d 8891 c2bd 6bde 1c3c 2a85 2fbd
000000c0: bc0e d7bc 183a b5bd 57e4 48bd cdb9 b53a
000000d0: ac15 de3d 7d6a a3bd 6aab 04bc d15d 41bc
000000e0: d258 b0bc 625f 45bd 9c74 da3c ad84 78bc
000000f0: eba5 be3c 25d1 02bc 08d8 5ebd 7c45 d43d
00000100: 95f7 243d af62 1abd e78b 84bd 89b9 b73c
00000110: 6353 c3bc 5476 0ebe 358d 483c 3387 603d
00000120: 185b 93bd 52c7 fb3d d041 41bd ee1d a53d
00000130: 8f70 a93a 2790 4f3d f6fc 9b3b 2e00 923d
00000140: 0407 28bd d504 3b3c 3926 a1bd 015e 403d
00000150: a5d7 833c d3df d0bd 21d2 f33c 2a7d 8ebd
00000160: 5669 883d 5015 99bd 36c7 c53d d35f 72bc
00000170: eb83 99bc 2acf 763d c348 73bd b452 783d
00000180: 020b c6bd e2e5 58bd 2742 ba3d 2da8 e9bd
00000190: f0b9 42bd 6869 d13d 5e28 b73c 5507 c63d
000001a0: 02df cd3d d2da abbd 5458 f83c 949e 1a3c
000001b0: 688e 32bd d17b 363d f983 10bd 8c91 033e
000001c0: b069 1fbc 698f ddbc 8168 a7bd 26e1 f63d
000001d0: 32af 913d b92e 553c 0e2a 2b3d 9df5 bebd
000001e0: 450f d83b 5c77 de3b 0072 71bc b881 8ebd
000001f0: 5ce0 b93b f456 b13d c071 1b3d 1bb3 35bd
00000200: d4d4 e5bb 66b3 ed3d 4f58 87bc c752 5a3d
00000210: 6277 7dbc 3966 c83c cde1 f23c 846b 6a3d
00000220: 51f3 0b3e 02b1 3dbd 2b0f 593d 4c61 7c3c
00000230: 8ebe d93b c915 873d 5653 9dbd 5a95 943c
00000240: b869 14bd 8538 113e 6c56 bf3d 5c9d 35bd
00000250: ae6f d9bd a175 163e b11f d5bc eeaf 3abd
00000260: f174 953d 71b5 223d 7173 e63d 65ba 7cbd
00000270: 47ae 1cbd ab5f aebc b866 2c3b f62c 813d
00000280: 48b8 75bd b17a b33d edb4 dd3c 4891 0d3e
00000290: cdd0 b73d bd8a f83d 5f8c 6f3d 1d83 85bc
000002a0: 6886 48bd c29a f3bc 80fc 833d e08a 75bd
000002b0: 1246 87bd f091 b33d 79f5 f2bd 8c4c a73d
000002c0: 7521 bd3c b3d0 033d 4665 d03d b4e6 c0bc
000002d0: ef5f 4cbd d3d5 b5bd 7c7b 843c 1fac 18bd
000002e0: 7bb2 e9bd a118 9c3d 3c36 39bd 18c8 aebc
000002f0: 9b3a 86bb cc5a 18bd 42fa 79bd 2850 023e
00000300: a3b5 073d e2b4 0c3d d4fb e1bc 3152 bd3d
00000310: 1978 763c 85b1 b43c a07b bd3d 2d50 0e3d
00000320: 6672 813d 790b b93d 66ed b6bd 06c5 473b
00000330: 5e59 363c 5285 63bd 9b24 973d c633 b6bc
00000340: 5507 cabd 959f a6bd 4f15 b23d 080d 183d
00000350: 816a 81bd 79a8 52bd 53e2 0d3d 99f2 563d
00000360: 03d7 143e 9223 5b3d 8708 f4bc f044 b9bd
00000370: 8b22 6bbd 33f6 3bbb a824 b03c 8740 603d
00000380: 9ae8 70bd adfd ccbd 634e 2bbc adaf 093e
00000390: 4f8f bebd 8f50 e53d 8810 ddbd 16eb c13d
000003a0: e4ea e7bd beaf e0bd ff35 cf3d c225 8d3c
000003b0: 091b b43d 9097 82bd 3657 32bc fd6e 02be
000003c0: 7254 023e 4d12 ed3c b157 13bd 56fe af3c
000003d0: 7ad9 02be 604d d5bd a275 c6bd 137e e4bd
000003e0: 9303 55bd a030 6e3c d87d 98bd 9ab6 623d
000003f0: 93d5 a23d 36c2 14be d12c 01be 84d5 023d
0.12916969 0.023007018 -0.0825697 -0.07955398 -0.10175692 -0.09484315 -0.0066689593 -0.035506114
0.11947825 -0.10848051 -0.12061122 0.08408029 -0.07560882 -0.113351785 0.0076907626 -0.006847071
0.113314934 0.038478907 -0.102371946 -0.108261585 0.12141338 -0.12093855 0.050112393 -0.08017014
0.049761765 0.09849562 -0.06335023 -0.04458551 0.026614536 0.08560897 0.010658967 -0.032944757
0.027941637 -0.045937553 -0.09934787 -0.09689993 0.06170272 -0.0060488167 0.11877294 0.10646787
0.07532653 0.017882792 0.07146691 0.017278237 0.062459856 -0.09500414 0.009574513 -0.042851605
-0.026252143 -0.08848971 -0.049045887 0.0013864577 0.10843977 -0.079792954 -0.008097509 -0.011802153
-0.021526728 -0.048186667 0.026666932 -0.015168351 0.023272475 -0.007984434 -0.054405242 0.103648156
0.040275175 -0.03769177 -0.06471997 0.022427337 -0.023843473 -0.13912326 0.012240698 0.054816436
-0.07195109 0.12293877 -0.047181904 0.08062349 0.0012927222 0.050674584 0.00476038 0.071289405
-0.041022316 0.011414726 -0.078686185 0.04696465 0.016094038 -0.10198941 0.029763283 -0.06957467
0.06660716 -0.07474768 0.09657137 -0.014793354 -0.018739661 0.06025616 -0.059395563 0.060625747
-0.09670068 -0.05295361 0.09094649 -0.1140903 -0.047540605 0.10225183 0.022358116 0.09669367
0.10052301 -0.08391346 0.030315556 0.009437222 -0.04359284 0.044551674 -0.03528211 0.1284849
-0.009729788 -0.027045922 -0.081742294 0.120546624 0.07113494 0.013011628 0.041788153 -0.09324191
0.006593617 0.006789131 -0.014736652 -0.06958336 0.0056724977 0.08659163 0.037950277 -0.04436026
-0.0070138965 0.11606483 -0.016521601 0.0533016 -0.015470358 0.024462806 0.029648686 0.05723144
0.13667037 -0.046311386 0.05299298 0.015404057 0.0066450303 0.06595952 -0.07681911 0.018137623
-0.036233634 0.14181717 0.093426555 -0.044339523 -0.10617004 0.1469331 -0.026016088 -0.045577936
0.072976954 0.039723817 0.112524875 -0.061701197 -0.03825214 -0.021285852 0.0026306342 0.06307404
-0.059990197 0.08763636 0.027063811 0.13824952 0.089753725 0.12135837 0.058483478 -0.016297871
-0.048956305 -0.02973688 0.06444645 -0.059946895 -0.06605162 0.0876807 -0.118632264 0.08168897
0.023087243 0.032181453 0.101755664 -0.023547508 -0.049896177 -0.08878674 0.016172163 -0.037273522
-0.114109956 0.07621885 -0.045217738 -0.021335647 -0.004096342 -0.037195966 -0.06102968 0.1272589
0.033132207 0.03435219 -0.027585901 0.092441924 0.015043282 0.022057304 0.09252095 0.03474443
0.06320648 0.09035391 -0.08931999 0.0030482425 0.011129705 -0.055547066 0.07380029 -0.022241484
-0.0986468 -0.081359066 0.086954705 0.037121803 -0.06319142 -0.0514302 0.034639668 0.052477453
0.14535145 0.05350072 -0.029789222 -0.09046352 -0.05740599 -0.0028680682 0.021501854 0.054749038
-0.058815576 -0.10009322 -0.010455701 0.13445921 -0.09304678 0.11197006 -0.10794169 0.09468667
-0.11324099 -0.1097102 0.10117721 0.017229918 0.08794219 -0.063765645 -0.0108850505 -0.12737651
0.12727526 0.02893939 -0.0359723 0.021483582 -0.12778273 -0.10415149 -0.096904054 -0.11156859
-0.05200536 0.01453796 -0.07445878 0.055349924 0.07950892 -0.1452721 -0.12614752 0.031941906
